examples/rl/experiments_from_paper/experiments_data/trained_models/TiltrotorPlus8DofHoverEnv/ConventionalTiltrotorPlus8DofHoverEnv-1/ppo/TiltrotorPlus8DofHoverEnv-v0.pt (torch, 279745 bytes, 16 tensors)

weight f4 [150, 18]
0	0x3dc957ab	0.098311745
1	0x3e8074d5	0.25089136
2	0xbea68756	-0.32525128
3	0xbd05cc79	-0.032665703
4	0xbd54fb1c	-0.05199729
5	0x3e0c679e	0.13711402
6	0xbceaf6a8	-0.028682068
7	0x3e336a24	0.17520958
8	0x3c1a48f7	0.00941681
9	0xbdca0196	-0.09863584
10	0xbd7569ac	-0.05991523
11	0x3cf596ce	0.029979136
12	0x3ce347d7	0.027744217
13	0x3de1f364	0.11032751
14	0xbe44463b	-0.19167416
15	0xbdd1340b	-0.102150045
16	0xbe31a310	-0.1734736
17	0x3d67d066	0.05659523
18	0x3ece8e25	0.40342823
19	0x3de922cb	0.11383589
20	0x3e4a4643	0.19753365
21	0xbd9e19d1	-0.07719768
22	0x3de35115	0.110994495
23	0x3d7d00b9	0.061768267
24	0x3d8a9e4f	0.06768476
25	0x3e145cfe	0.14488599
26	0x3dabe217	0.083927326
27	0x3e62c6bf	0.22146128
28	0x3a86db3e	0.0010288728
29	0x3d43bd87	0.04778817
30	0x3e20f336	0.15717778
31	0x3cc7a17c	0.024368994
32	0x3dbab5bd	0.09116695
33	0xbe204958	-0.15652978
34	0xbd9b88bd	-0.0759444
35	0xbd11d0c5	-0.03559949
36	0x3d9a665f	0.07539057
37	0xbc5a1f5c	-0.013313141
38	0xbe5390a0	-0.20660639
39	0x399caf1e	0.0002988511
40	0xbd2a4855	-0.041572887
41	0x3d928204	0.07153705
42	0xbe03cb94	-0.12870628
43	0xbcceac3a	-0.025228608
44	0xbe392775	-0.18081458
45	0xbd129ac7	-0.03579214
46	0x3e07bcca	0.13255611
47	0x3cdf1be5	0.02723498
48	0x3e894e67	0.2681763
49	0x3e552fb1	0.20818974
50	0xbde8e05d	-0.11370919
51	0xbce8a4a1	-0.028398814
52	0x3e3e9914	0.18613082
53	0x3d9863e7	0.0744093
54	0x3b8edf4f	0.0043601166
55	0x3e8f7fd0	0.280272
56	0xbe67acf2	-0.22624567
57	0xbd01051b	-0.03149901
58	0xbe49095c	-0.19632477
59	0x3b55a613	0.0032600209
60	0x3dd3e02f	0.10345494
61	0x3e031d04	0.12804037
62	0xbe1a7ed0	-0.15087438
63	0xbd869952	-0.06572212
64	0xbd88f000	-0.06686401
65	0x3ca3b829	0.019985275
66	0xbe368ae1	-0.17826416
67	0x3e19c202	0.15015414
68	0xbe8d07e8	-0.27545094
69	0x3e8a14ba	0.26968938
70	0xbd49d85d	-0.049278606
71	0xbbc75f88	-0.0060843863
72	0xbcd7f1fd	-0.026360506
73	0x3de6cefe	0.112699494
74	0x3e098f68	0.13433611
75	0xbd3385c1	-0.04382873
76	0xbd4bc7ee	-0.049751215
77	0x3c9a8f9b	0.018867305
78	0x3cbe7f49	0.023254054
79	0x3dcc3e6c	0.099728435
80	0xbe2a8a0f	-0.16654228
81	0x3dd6f443	0.10495808
82	0x3e19b03e	0.15008637
83	0xbe4302c4	-0.19044024
84	0x3d75a491	0.059971396
85	0xbc84ff5b	-0.016235044
86	0x3dfdfc38	0.124016225
87	0x3d152469	0.036411677
88	0x3dbf7d2f	0.09350049
89	0x3e8c5f77	0.27416584
90	0xbd37bd05	-0.044857997
91	0xbe32d971	-0.1746576
92	0x3c3f5927	0.01167897
93	0xbe624e19	-0.22100104
94	0x3db0df6e	0.08636366
95	0xbd43cc15	-0.04780205
96	0xbbfd0f1b	-0.007722748
97	0xbda84422	-0.0821612
98	0xbde08721	-0.10963274
99	0x3da6eebf	0.08151006
100	0x3e4f7719	0.20260276
101	0xbe7f8edf	-0.24956845
102	0xbd6295f5	-0.05531879
103	0xbeaaf1c8	-0.3338759
104	0x3ce34c53	0.027746355
105	0x3d14cd45	0.036328573
106	0xbc56dd93	-0.013114351
107	0xbe061abd	-0.13096137
108	0xbe419844	-0.18905741
109	0x3e8f19cf	0.27949378
110	0xbe6a4562	-0.2287803
111	0x3c396b10	0.01131703
112	0x3d0111ca	0.031511106
113	0x3cc1b800	0.023647308
114	0x3c73e725	0.014886652
115	0x3e25ec5a	0.16203442
116	0x3e149aed	0.14512224
117	0xbd802de0	-0.0625875
118	0x3d76940d	0.060199786
119	0xbe4d94ed	-0.20076342
120	0xbe113cb3	-0.14183311
121	0xbcc502d4	-0.0240492
122	0xbd825c83	-0.063653015
123	0xbd04bcbc	-0.032406554
124	0xbd91fcc3	-0.071282886
125	0x3e3ed513	0.18635969
126	0x3e6f71ef	0.23383306
127	0xbdc01f22	-0.09380938
128	0xbde61fe8	-0.112365544
129	0xbe0f122a	-0.13971773
130	0x3d38a775	0.045081574
131	0x3d31b776	0.043387853
132	0x3e2d53e8	0.16926539
133	0x3b2d9f66	0.0026492714
134	0xbd9ea383	-0.07746031
135	0x3d1f4e56	0.038893066
136	0x3d9a102c	0.07522616
137	0xbe2dbb6c	-0.16966027
138	0x3d169eed	0.036772657
139	0xbe0347ff	-0.12820433
140	0xbd4e6902	-0.050393112
141	0xbe1b94d9	-0.151935
142	0xbc9ea329	-0.01936491
143	0x3e48d296	0.19611582
144	0x3e44b245	0.1920863
145	0x3e89ed4e	0.26938862
146	0x3d39ef78	0.04539439
147	0x3e8024e3	0.25028142
148	0xbdd3d7e9	-0.10343916
149	0xbe5e492c	-0.217076
150	0xbd31e682	-0.04343272
151	0xbdc17b4b	-0.094473444
152	0x3c2cd82b	0.010549585
153	0x3d238a98	0.039927095
154	0xbe17a723	-0.14809851
155	0xbe79e994	-0.24405509
156	0xbe037fa4	-0.1284166
157	0xbc8dd4ba	-0.01731335
158	0xbdad9986	-0.08476548
159	0xbd47818f	-0.04870754
160	0x3cb11002	0.021614078
161	0xbdcc7bb5	-0.09984533
162	0xbd9a3226	-0.07529096
163	0xbead1187	-0.33802435
164	0x3dc3281a	0.09529133
165	0xbe342bc0	-0.17594814
166	0x3d863500	0.06553078
167	0x3d81394b	0.06309756
168	0x3e8a0db9	0.26963595
169	0xbdd7f82b	-0.10545381
170	0xbd8057e7	-0.06266766
171	0xbbb57d78	-0.0055386387
172	0x3ea50b76	0.32235307
173	0x3df2445e	0.11829446
174	0xbe157d58	-0.14598596
175	0x3e341196	0.17584834
176	0x3e573708	0.21017087
177	0x3e3ec9ed	0.18631716
178	0x3e60184f	0.21884273
179	0xbe9548ab	-0.29157004
180	0xbea6017a	-0.32423002
181	0xbe7711ac	-0.24127835
182	0x3e96526b	0.29359755
183	0xbde23b45	-0.11046461
184	0xbe355a03	-0.17710118
185	0xbdfcff9a	-0.1235344
186	0x3cdc4042	0.02688611
187	0x3eb87490	0.3602643
188	0xbd1efa50	-0.038812935
189	0xbd9ee87a	-0.07759185
190	0xbd3acd86	-0.04560616
191	0xbe130e0c	-0.14360827
192	0xbde5780a	-0.11204536
193	0x3ddd5027	0.108063035
194	0x3d5c23d0	0.05374509
195	0x3e8d1139	0.27552202
196	0xbe19ab4e	-0.15006754
197	0xbac53360	-0.0015045218
198	0xbe28203a	-0.16418543
199	0x3e60156e	0.21883175
200	0xbd35c986	-0.04438164
201	0x3c8bee44	0.017081387
202	0x3e4d6be5	0.2006069
203	0xbd30cb36	-0.043162547
204	0xbaf7d0ad	-0.0018906795
205	0xbb6a5491	-0.0035755972
206	0xbd41701f	-0.047226068
207	0x3d063980	0.03276968
208	0xbecde654	-0.4021479
209	0xbbf8ad22	-0.0075889984
210	0xbdea4911	-0.114397176
211	0xbcee1283	-0.029061561
212	0xbdc809bb	-0.09767481
213	0x3c802c15	0.01564602
214	0x3e8501fb	0.25978073
215	0xbe0820fb	-0.13293831
216	0x3e4c10d5	0.19928296
217	0x3e27a330	0.16370845
218	0xbe4f1d8a	-0.20226112
219	0xbd87950e	-0.06620227
220	0xbc6149fc	-0.013750549
221	0xbde29076	-0.1106271
222	0x3e0925ae	0.1339328
223	0xbe111935	-0.14169772
224	0xbdd5d001	-0.10440064
225	0x3daf580c	0.085617155
226	0x3c87abaf	0.016561357
227	0xbd91bb0c	-0.071157545
228	0x3e469641	0.19393255
229	0x3bf24e05	0.0073945546
230	0xbe508efd	-0.20367046
231	0xbd5da5ed	-0.054113317
232	0xbd4201c3	-0.04736496
233	0x3db19b90	0.08672249
234	0xbeb00c10	-0.34384203
235	0xbd402489	-0.046909843
236	0xbdcc87f1	-0.09986866
237	0xbd8006ad	-0.06251273
238	0xbdc77137	-0.09738391
239	0xbe2a0a1c	-0.16605419
240	0x3c516903	0.012781384
241	0xbcacc00b	-0.021087667
242	0xbe2d4f7b	-0.1692485
243	0xbbacae7e	-0.0052698245
244	0xbe788073	-0.2426775
245	0xbe68a90c	-0.22720736
246	0xbe8627d9	-0.26202276
247	0x3e141c33	0.14463882
248	0xbd8b0a18	-0.067890346
249	0x3d08c1ab	0.03338782
250	0x3dfed259	0.124424644
251	0xbcacee34	-0.021109678
252	0x3e232b9b	0.15934603
253	0x3e2acc82	0.16679576
254	0x3d283c0c	0.04107289
255	0x3ca128b0	0.019672722

bias f4 [150]
0	0x3d86e192	0.06585993
1	0x3d619617	0.055074777
2	0x3c6cc90c	0.01445223
3	0x3d960b73	0.073264025
4	0xbced15b2	-0.02894101
5	0xbe305039	-0.17218103
6	0x3d30d474	0.04317136
7	0xbccb5170	-0.024819106
8	0x3d0eb1fd	0.03483771
9	0xbd361352	-0.04445202
10	0xbdcaa025	-0.098938264
11	0xbcd52da4	-0.02602274
12	0xbdaf15e8	-0.085491
13	0x3d4a6ae7	0.049418356
14	0x3e0c2dc7	0.13689338
15	0xbd32a1ea	-0.043611445
16	0xbd385502	-0.045002945
17	0xbda3dac8	-0.080007136
18	0x3d501a84	0.050806537
19	0x3d8b8f77	0.06814473
20	0xbd91adc7	-0.071132235
21	0xbe5ce9d7	-0.21573578
22	0x3d599e94	0.053129748
23	0x3e329d37	0.17442785
24	0xbbd2c01d	-0.006431593
25	0x3d96f681	0.07371236
26	0x3d0da2dc	0.034579143
27	0x3ddaefee	0.10690294
28	0x3db2d0cb	0.0873123
29	0x3d178b73	0.036998224
30	0xbd65a5bc	-0.05606626
31	0xbc8c18f6	-0.017101746
32	0x3d23eab2	0.040018745
33	0x3db2b9bf	0.087268345
34	0x3dc829fe	0.097736344
35	0x3e1c71b8	0.15277755
36	0xbd262b98	-0.040568918
37	0x3e0cf9c8	0.13767159
38	0xbcd782cb	-0.026307484
39	0xbd8a3846	-0.067490146
40	0x39f87cc6	0.0004739521
41	0x3b83a039	0.0040169028
42	0xbd04448c	-0.032291934
43	0x3db67d08	0.089105666
44	0xbc73ab7e	-0.01487243
45	0xbb3d8fe4	-0.0028924877
46	0xbcd93771	-0.026515694
47	0xbced189e	-0.028942402
48	0x3d32da7d	0.043665398
49	0xbdab50bc	-0.08365008
50	0x3c04ac8c	0.008097779
51	0x3cbd065c	0.023074321
52	0x3d9dc836	0.07704203
53	0xbce7c6ce	-0.02829304
54	0x3d081289	0.0332208
55	0x3c5c17d8	0.013433419
56	0xbe454d21	-0.19267704
57	0xbdacd8f1	-0.08439816
58	0xbdb32cf5	-0.08748809
59	0xbe36d05d	-0.17852922
60	0x3ccef32d	0.02526244
61	0x3dd98a74	0.10622111
62	0xbd41b8c7	-0.047295358
63	0x3a914c98	0.0011085449
64	0x3d12e6af	0.03586453
65	0x3d9c7c67	0.07640915
66	0xbc809fc8	-0.01570119
67	0x3c525098	0.012836598
68	0x3d8d004d	0.06884823
69	0xbd814374	-0.06311694
70	0xbd39fefe	-0.045409195
71	0xbd9e765b	-0.07737418
72	0x3d47bb3a	0.048762538
73	0xbc9cf80c	-0.019161247
74	0x3d0b63df	0.03403079
75	0xbe8fd030	-0.28088522
76	0x3c291001	0.010318757
77	0xbde66e97	-0.11251562
78	0x3cdfad7e	0.027304407
79	0x3bb724ce	0.0055891043
80	0xbd4b3457	-0.049610462
81	0x3d87b196	0.06625669
82	0xbd919bd8	-0.07109803
83	0xbdaa9ff2	-0.083312884
84	0x3ad7b487	0.0016457
85	0xbb0618aa	-0.0020461478
86	0xbc273829	-0.010206261
87	0xbc92217f	-0.017838238
88	0x3d3e9e8e	0.04653793
89	0x3d8f33ba	0.06992288
90	0xbd14760c	-0.03624539
91	0xbd48a293	-0.048983168
92	0x3d09919d	0.033586133
93	0xbd003120	-0.03129685
94	0xbdc68900	-0.096940994
95	0xbdabb763	-0.083845876
96	0x3d048a40	0.032358408
97	0xbe0951df	-0.13410138
98	0x3d85ee93	0.06539645
99	0xbdaa8da7	-0.08327799
100	0xbb5fcba7	-0.0034148486
101	0xbd9346db	-0.07191249
102	0xbda6d14c	-0.08145389
103	0xbd936401	-0.071968086
104	0xbc842d8e	-0.016135003
105	0x3dbd4f39	0.09243626
106	0xbd084a9e	-0.033274285
107	0xbcbe7d79	-0.02325319
108	0xbb9fa75e	-0.0048722466
109	0x3e771004	0.24127203
110	0xbe0237d1	-0.12716605
111	0xbd6a56ad	-0.057211567
112	0xbb8b542b	-0.004251977
113	0x3c2bc035	0.010482837
114	0x3e471074	0.1943987
115	0x3da166b3	0.078809164
116	0x3e031aa7	0.12803136
117	0xbdb1894a	-0.08668764
118	0xbd0375ae	-0.03209465
119	0x3c90540e	0.017618205
120	0xbd8fce48	-0.07021767
121	0x3cf3d531	0.029764744
122	0x3d8075cd	0.06272469
123	0x3d5a1cb9	0.05325005
124	0xbd749e75	-0.05972143
125	0xbbaac716	-0.005211721
126	0xbe039326	-0.12849101
127	0xbde70807	-0.11280828
128	0x3cd4dbfb	0.025983801
129	0x3c317584	0.010831241
130	0xbdaaaf06	-0.08334164
131	0x3d30142a	0.04298798
132	0xbd5b55ab	-0.053548496
133	0x3bd79df3	0.0065801083
134	0x3d36022b	0.04443566
135	0x3d6a227b	0.05716179
136	0x3ec53eef	0.38524577
137	0x3d156e5e	0.036482207
138	0x3d8d2f62	0.06893803
139	0x3d17f218	0.037096113
140	0xbc382dcd	-0.0112413885
141	0x3dcf473c	0.10121009
142	0xbdabb710	-0.08384526
143	0x3dce6cef	0.10079371
144	0xbbdb98a5	-0.0067015463
145	0x3d0b5f4a	0.03402642
146	0xbcaed8cb	-0.02134361
147	0x3d83adf1	0.06429661
148	0xbb2e08d3	-0.0026555553
149	0x3be5f69f	0.007017925

weight f4 [150, 150]
0	0x3c7e63d7	0.015526733
1	0xbce82067	-0.028335763
2	0xbe5920cd	-0.21203919
3	0xbcb02620	-0.021502554
4	0x3ea42d2f	0.32065722
5	0xbe34c207	-0.1765214
6	0x3dc84bda	0.097800925
7	0x3d3dff5d	0.04638611
8	0xbc315edc	-0.010825839
9	0x3d8f85a6	0.07007913
10	0x3e40218f	0.18762802
11	0x3c939c34	0.01801882
12	0x3c8f6eaf	0.017508833
13	0x3d85edc0	0.06539488
14	0x3e1dfe52	0.15429047
15	0xbc52bfba	-0.012863094
16	0x3d19ed0c	0.03757958
17	0xbd343b63	-0.044001948
18	0x3e00382a	0.12521425
19	0xbe111e42	-0.14171699
20	0xbd877f59	-0.066160865
21	0x3db0d44d	0.08634243
22	0xbde8ae7e	-0.11361407
23	0xbd0da4b5	-0.034580905
24	0xbd32678c	-0.04355578
25	0xbdcf5b12	-0.10124792
26	0xbdd09eae	-0.10186516
27	0x3dd7cf57	0.10537594
28	0xbe506ef9	-0.20354833
29	0xbdf47593	-0.11936488
30	0x3e628b12	0.22123364
31	0x3e75ab03	0.23991017
32	0x3db394bf	0.087686054
33	0xbc732cac	-0.014842194
34	0xbdf976c7	-0.12180858
35	0xbe3720ca	-0.17883602
36	0x3dc17bde	0.09447454
37	0xbc25efb6	-0.010127952
38	0x3da1c355	0.07898585
39	0xbd7d439a	-0.061832048
40	0xbea004f6	-0.31253785
41	0xbdc150b2	-0.094392195
42	0x3e969251	0.29408506
43	0x3e0922bc	0.13392156
44	0x3b092e05	0.002093197
45	0x3cde304e	0.027122643
46	0xbcdff8e9	-0.02734037
47	0xbd8b830a	-0.06812103
48	0x3df9d3c3	0.121985935
49	0x3e0c29b9	0.13687791
50	0xbd0a0b73	-0.033702325
51	0x3b058151	0.0020371268
52	0xbeacc2b6	-0.33742303
53	0x3e05f811	0.13082911
54	0x3d753409	0.059864078
55	0x3dd6656e	0.10468565
56	0xbd7a7d82	-0.06115485
57	0xbda4b888	-0.08043009
58	0x3d7fda53	0.06246407
59	0xbce18c9d	-0.02753287
60	0x3c8eaad5	0.017415443
61	0x3e512a46	0.20426282
62	0xbd3336a6	-0.04375329
63	0xbe459f3c	-0.19299024
64	0xbde46a29	-0.11153061
65	0xbc88a5eb	-0.016680678
66	0x3d8f1aa2	0.06987502
67	0xbdbb43db	-0.09143802
68	0xbe90e0cd	-0.2829651
69	0x3e1281f6	0.14307389
70	0x3e012cfe	0.1261482
71	0x3e0318ed	0.12802477
72	0x3d9138d7	0.070909195
73	0x3b933eb2	0.004493558
74	0x3e0d2846	0.13784894
75	0x3d693356	0.056933723
76	0x3e475493	0.19465856
77	0x3d771ec4	0.060332075
78	0xbe1bd98c	-0.15219706
79	0xbe227db0	-0.15868258
80	0xbd0997de	-0.033592097
81	0x3db04916	0.0860769
82	0x3dcb83a2	0.09937216
83	0x3ac82694	0.0015270286
84	0xbda8e035	-0.08245889
85	0xbe1a5a80	-0.15073586
86	0x3d0a1f6f	0.033721384
87	0xbe3835aa	-0.17989221
88	0x3e5a52c5	0.21320637
89	0x3db10b3c	0.08644721
90	0xbd6c58d8	-0.057701916
91	0xbd837424	-0.064186364
92	0xbe47d084	-0.19513136
93	0xbdce396a	-0.100695446
94	0xbd2a0a01	-0.041513447
95	0x3d9c317a	0.076266244
96	0x3e1c3f44	0.15258509
97	0xba0bc4f0	-0.0005331775
98	0x3e80ebde	0.25179952
99	0x3e808b5e	0.2510633
100	0x3e88610e	0.26636547
101	0x3c05b62d	0.00816111
102	0xbe285586	-0.16438875
103	0x3e706ab9	0.23478211
104	0xbc5c236b	-0.013436179
105	0xbe003997	-0.12521969
106	0x3caad779	0.020854698
107	0xbe187228	-0.14887297
108	0x3c8ffb6d	0.017575944
109	0x3aa067a2	0.0012237916
110	0xbdf616de	-0.1201608
111	0xbe161a11	-0.14658381
112	0x3b9c1c7d	0.0047641383
113	0xbe11ca7a	-0.14237395
114	0xbc7f8c16	-0.015597364
115	0xbcfb7b70	-0.030698508
116	0xbe2cc165	-0.16870649
117	0x3dc05209	0.09390647
118	0xbd7405f0	-0.059575975
119	0xbda73e9b	-0.08166238
120	0x3d3d1c47	0.046169546
121	0x3c6a3ac1	0.014296235
122	0x3d9e4240	0.0772748
123	0xbe27d72a	-0.16390672
124	0xbd5ccd69	-0.053906832
125	0xbdacd6a3	-0.08439376
126	0xbe06d7e5	-0.13168295
127	0x3c6fee49	0.014644214
128	0xbdcee2d1	-0.101018555
129	0x3e2ba39e	0.16761634
130	0x3b683c66	0.003543639
131	0x3e407e68	0.1879822
132	0xbcef9dfb	-0.029250136
133	0xbc99ddb7	-0.01878248
134	0xbd8ed4cd	-0.06974182
135	0x3e1960b2	0.14978293
136	0xbd8b0637	-0.06788295
137	0x3e3b178d	0.18270703
138	0x3dcc51b7	0.09976523
139	0x3d6be5f6	0.057592355
140	0x3c8cb2da	0.017175127
141	0xbd28bc0b	-0.041194957
142	0x3d104c09	0.035228763
143	0x3de10120	0.10986543
144	0xbdb19df0	-0.08672702
145	0x3e48d36d	0.19611903
146	0x3ced909a	0.028999615
147	0x3d8e7786	0.06956391
148	0x3d6523bf	0.055942293
149	0xbe4aa062	-0.19787744
150	0x3c95c409	0.018281953
151	0xbe8c28c8	-0.27374864
152	0xbcbe87bf	-0.023258088
153	0xbd821a36	-0.063526556
154	0xbe2fc626	-0.17165431
155	0xbdd2b64b	-0.10288676
156	0x3dccb44c	0.099953264
157	0x3d4fc1f7	0.05072209
158	0x3d46c691	0.04852921
159	0x3da4b3fe	0.08042143
160	0xbbdbbd6f	-0.006705932
161	0x3e1ceed6	0.15325484
162	0x3d606e2e	0.054792576
163	0x3dc7a060	0.09747386
164	0xbcc3934f	-0.023873953
165	0xbd8cac0a	-0.06868751
166	0xbd127de3	-0.035764586
167	0x3d23ff4a	0.040038384
168	0xbcae4bcd	-0.021276379
169	0x3d5855c5	0.05281617
170	0x3bfe9af9	0.007769939
171	0xbdc1297c	-0.09431741
172	0xbd14d5f4	-0.036336854
173	0x3ddeac2d	0.10872684
174	0x3e7edf71	0.24889924
175	0x3ebcab90	0.36849642
176	0x3ddd75e0	0.108134985
177	0xbe7793f2	-0.2417753
178	0xbc0e071a	-0.008668685
179	0xbe0cf5b0	-0.13765597
180	0x3da7962a	0.081829384
181	0xbd8eee2f	-0.06979024
182	0x3d481e66	0.048857115
183	0xbd461404	-0.048358932
184	0x3d8220f8	0.063539445
185	0xbdf8d161	-0.12149311
186	0xbd091809	-0.033470187
187	0xbd871190	-0.06595147
188	0xbe0a4542	-0.13502982
189	0xbdc4063d	-0.09571502
190	0xbb1bd208	-0.0023776311
191	0x3d4a0c9f	0.049328443
192	0x3d9522d7	0.07282036
193	0xbdb76570	-0.089548945
194	0xbc64d0ba	-0.01396578
195	0x3e82b66a	0.25529796
196	0xbd740958	-0.059579223
197	0x3d205335	0.039141852
198	0x3d87d59f	0.06632542
199	0x3affad24	0.0019506556
200	0xbda078bd	-0.07835529
201	0x3dcd1ee1	0.10015655
202	0x3dbb203a	0.09137006
203	0xbe8e2d6d	-0.27769032
204	0xbc8b0a5f	-0.016972719
205	0xbe43775b	-0.19088499
206	0x3dbc1260	0.09183192
207	0xbd633eba	-0.055479743
208	0xbe0c1c92	-0.13682774
209	0x3b8fae29	0.004384775
210	0xbd1c3c74	-0.03814359
211	0x3e832de8	0.2562096
212	0xbc403aee	-0.0117328
213	0xb7d3081c	-2.5156936e-05
214	0xbe959165	-0.2921249
215	0x3cadac71	0.02120039
216	0xbd196b75	-0.037455995
217	0xbd905e18	-0.07049197
218	0x3dc4e1e4	0.09613398
219	0xbe171419	-0.1475376
220	0x3de0c7c1	0.109756
221	0x3c6210d9	0.013797962
222	0xbd9f86ee	-0.07789408
223	0xbdf0a5a7	-0.11750346
224	0x3cc6eba7	0.02428229
225	0xbd45b0fa	-0.04826448
226	0x3dbd9294	0.09256473
227	0xbd5528c2	-0.052040823
228	0x3da07af6	0.07835953
229	0x3e4a46cf	0.19753574
230	0xbe51c0f1	-0.20483758
231	0xbe044666	-0.1291748
232	0x3cdad3ce	0.026712324
233	0xbe7ce161	-0.2469535
234	0xbdf97192	-0.12179865
235	0x3e9968c7	0.2996275
236	0x3e0bf73c	0.13668531
237	0xbcc73636	-0.024317842
238	0x3dd965f8	0.10615152
239	0x3d49ca5f	0.04926526
240	0xbc746fc9	-0.01491923
241	0x3df6da0e	0.120533094
242	0xbda1c79e	-0.07899402
243	0x3c2f419c	0.010696795
244	0xbe600991	-0.2187865
245	0xbe15b961	-0.14621498
246	0xbe305cbf	-0.1722288
247	0x3d200140	0.039063692
248	0x3c4ec643	0.012620511
249	0x3c99e223	0.018784588
250	0xbdca5fd2	-0.098815575
251	0x3d7edeed	0.062224317
252	0xbd066d3a	-0.03281901
253	0x3ceb7013	0.028739965
254	0xbda8da64	-0.0824478
255	0xbcd4bedc	-0.025969915

bias f4 [150]
0	0xbcaaf693	-0.020869529
1	0x3da06339	0.07831425
2	0xbd86e63d	-0.06586883
3	0x3e4f9ecd	0.20275421
4	0xbdc43e92	-0.09582247
5	0xbd380164	-0.0449232
6	0x3e26f12c	0.16302937
7	0x3d165a7e	0.036707394
8	0xbddee425	-0.10883359
9	0x3c1f2e1d	0.009715584
10	0xbd6183ce	-0.05505734
11	0xbd3913fd	-0.045185078
12	0x3d7cd6af	0.061728176
13	0xbcc711f0	-0.024300545
14	0x3b3d9535	0.0028928046
15	0xbca31947	-0.019909514
16	0xba104715	-0.0005503756
17	0xbd1dcb0a	-0.03852371
18	0xbcaf21f0	-0.021378487
19	0xbb16e665	-0.002302551
20	0xbdc22572	-0.094797984
21	0xbd2d948a	-0.042377986
22	0xbd8dbad5	-0.06920401
23	0x3e2af700	0.16695786
24	0xbe14290d	-0.14468785
25	0xbc8352e1	-0.01603073
26	0xbc0bb624	-0.008527312
27	0xbce0beaa	-0.027434666
28	0xbdbd11b1	-0.0923189
29	0xbca3c113	-0.019989526
30	0xbd43e1f9	-0.047822926
31	0xbc0948bb	-0.008379157
32	0x3dfe12f0	0.12405956
33	0xbda399a8	-0.07988292
34	0x3d86f4e7	0.0658968
35	0xbca9f09f	-0.02074462
36	0x3d79a7b9	0.06095097
37	0x3de8948e	0.113564596
38	0xbe26adc8	-0.1627723
39	0x3cbd17ef	0.023082701
40	0x3d28e5d4	0.041234806
41	0x3a4a7cea	0.0007724302
42	0x3dff6b90	0.12471688
43	0x3e05e1ef	0.13074468
44	0xbd8f7dbf	-0.07006406
45	0xbd66f523	-0.056386124
46	0x3e60334f	0.21894573
47	0x3dbd7382	0.09250547
48	0x3e3acbba	0.18241778
49	0x3bdc590c	0.0067244824
50	0xbdebfd60	-0.11522937
51	0x3e4f3196	0.2023376
52	0xbdf59359	-0.11990995
53	0x3d89810e	0.06714068
54	0x3d502830	0.050819576
55	0x3c3d1cd6	0.01154252
56	0x3c44b1bc	0.012005266
57	0x3cf110e4	0.029427
58	0xbd17f1e5	-0.037095923
59	0x3d5fe635	0.054662902
60	0x3d68ed05	0.056866664
61	0xbcb8deac	-0.022567116
62	0xbdcc273a	-0.099684194
63	0xbd4bba5c	-0.049738273
64	0xbd0dd650	-0.034628212
65	0xbd9e7838	-0.07737774
66	0xbd3a8779	-0.045539353
67	0x3ca14e78	0.019690737
68	0x3e042de0	0.12908125
69	0x3d788a6a	0.060678877
70	0xbc8327c8	-0.01601018
71	0x3d15c298	0.036562532
72	0x3c840608	0.016116157
73	0xbbd31f61	-0.0064429496
74	0x3db5f0c9	0.08883817
75	0xbe7597bc	-0.23983663
76	0xbd0adf43	-0.033904325
77	0x3d488e06	0.04896357
78	0x3a2cca88	0.0006591459
79	0xbc3d1c0f	-0.011542334
80	0xbd3824a5	-0.044956822
81	0xbdb2fdb3	-0.087397955
82	0x3ddb0dcc	0.10695991
83	0x3defef40	0.11715555
84	0x3e11a943	0.14224724
85	0xbd8dde9e	-0.069272265
86	0x3e64446b	0.22291724
87	0x3e0b35a7	0.13594685
88	0xbc93dd12	-0.01804975
89	0xbd9a20df	-0.07525801
90	0x3a1dcf48	0.0006019962
91	0x3cfbbc11	0.030729325
92	0x3d10f5ae	0.03539055
93	0xbd9a4635	-0.07532922
94	0x3ce25f50	0.02763334
95	0x3db1f1ec	0.08688721
96	0x3cf07f18	0.029357478
97	0x3d024e2f	0.031812843
98	0x3d419692	0.047262736
99	0xbcc59867	-0.024120523
100	0xbd00af9e	-0.03141748
101	0x3e53523b	0.20636837
102	0xbd5867df	-0.052833434
103	0xbde93c66	-0.11388473
104	0x3d5a06b4	0.05322905
105	0xbc7635b3	-0.015027451
106	0xbd7c3f2c	-0.061583683
107	0x3d386137	0.045014586
108	0xbd40b0ce	-0.047043614
109	0xbc80cb62	-0.01572198
110	0x3d1f8f95	0.03895529
111	0xbcaf90fb	-0.021431437
112	0x3d8be348	0.0683046
113	0x3dc8567c	0.097821206
114	0xbe5adb73	-0.21372776
115	0xb9f1e6bf	-0.0004613902
116	0xbe51639e	-0.20448157
117	0xbdad14f7	-0.08451264
118	0x3b375b14	0.002797787
119	0xbd7ea564	-0.062169448
120	0xbd150a74	-0.036386922
121	0x3acee590	0.0015784968
122	0xbdaf8f81	-0.08572293
123	0xbc8abe47	-0.016936434
124	0x3ce5a7a3	0.028034037
125	0xbda7c8bb	-0.08192583
126	0x3ced752e	0.02898654
127	0x3c8b448f	0.017000465
128	0x3c40e821	0.011774094
129	0x3cb7bad4	0.022427954
130	0xbd016d71	-0.031598512
131	0x3d9732f7	0.07382768
132	0xbb99963c	-0.004687099
133	0xbc16d586	-0.009206181
134	0x3cb82cee	0.022482362
135	0xbdda24c1	-0.106515415
136	0xbe281836	-0.16415486
137	0x3cc87b6b	0.024472913
138	0xbc46d30a	-0.012135277
139	0x3d958fe9	0.07302839
140	0x3d3b3ac7	0.04571035
141	0x3d0e5718	0.034751028
142	0x3ddfae18	0.109218776
143	0x3d741b00	0.05959606
144	0xbc16704d	-0.009182048
145	0x3c39c446	0.011338299
146	0xbd7f162d	-0.062277008
147	0x3de6da09	0.11272056
148	0x3d6ef474	0.058338597
149	0x3bc310ef	0.0059529464

weight f4 [64, 4]
0	0xbe99be56	-0.30028027
1	0xbe78273b	-0.24233715
2	0x3e951c55	0.29123178
3	0x3c5abb4f	0.013350322
4	0x3e98dc97	0.29855797
5	0xbdc5b092	-0.09652819
6	0xbe27696a	-0.16348806
7	0xbed7e45e	-0.42166418
8	0xbf09a7ce	-0.53771675
9	0x3d446a85	0.047953147
10	0xbe8000c9	-0.250006
11	0xbdfed240	-0.12442446
12	0xbe7aa46c	-0.24476784
13	0xbec68df1	-0.38780168
14	0xbe3d1ae5	-0.1846729
15	0x3e3b6723	0.18301062
16	0x3e9f4485	0.31106964
17	0xbd26ea88	-0.04075101
18	0xbe976272	-0.29567295
19	0xbda9bf16	-0.082884
20	0x3cf1bb07	0.029508127
21	0xbed2777a	-0.41106778
22	0xbdf61afc	-0.120168656
23	0x3ed9b6be	0.42522234
24	0x3ce612fb	0.028085222
25	0x3e2cf261	0.16889335
26	0xbda61ae6	-0.08110599
27	0xbc47b10a	-0.0121882055
28	0xbdf1e52f	-0.118112914
29	0xbf05adb5	-0.5221818
30	0x3e131b82	0.14365962
31	0x3eaf5821	0.34246925
32	0xbc728cdf	-0.014804094
33	0xbe218a86	-0.15775499
34	0x3d1b0553	0.037846874
35	0x3f0d223c	0.5513036
36	0x3c37860c	0.011201393
37	0x3e51cb3a	0.20487681
38	0x3dd6d2cb	0.10489424
39	0xbeec1a84	-0.4611398
40	0xbd876ca8	-0.066125214
41	0xbef814b3	-0.48453292
42	0x3e67e01d	0.22644086
43	0xbd9b497c	-0.075823754
44	0x3e90423f	0.28175542
45	0x3e753e3c	0.23949522
46	0xbe0cafe2	-0.13738969
47	0x3eafe5b5	0.3435494
48	0xbe1cffdf	-0.15331982
49	0xbf104ae4	-0.56364274
50	0x3eae4f57	0.34044906
51	0xbe1d1c6e	-0.15342876
52	0xbe070b60	-0.13187933
53	0xbe0daae7	-0.13834725
54	0xbe4584da	-0.1928896
55	0xbea2e48a	-0.31814986
56	0xbed2a5d1	-0.41142133
57	0x3eff8c1e	0.49911588
58	0x3e68d638	0.22737968
59	0xbe0c8b8e	-0.13725111
60	0x3e38a170	0.18030334
61	0x3e985974	0.29755747
62	0xbd6ae38d	-0.057345916
63	0x3d8140df	0.06311201
64	0xbebabd9b	-0.36472782
65	0x3dc2d6a6	0.09513597
66	0x3eb737da	0.357848
67	0xbe714c27	-0.23564206
68	0x3d669745	0.056296606
69	0x3e7b6997	0.24551998
70	0x3e5f8019	0.21826209
71	0x3e1dfeae	0.15429184
72	0xbde522b8	-0.11188263
73	0xbe8c6cae	-0.27426666
74	0x3e9a6fa4	0.301633
75	0xbe038c06	-0.12846383
76	0xbd9dd7c4	-0.0770717
77	0x3e5e73fb	0.2172393
78	0x3e9d9ea2	0.3078509
79	0xbf067731	-0.5252562
80	0x3e496e34	0.19670945
81	0xbea2d722	-0.31804758
82	0xbeb8a58c	-0.36063802
83	0xbe29edb3	-0.16594581
84	0x3dbee8c3	0.093217395
85	0xbe3cf618	-0.18453252
86	0xbdd05669	-0.101727314
87	0x3e58bb36	0.21165165
88	0x3cb4a24b	0.022050044
89	0x3d7db9cb	0.061944764
90	0xbeafe64b	-0.34355387
91	0xbf1c65ce	-0.6109284
92	0xbf0d9562	-0.55306065
93	0xbe0ebb07	-0.13938533
94	0x3ede4053	0.4340845
95	0x3e99a279	0.3000677
96	0xbcca1bd9	-0.024671482
97	0x3bd95250	0.006632127
98	0xbe32ce28	-0.17461455
99	0x3ec42e3c	0.38316524
100	0xbf01a619	-0.5064407
101	0x3e9ac2f7	0.3022687
102	0x3e13b3f0	0.1442411
103	0xbebe2652	-0.3713861
104	0x3d294e6c	0.041334555
105	0xbd3f11b9	-0.04664776
106	0xbeba462c	-0.36381662
107	0xbded3ec0	-0.11584234
108	0x3e834367	0.2563736
109	0xbbf87b64	-0.0075830687
110	0x3ef02392	0.46902138
111	0x3ebeb94e	0.3725075
112	0xbd2925f3	-0.041295957
113	0xbf32cd56	-0.6984457
114	0xbdd572e8	-0.10422307
115	0xbb079209	-0.002068641
116	0x3cbfc538	0.02340947
117	0xbe4f7164	-0.20258099
118	0xbebbd9f5	-0.36689726
119	0x3e0e8f80	0.13921928
120	0x3d9a4a7e	0.075337395
121	0x3e83549b	0.25650486
122	0xbe98b39a	-0.29824525
123	0xbea8d753	-0.3297678
124	0x3ccb17fc	0.02479171
125	0xbea1aa52	-0.31575257
126	0xbed9c4ea	-0.42533046
127	0x3eb87b91	0.36031774
128	0x3ed32433	0.41238555
129	0xbe345c99	-0.17613448
130	0x3ed7286f	0.42023036
131	0x3d4cbdb4	0.049985602
132	0x3f6d780d	0.9276131
133	0x3ea1d18e	0.3160519
134	0x3e10b774	0.14132482
135	0xbd669798	-0.056296915
136	0xbbefff62	-0.007324145
137	0x3eab055c	0.33402526
138	0x3cdeceea	0.027198274
139	0xbeb15c9e	-0.34640974
140	0xbe03d304	-0.12873465
141	0xbdee7a7b	-0.11644455
142	0x3e60e71f	0.21963166
143	0x3e8ba126	0.27271384
144	0x3d62c8ec	0.055367395
145	0xbe973d7f	-0.29539105
146	0x3e80634d	0.2507576
147	0xbc831999	-0.016003417
148	0x3f018446	0.5059246
149	0xbe04ff65	-0.1298805
150	0x3e2fbbc2	0.17161468
151	0x3e798aae	0.24369308
152	0xbe28778c	-0.16451854
153	0xbf1999dc	-0.60000396
154	0x3cc547d0	0.024082094
155	0x3e1f7de7	0.15575372
156	0x3ebeabf0	0.37240553
157	0x3e86f2b2	0.26357037
158	0xbeb1c187	-0.34717962
159	0xbe2b5cf6	-0.1673468
160	0xbe3e8fc8	-0.18609536
161	0xbe7737ca	-0.24142376
162	0xbf07f51d	-0.5310839
163	0x3da69dfa	0.081356004
164	0x3c9373e4	0.017999597
165	0xbd1fa147	-0.038972165
166	0xbebd9a25	-0.37031665
167	0xbe4af404	-0.19819647
168	0x3f384340	0.71977615
169	0x3e800f75	0.25011793
170	0x3dd25124	0.102693826
171	0xbdd054dc	-0.10172436
172	0x3e54baec	0.2077443
173	0xbc7a7361	-0.015286298
174	0xbe5c4633	-0.21511154
175	0x3ef52ad5	0.4788424
176	0x3eab6cbc	0.33481395
177	0xbe692e91	-0.2277167
178	0x3ea88ed4	0.3292147
179	0x3d1fb78c	0.038993403
180	0xbe021915	-0.1270488
181	0xbe70184c	-0.23446769
182	0x3e37e75d	0.17959352
183	0x3da3e624	0.0800288
184	0x3d506ee3	0.050887
185	0x3ea258ce	0.31708378
186	0xbe86a2fe	-0.26296228
187	0xbe8184c7	-0.25296614
188	0x3ec4ff1c	0.38475883
189	0xbee85369	-0.45376137
190	0x3ddbd528	0.10734016
191	0xbdabaf04	-0.08382991
192	0x3e45aa41	0.19303228
193	0x3efff3a1	0.49990562
194	0xbe850943	-0.2598363
195	0x3d2d333f	0.0422852
196	0x3f198634	0.599704
197	0x3ee8db05	0.454796
198	0x3ed528dd	0.4163274
199	0x3e754a92	0.23954228
200	0xbec964e0	-0.39334774
201	0xbdeccdf5	-0.11562721
202	0x3ee16896	0.44025105
203	0x3e8aa47e	0.27078623
204	0x3e97fbe7	0.29684374
205	0xbedf47e2	-0.4360953
206	0xbe3e0d1a	-0.18559685
207	0x3e766e28	0.24065459
208	0xbf0e88a7	-0.55677265
209	0x3d33de04	0.043912902
210	0x3e66560a	0.22493759
211	0x3ddcd583	0.10782912
212	0x3e033727	0.12814008
213	0xbe16a058	-0.14709604
214	0x3d0c74e8	0.034291178
215	0x3ed94ed5	0.42442957
216	0x3e227c07	0.15867625
217	0xbdd062fe	-0.10175131
218	0x3e0a6116	0.13513598
219	0x3ea41a05	0.320511
220	0xbd07753f	-0.0330708
221	0xbd015756	-0.03157743
222	0xbef5fb81	-0.48043445
223	0x3e8186e0	0.25298214
224	0xbcec36b4	-0.028834678
225	0x3e2f09a4	0.17093521
226	0xbe311e89	-0.17296804
227	0xbe84fc8e	-0.25973934
228	0x3f1d3609	0.61410576
229	0xbd246f4a	-0.040145196
230	0x3e7007b3	0.23440437
231	0xbed07b28	-0.4071896
232	0xbe77760b	-0.24166124
233	0xbda0800f	-0.07836925
234	0xbf0705bb	-0.5274312
235	0x3eb5e8b6	0.35529107
236	0x3ddf90c5	0.109162845
237	0xbf284862	-0.6573545
238	0x3cab3c32	0.020902727
239	0x3e28825c	0.16455978
240	0xbe8e61c6	-0.2780897
241	0x3db8928d	0.09012327
242	0xbe1b5a8b	-0.15171258
243	0xbf1d4843	-0.6143839
244	0xbe2e8125	-0.17041452
245	0xbe8a8a73	-0.27058753
246	0x3e8776b1	0.26457742
247	0x3e5e16c2	0.21688369
248	0xbd2a1405	-0.041523
249	0xbe89a797	-0.26885673
250	0x3f050260	0.5195675
251	0xbedacbd4	-0.42733634
252	0x3d1821cb	0.037141602
253	0xbe41bdf5	-0.18920119
254	0x3ecbc136	0.39795846
255	0xbdd79e8b	-0.105282865

bias f4 [64]
0	0x3d07966c	0.033102438
1	0x3a05b37f	0.00051002944
2	0xbdadfe41	-0.08495761
3	0xbd57cabe	-0.052683584
4	0x3ddf8496	0.10913961
5	0x3d1c4371	0.038150255
6	0x3de72714	0.112867504
7	0xbc225c0e	-0.009909643
8	0xbd89bfb5	-0.06726018
9	0x3d811239	0.06302304
10	0xbc843934	-0.016140558
11	0xbd1e0aff	-0.038584705
12	0xbc8cac37	-0.017171962
13	0x3e3ee63a	0.18642512
14	0xbdd9792e	-0.10618816
15	0x3e119b28	0.14219344
16	0xbdaaaa0a	-0.083332136
17	0x3d995437	0.07486766
18	0x3d84623a	0.06464048
19	0xbdbe9b99	-0.09307022
20	0x3dbc3caa	0.09191258
21	0xbd9a77e3	-0.07542398
22	0xbc202e28	-0.0097766295
23	0xbd80599e	-0.06267093
24	0x3dc73aa1	0.097279795
25	0xbd434801	-0.04767609
26	0x3e3f1076	0.18658623
27	0x3b2bcba5	0.002621391
28	0x3dbf06cd	0.09327469
29	0x3d3972ba	0.045275427
30	0x3deedfd9	0.11663789
31	0x3d87d38e	0.06632148
32	0xbe15b88c	-0.1462118
33	0x3abd8f3b	0.0014462242
34	0x3c8328a6	0.016010594
35	0x39b81448	0.00035110326
36	0xbcc1e1c9	-0.023667233
37	0xbda50151	-0.08056892
38	0x3d8cafd7	0.06869476
39	0x3daef7a2	0.08543326
40	0xbe1003ab	-0.14063899
41	0x3cb9c4cb	0.022676846
42	0x3d4c19e2	0.04982937
43	0xbc511405	-0.012761121
44	0xbd1b238a	-0.03787569
45	0xbda7ce05	-0.08193592
46	0xbca70ab3	-0.020390844
47	0xbcd153d7	-0.025552673
48	0x3d45abec	0.04825966
49	0xbe09a65e	-0.1344237
50	0xbdd4775a	-0.10374327
51	0x3c565c85	0.013083582
52	0xbd2da24f	-0.042391118
53	0xbd478f29	-0.048720513
54	0xbd75e8b8	-0.06003639
55	0x3de6d500	0.11271095
56	0xbcc39902	-0.02387667
57	0xbcd075d1	-0.025446804
58	0x3dbe5dc9	0.09295232
59	0x3d158107	0.036500003
60	0x3d8f331c	0.0699217
61	0xbbe8ce53	-0.007104674
62	0x3dce1e54	0.100643784
63	0xbd0c955a	-0.03432212

weight f4 [64, 214]
0	0x3e7870e6	0.24261817
1	0xbda5c62d	-0.0809444
2	0x3eaf3e0b	0.34227023
3	0x3c0655ee	0.008199198
4	0xbd1832bc	-0.03715776
5	0xbe8263f0	-0.2546687
6	0x3c3e44ec	0.011613112
7	0x3e038a46	0.12845716
8	0x3d271235	0.040788848
9	0xbe1d58ac	-0.15365857
10	0xbe1de5e1	-0.15419723
11	0x3c367942	0.011137309
12	0x3d479b52	0.04873211
13	0x3d20ae42	0.039228685
14	0x3dbc1c69	0.09185106
15	0xbde49ae4	-0.111623555
16	0x3d0e15d5	0.03468879
17	0xbcb737f0	-0.02236554
18	0xbd31769f	-0.043326017
19	0xbd39b2bd	-0.045336474
20	0xbe1e0139	-0.15430154
21	0xbbb09d62	-0.0053898552
22	0x3d6a0cdf	0.05714118
23	0xbe7162ed	-0.23572893
24	0xbdf25d58	-0.1183421
25	0x3dd1957d	0.10233591
26	0x3d78b131	0.060715858
27	0xbe194512	-0.14967754
28	0x3d14ba8e	0.036310725
29	0x3c05ce51	0.008166865
30	0xbe441e75	-0.19152243
31	0x3daa511f	0.08316254
32	0x3da09da1	0.07842565
33	0xbbfca296	-0.0077098114
34	0x3df21752	0.11820854
35	0xbe328a4f	-0.17435573
36	0xbc94ff4b	-0.01818814
37	0x3d9c554e	0.07633458
38	0x3c9a360b	0.018824598
39	0xbdfe87f6	-0.12428276
40	0x3e68e7ec	0.22744721
41	0xbe7624f0	-0.24037528
42	0x3d8de0c0	0.06927633
43	0x3dfb33b6	0.122657225
44	0xbe0b0809	-0.13577284
45	0xbd4b8ec3	-0.049696695
46	0xbe158e87	-0.14605151
47	0x3ddecd17	0.108789615
48	0xbdb9b986	-0.09068589
49	0x3d16c7e5	0.036811728
50	0xbdde95ee	-0.108684406
51	0xbe2cc9c2	-0.1687384
52	0x3cd62f03	0.026145464
53	0x3dcc4b93	0.09975352
54	0x3cdc41ac	0.026886784
55	0x3d3d5eda	0.046233036
56	0x3cef7a50	0.029233128
57	0xbdc14e0a	-0.09438713
58	0x3ddba765	0.10725287
59	0xbdce11a4	-0.100619584
60	0xbe0c9ff9	-0.137329
61	0xbd1d43d9	-0.038394783
62	0xbd41c17a	-0.047303654
63	0xbc0120d8	-0.007881366
64	0xbde238d8	-0.11045998
65	0x3e30995b	0.17246
66	0x3e34f8b0	0.17672992
67	0x3bf9e435	0.0076260814
68	0x3e5c8f82	0.21539119
69	0xbd032d73	-0.032025766
70	0x3de0a34a	0.10968645
71	0xbc151e0e	-0.009101404
72	0xbd4a9310	-0.049456656
73	0x3d8248d5	0.06361548
74	0x3d93b934	0.07213059
75	0xbcf50990	-0.029911786
76	0x3d4a7174	0.049424604
77	0x3cad07a7	0.021121813
78	0x3c152a4e	0.0091043245
79	0xbe014555	-0.12624104
80	0xbd51e9d2	-0.05124838
81	0xbbd45fe3	-0.006481157
82	0x3e230614	0.15920287
83	0x3da735c2	0.0816455
84	0x3dba3b33	0.090933226
85	0x3d2ee016	0.042694174
86	0x3e8f5e24	0.2800151
87	0x3d978ce3	0.07399919
88	0x3e028c94	0.12748939
89	0x3dc105fc	0.094249696
90	0x3d8fa868	0.07014543
91	0x3c4a1f2a	0.012336532
92	0x3c37530a	0.011189232
93	0x3d913147	0.07089477
94	0xbd88c52f	-0.06678235
95	0xbe595db5	-0.21227153
96	0xbd51941b	-0.051166635
97	0x3da53ab4	0.08067837
98	0xbda0ced3	-0.078519486
99	0xbe1c21f9	-0.15247335
100	0xbd20c8a2	-0.03925384
101	0x3dd0e76e	0.10200392
102	0x3dc71937	0.09721606
103	0xbc972b59	-0.018453287
104	0xbe470f39	-0.194394
105	0x3c2e43d3	0.010636288
106	0xbd7b58fd	-0.061364163
107	0xbd9a54e5	-0.075357236
108	0x3d76d216	0.060258947
109	0xbdc797a9	-0.09745724
110	0xbd0d629a	-0.034517862
111	0x3c4c9985	0.012487774
112	0x3debf4a1	0.11521269
113	0x3db313da	0.08744021
114	0xbd37d8bf	-0.04488444
115	0xbcf5fecd	-0.030028725
116	0x3c7f19fb	0.015570159
117	0xbd5749d6	-0.05256065
118	0xbe2e95ce	-0.17049333
119	0x3ca0806a	0.019592483
120	0xbe55cfe7	-0.2088009
121	0x3d53dae2	0.051722415
122	0x3d04b904	0.032403007
123	0xbb3c2087	-0.0028705911
124	0xbca49f8a	-0.020095605
125	0x3e2b6bab	0.16740291
126	0xbcd4c77a	-0.025974024
127	0xbde246fc	-0.110486954
128	0xbc843bfd	-0.016141886
129	0xbe25f8f2	-0.16208246
130	0x3da5fa3d	0.0810437
131	0x3e70570d	0.23470707
132	0x3e412ee0	0.18865538
133	0xbdf5f3df	-0.12009405
134	0xbd5ea64b	-0.054357808
135	0xbdadee5e	-0.084927306
136	0x3dbe531f	0.09293198
137	0x3db2c08e	0.08728133
138	0xbe048452	-0.12941101
139	0xbde58f41	-0.11208964
140	0xbc2035d6	-0.0097784605
141	0x3e214701	0.15749742
142	0xbc6e72e0	-0.0145537555
143	0x3d6a79cc	0.05724506
144	0x3ccded25	0.025137493
145	0x3c0b4a06	0.008501535
146	0x3d98bd9d	0.07458041
147	0x3b3cccc0	0.0028808564
148	0xba3e1283	-0.0007250683
149	0xbdd78029	-0.105224915
150	0xbd6e76f5	-0.058218915
151	0x3cce6b24	0.025197573
152	0xbd2472d9	-0.04014859
153	0xbd85913a	-0.065218404
154	0x3d828aa5	0.063741006
155	0xbda61d9e	-0.08111118
156	0x3d4cf93d	0.05004238
157	0x3e34c5c3	0.17653565
158	0xbdd5f8f4	-0.10447875
159	0xbdd48d75	-0.10378543
160	0x3d56996a	0.0523924
161	0x3d17cfcb	0.0370634
162	0x3d634c93	0.05549295
163	0xbda1c8e9	-0.07899649
164	0xbe8c219d	-0.27369395
165	0x3d8617af	0.06547486
166	0xbd7374de	-0.059437625
167	0x3d9d89af	0.07692277
168	0x3d9e107e	0.077179894
169	0x3c058ba1	0.008150966
170	0x3bc4d1a6	0.0060064374
171	0xbdb55743	-0.088545345
172	0xbdbcf46d	-0.09226308
173	0x3dac7ba3	0.08422019
174	0xbcefad7d	-0.02925753
175	0xbe8b9134	-0.2725922
176	0xbdcbba1e	-0.099476084
177	0x3d3af4f5	0.045643765
178	0xba6daee0	-0.0009066891
179	0xbdd7a4e4	-0.10529497
180	0xbdab0b33	-0.083517455
181	0x3d550c85	0.052013893
182	0x3ec6ba07	0.38813803
183	0x3e4f5287	0.20246325
184	0x3df094e7	0.11747151
185	0x3e186ca8	0.14885199
186	0xbd26f52d	-0.04076116
187	0x3e4c612c	0.19958943
188	0xbe1d1e1e	-0.1534352
189	0xbd9ed40d	-0.07755289
190	0xbd8a5860	-0.067551374
191	0x3ba67e9a	0.00508101
192	0x3e661562	0.22469094
193	0x3c2e2b24	0.010630403
194	0x3e5878c0	0.21139812
195	0xbcc792eb	-0.024362048
196	0xbe369021	-0.17828418
197	0x3e1a8575	0.15089972
198	0x3cb481d3	0.022034561
199	0x3e73a269	0.23792423
200	0x3cb37547	0.021906508
201	0x3d35b1fd	0.044359196
202	0x3c9bab6a	0.019002635
203	0x3d8235d4	0.06357923
204	0x3dd466a8	0.103711426
205	0xbe5b3eb2	-0.21410635
206	0x3dab1c8d	0.08355055
207	0x3e2b9b86	0.16758546
208	0xbe33665a	-0.17519513
209	0x3ea0a346	0.31374568
210	0xbdb01385	-0.08597473
211	0xbd74354b	-0.059621137
212	0x3c98040d	0.018556619
213	0xbd071994	-0.032983378
214	0x3d9d2b64	0.07674292
215	0xbe9e62ab	-0.30934653
216	0x3e44f735	0.19234927
217	0x3d09df98	0.0336605
218	0x3c628759	0.013826215
219	0xbd1d4fa9	-0.038406048
220	0xbd69ed96	-0.057111345
221	0xbdd9f37b	-0.10642143
222	0xbd8c8b1b	-0.0686247
223	0xbd999229	-0.07498581
224	0xbbfbf9c4	-0.0076896865
225	0xbd32ccf8	-0.043652505
226	0xbc5147d8	-0.012773477
227	0x3e913f5a	0.28368646
228	0xbd9a7fbe	-0.07543896
229	0xbdd57e84	-0.104245216
230	0x3e783078	0.2423724
231	0xbd93a582	-0.072093025
232	0xbd8e31df	-0.06943106
233	0x3d90ffef	0.070800655
234	0x3dcc41d4	0.09973493
235	0xbe0f92cb	-0.14020841
236	0x3ced4055	0.02896134
237	0xbd19e0f9	-0.037568066
238	0x3d222134	0.039582446
239	0x3e645a8a	0.22300163
240	0x3e214fa0	0.15753031
241	0x3dff3af4	0.12462416
242	0x3d8d57b7	0.06901496
243	0xbcc5b6c1	-0.024134995
244	0xbe9767af	-0.29571292
245	0x3d103e36	0.03521558
246	0xbcf3a7a1	-0.029743018
247	0xbd261d3b	-0.04055522
248	0xbd2a18a4	-0.041527405
249	0xbdac0a4f	-0.08400404
250	0xbcbd8c57	-0.023138208
251	0x3d18037b	0.037112694
252	0xbde3923c	-0.11111876
253	0x3e0ae5ae	0.13564178
254	0xbdababbd	-0.08382366
255	0x3d2f3116	0.04277142

bias f4 [64]
0	0x3c2c2475	0.010506739
1	0x3df0f7d2	0.11766018
2	0x3da1c5a0	0.07899022
3	0x3d4d23c0	0.050082922
4	0x3d4024c7	0.046910074
5	0xbdaace53	-0.083401345
6	0x3d0000c9	0.03125075
7	0xbe815eec	-0.25267732
8	0xbe6e6b90	-0.2328322
9	0x3dcb1354	0.09915796
10	0xbbfce93f	-0.007718235
11	0x3e5e5633	0.2171257
12	0xbdf3d171	-0.11905182
13	0x3d6a0843	0.057136785
14	0x3d097750	0.03356105
15	0x3e0adeb8	0.13561523
16	0xbe0a7676	-0.13521752
17	0x3d4222f6	0.047396623
18	0xbe461828	-0.19345152
19	0x3dc07fe8	0.09399396
20	0xbd010978	-0.03150317
21	0xbe1b1aed	-0.1514699
22	0xbe0ffaac	-0.14060467
23	0x3e201db8	0.15636337
24	0x3e0abab8	0.1354779
25	0x3dc1dc90	0.09465897
26	0x3d3b5ce6	0.04574289
27	0x3bf5add1	0.007497527
28	0xbe5c8456	-0.21534857
29	0xbdfe6b69	-0.124228306
30	0xbe1ab862	-0.15109399
31	0x3cc19e2b	0.02363499
32	0x3e36480a	0.17800918
33	0xbdf2acb8	-0.1184935
34	0x3df1cf9e	0.11807178
35	0xbd47e1b7	-0.048799243
36	0xbd51a96f	-0.051186975
37	0x3d63cd18	0.055615515
38	0xbe6d715f	-0.23187779
39	0x39b4e4df	0.00034502798
40	0xbcfea1d7	-0.03108303
41	0xbd745489	-0.05965093
42	0x3e248de5	0.16069753
43	0x3db746eb	0.089490734
44	0xbcaaf632	-0.020869348
45	0x3e10ed1f	0.14152955
46	0xbd0337b8	-0.03203556
47	0xbd848c78	-0.06472105
48	0xbd9405a2	-0.07227637
49	0xbd8345b2	-0.06409778
50	0x3dd5ddf3	0.10442724
51	0xbd0ffbc9	-0.03515223
52	0x3e4fe598	0.20302427
53	0x3e36f6fe	0.17867658
54	0x3d834ffc	0.0641174
55	0x3e113fe8	0.14184535
56	0xbdaf42f9	-0.08557696
57	0xbde9a297	-0.11407965
58	0xbe0d3018	-0.13787878
59	0x3e3a9156	0.18219504
60	0xbdf18343	-0.11792614
61	0x3d9076e8	0.070539296
62	0xbdc01c96	-0.09380452
63	0xbd905941	-0.07048274

weight f4 [150, 22]
0	0xbd2ea46c	-0.042637274
1	0x3a8c88ed	0.0010721959
2	0xbd4e1b48	-0.050318986
3	0x3d0dba97	0.034601774
4	0x3e0e1573	0.1387537
5	0xbc29101a	-0.01031878
6	0x3dca2b43	0.09871533
7	0xbdbd4812	-0.09242262
8	0x3ce824f4	0.028337933
9	0xbc219af4	-0.009863604
10	0xbd44a099	-0.04800472
11	0xbdfc0ef7	-0.12307542
12	0x3c9066ea	0.017627198
13	0x3ca16657	0.01970212
14	0xbe89d6ef	-0.26921794
15	0x3d31036b	0.04321615
16	0xbda5f743	-0.08103802
17	0xbd49b4ce	-0.049244694
18	0x3d9ecbab	0.0775369
19	0xbde546a3	-0.111951135
20	0xbd86a4c8	-0.06574398
21	0x3c572fc5	0.013133948
22	0xbc861e2e	-0.016371813
23	0x3d9e1b61	0.07720066
24	0x3c95b1fd	0.018273348
25	0x3da0f6ca	0.07859571
26	0xbdb9871d	-0.09058974
27	0x3e123ae5	0.14280279
28	0xbbe0a02a	-0.0068550305
29	0xbca5094e	-0.020146038
30	0x3bfb2d97	0.007665347
31	0x3c879c82	0.01655412
32	0x3e3ec149	0.1862842
33	0x3e0faeec	0.14031571
34	0x3dfb0eae	0.12258659
35	0xbdea441b	-0.11438771
36	0x3dc07b2f	0.093984954
37	0x3d985c9a	0.07439537
38	0xbd6437fd	-0.055717457
39	0xbd492dab	-0.049115818
40	0x3c16868b	0.009187351
41	0x3dd0e26f	0.10199439
42	0xbd71370a	-0.05889038
43	0x3dc80736	0.097670004
44	0x3e3a3f44	0.18188196
45	0x3d3c1ead	0.045927692
46	0xbf25ef49	-0.64818245
47	0x3c86c647	0.016451968
48	0x3d99631f	0.07489609
49	0x3b813b86	0.0039438633
50	0x3c45bb48	0.012068577
51	0xbdc7bda1	-0.09752966
52	0x3b7d82dc	0.0038682735
53	0xbc181713	-0.009282845
54	0x3d05db98	0.032680124
55	0xbdc0a8ae	-0.09407173
56	0x3dd8a36d	0.10578046
57	0x3d874de7	0.066066556
58	0xbe3c0684	-0.1836186
59	0xbe107548	-0.14107239
60	0x3ca662be	0.020310756
61	0xbbd5d99c	-0.006526185
62	0x3c5abbba	0.013350422
63	0xbdc65b43	-0.096853755
64	0x3caa4161	0.020783128
65	0x3ce6e264	0.028184123
66	0xbd0d2550	-0.034459412
67	0x3e3bf936	0.18356785
68	0x3e0e8b4b	0.13920324
69	0xbd037539	-0.032094214
70	0xbd04c824	-0.03241743
71	0xbe3371aa	-0.17523828
72	0xbd80a557	-0.06281536
73	0x3d2427b6	0.040076934
74	0x3dccaf81	0.09994412
75	0xbdd1b605	-0.102397956
76	0xbd2afdab	-0.041745823
77	0x3e29b626	0.1657339
78	0x3af8227f	0.0018931179
79	0x3e28ceec	0.16485184
80	0x3e067cb5	0.1313351
81	0x3e3b8a76	0.18314537
82	0xbd1da39d	-0.038486112
83	0xbe2a9c85	-0.1666127
84	0xbdd49f83	-0.10381987
85	0xbd489b62	-0.04897631
86	0x3d28c476	0.041202985
87	0x3d2c6556	0.04208883
88	0xbe996feb	-0.299682
89	0x3bc51631	0.0060146083
90	0xbe6078c5	-0.2192107
91	0x3cc70b2f	0.024297325
92	0xbc34e76e	-0.011041505
93	0xbd9a8f67	-0.07546883
94	0xbe0bf4be	-0.1366758
95	0x3d01915a	0.03163276
96	0x3d571df9	0.05251882
97	0x3b080280	0.0020753443
98	0xbc25e8f4	-0.010126341
99	0xbe94c941	-0.29059795
100	0x3d652315	0.05594166
101	0xbd408c8c	-0.047009036
102	0xbe372e5c	-0.17888778
103	0xbc282307	-0.010262257
104	0xbd80598a	-0.06267078
105	0xbc572e7f	-0.013133644
106	0x3a479cd3	0.0007614616
107	0x3d3e364a	0.046438493
108	0x3cd69d53	0.026198065
109	0xbd425a51	-0.047449414
110	0xbd82e48f	-0.0639125
111	0x3bd9175b	0.0066250986
112	0xbdca7d45	-0.098871745
113	0x3c3c7fc3	0.01150507
114	0x3d7e2390	0.062045634
115	0x3e3f7b42	0.18699363
116	0x3d013112	0.031540938
117	0x3df82c36	0.121178076
118	0xbdbc044f	-0.09180509
119	0x3da9ffa5	0.083007134
120	0x3d5457ae	0.05184143
121	0xbdc2c0ac	-0.095094055
122	0xbc64eda7	-0.013972676
123	0x3d7b554b	0.06136064
124	0xbdc52941	-0.09627009
125	0x3d8d9fb9	0.0691523
126	0x3c96803e	0.018371698
127	0xbd18207c	-0.037140355
128	0xbd059975	-0.03261705
129	0x3daa7b75	0.08324329
130	0xbd43ef69	-0.04783574
131	0x3d0681e0	0.032838702
132	0xbca33a41	-0.019925239
133	0xbe3c3c20	-0.18382311
134	0x3cca3d7e	0.024687525
135	0x3d011db3	0.031522464
136	0x3e731292	0.23737553
137	0x3da635d2	0.08115734
138	0x3de445d7	0.111461334
139	0x3daa891e	0.08326934
140	0x3b2d3469	0.0026428944
141	0xbe1907e4	-0.14944416
142	0x3d260168	0.040528685
143	0xbe280cde	-0.16411158
144	0x3db1d299	0.086827464
145	0xbe2c719e	-0.16840217
146	0xbcf4facd	-0.029904747
147	0xbe7f3c11	-0.24925257
148	0x3e6e64ff	0.23280714
149	0x3da188f6	0.07887451
150	0x3e1fe7aa	0.15615717
151	0xbe0506b4	-0.12990838
152	0x3e44a315	0.19202836
153	0xbdef7dcb	-0.11693915
154	0x3df1f5eb	0.11814483
155	0x3dfd31b9	0.123629995
156	0xbdfb6d27	-0.122766785
157	0x3d341d48	0.043973237
158	0x3db93bb3	0.0904459
159	0x3b9eb2a6	0.004843074
160	0x3de4a303	0.111639045
161	0xbdba6db8	-0.091029584
162	0x3d96975d	0.07353089
163	0xbd42bffb	-0.047546368
164	0xbd4c1aea	-0.049830355
165	0xbe01391f	-0.12619446
166	0x3d2e9ca4	0.042629853
167	0x3d8fa2b9	0.07013459
168	0xbdf7b77d	-0.120955445
169	0x3d1c8a2f	0.03821772
170	0x3e323265	0.17402036
171	0x3d6925a2	0.056920655
172	0xbd4ab046	-0.049484514
173	0x3d35dff3	0.044403028
174	0xbcb8324e	-0.022484925
175	0x3db9759c	0.09055635
176	0x3dec02c3	0.11523964
177	0xbdf99ee6	-0.121885106
178	0xbcd179d9	-0.025570797
179	0x3d083f8b	0.033263724
180	0x3c675359	0.014118993
181	0x3cc7bc14	0.024381675
182	0xbc08e7d4	-0.008356053
183	0x3bece299	0.007229161
184	0x3c54134d	0.012944055
185	0xbdc5d0c1	-0.09658957
186	0x3d62d4c5	0.055378694
187	0x3e4b33f4	0.19844037
188	0xbd091d45	-0.03347518
189	0xbddf52ab	-0.109044395
190	0x3be2b93a	0.0069190534
191	0x3d1ec4dc	0.03876196
192	0xbe41301d	-0.1886601
193	0xbd8bb2f5	-0.06821243
194	0xbd466806	-0.04843905
195	0x3d37d47d	0.04488038
196	0x3d048a1d	0.032358278
197	0x3c79662c	0.015222114
198	0xbb8a21ee	-0.0042154705
199	0x3e7b5e94	0.24547797
200	0x3e4e7147	0.201604
201	0x3dee3e99	0.11633033
202	0xbdb14c93	-0.086571835
203	0xbd8adfe0	-0.06780982
204	0xbd8b5d75	-0.06804935
205	0xbdfcfcf7	-0.12352937
206	0xbdb82147	-0.08990722
207	0xbd8edad3	-0.06975331
208	0x3d18d6e5	0.037314314
209	0xbdd85229	-0.10562546
210	0xbd9a04ea	-0.075204685
211	0xbdec4a29	-0.115375824
212	0xbe129445	-0.14314373
213	0xbd92866b	-0.071545444
214	0x3e045137	0.12921606
215	0xbe178a43	-0.14798836
216	0x3d519816	0.05117043
217	0xbd1d7254	-0.03843911
218	0x3cf90ae7	0.030400706
219	0xbd34745c	-0.04405628
220	0xbdc7d2f6	-0.097570345
221	0xbbeb8249	-0.007187162
222	0x3cb17ff6	0.021667462
223	0xbd7beb39	-0.061503623
224	0x3d159ff6	0.036529504
225	0xbca47f3e	-0.020080205
226	0x3c9c2bdf	0.019063888
227	0xbd408115	-0.046998102
228	0x3dd93972	0.1060666
229	0x3cda7c7f	0.026670692
230	0x3b746644	0.00372924
231	0x3ea017c6	0.31268138
232	0xbc34ef60	-0.0110434
233	0x3d12466f	0.035711702
234	0x3e3cd01d	0.18438764
235	0x3d9fd7b3	0.07804813
236	0xbbfaa836	-0.007649447
237	0xbd1b6e9b	-0.03794728
238	0xbcba1ccf	-0.022718815
239	0xbc1c7cb2	-0.009551214
240	0x3d8a3a03	0.06749346
241	0x3d254193	0.04034574
242	0xbd840974	-0.064471155
243	0x3d0fdac1	0.03512073
244	0xbcf74391	-0.030183585
245	0x3da7aa85	0.08186821
246	0xbe12b927	-0.14328443
247	0xbd74f86c	-0.059807226
248	0xbd303463	-0.04301871
249	0x3daefcc1	0.08544303
250	0xbc71c613	-0.014756697
251	0xbc8238b2	-0.015896175
252	0xbe1ea625	-0.15493067
253	0xbd0fc964	-0.03510417
254	0xbe2ce861	-0.1688552
255	0xbdaad3cc	-0.08341178

bias f4 [150]
0	0x3ebaef22	0.3651057
1	0x3dfb2274	0.12262431
2	0x3cd4e01a	0.025985766
3	0x3e41b24b	0.1891567
4	0x3e7fd457	0.24983345
5	0xbcd8f00e	-0.026481654
6	0xbf09e69b	-0.538675
7	0x3d8a9cc8	0.06768185
8	0xbd278f64	-0.040908232
9	0xbc876aeb	-0.016530475
10	0xbe7e4e49	-0.24834551
11	0x3df6b13b	0.12045523
12	0x3e5f15ee	0.2178571
13	0x3ea94ea2	0.33067805
14	0x3dc3be46	0.09557776
15	0xbe09d8aa	-0.13461557
16	0x3c9baf20	0.019004405
17	0x3eb71ac8	0.3576262
18	0xbd6a7881	-0.057243828
19	0x3e029ead	0.12755843
20	0xbd2dc770	-0.042426527
21	0x3e57ec44	0.21086222
22	0xbec35342	-0.38149458
23	0xbd974c33	-0.07387581
24	0xbf15a09e	-0.5844821
25	0xbdbf18b2	-0.09330882
26	0xbcc3cf93	-0.02390269
27	0xbeb86b68	-0.36019444
28	0xbee1ffb0	-0.44140387
29	0x3e773609	0.24141707
30	0x3ef25af0	0.47335005
31	0xbea11f99	-0.3146942
32	0x3d0fbd5f	0.035092708
33	0xbdc65667	-0.09684449
34	0xbe038606	-0.12844095
35	0x3b54145d	0.003236077
36	0xbd891c26	-0.06694822
37	0x3d8c937a	0.068640664
38	0xbebf33ee	-0.37344307
39	0xbd6b966b	-0.057516497
40	0x3ebdc3bb	0.37063393
41	0x3e1c45fc	0.15261072
42	0x3ed45701	0.4147263
43	0xbec95036	-0.3931901
44	0xbe88b3db	-0.2669972
45	0xbd96293d	-0.07332084
46	0x3e83e9df	0.25764367
47	0x3e1d8e14	0.1538623
48	0x3ebd7e99	0.3701065
49	0xbdb748d8	-0.08949441
50	0x3e193c1a	0.14964333
51	0x3eb6913e	0.35657686
52	0x3cd51a7b	0.026013603
53	0x3da5002b	0.08056673
54	0xbddc24d6	-0.107492134
55	0xbeefbab4	-0.4682213
56	0xbd91fa11	-0.071277745
57	0x3eb887a4	0.36040986
58	0x3e624196	0.22095332
59	0xbe7f3123	-0.24921088
60	0x3e0270ea	0.12738386
61	0x3e2a2455	0.16615422
62	0xbe252090	-0.16125703
63	0xbcbeb08c	-0.023277543
64	0xbf23fbe4	-0.6405623
65	0xbde66409	-0.11249549
66	0x3dbd41d1	0.09241069
67	0xbd0b914c	-0.034074113
68	0x3c503737	0.012708477
69	0x3ee11104	0.43958294
70	0x3d42e349	0.047580037
71	0x3d1b6fdf	0.037948485
72	0x3dcd15e8	0.10013944
73	0xbf0b2dde	-0.5436686
74	0x3ebdaefe	0.3704757
75	0xbd48d3b8	-0.049030036
76	0x3d8ef3a8	0.069800675
77	0x3e66405d	0.2248549
78	0xbeb5f476	-0.3553807
79	0x3e1d91f2	0.15387705
80	0x3ebf3105	0.37342086
81	0x3ee4e944	0.44709218
82	0x3dbc02ab	0.091801964
83	0xbdbeab61	-0.09310032
84	0x3eccc4fb	0.39994034
85	0x3ea05dbc	0.31321514
86	0xbecbcd2d	-0.39804974
87	0x3e7ed1cc	0.24884719
88	0xbe417af8	-0.18894565
89	0x3e50d361	0.20393135
90	0x3cefa991	0.02925566
91	0x3ef3bbbe	0.47604173
92	0xbe20426a	-0.15650335
93	0xbe8ef66b	-0.27922377
94	0x3d6ba7ec	0.05753319
95	0x3b180b25	0.0023200002
96	0x3e4eebc0	0.20207119
97	0x3cf35be4	0.029706903
98	0xbe263200	-0.16230011
99	0x3def6aad	0.11690269
100	0x3e18b62d	0.14913245
101	0x3f1d1f5b	0.6137597
102	0xbea2a2f0	-0.31764936
103	0x3d18f5a2	0.03734363
104	0x3f0fefb1	0.56225115
105	0x3dbe9aea	0.09306891
106	0xbf041b92	-0.5160457
107	0x3e416215	0.18885072
108	0x3e84e467	0.25955507
109	0x3ebf01b7	0.37305996
110	0x3ed03158	0.40662646
111	0xbc5eec25	-0.013606106
112	0xbdb2b2e7	-0.08725529
113	0x3dd7396d	0.10509
114	0xbb93dac4	-0.004512163
115	0xbe98fce6	-0.29880446
116	0xbe4ba2a0	-0.19886255
117	0x3e379050	0.17926145
118	0x3ec19f90	0.3781705
119	0xbf13d988	-0.577538
120	0xbd2851f6	-0.04109379
121	0xbc732952	-0.0148413945
122	0x3eb489bc	0.35261333
123	0xbe1ab517	-0.15108143
124	0x3eeacc0c	0.458588
125	0xbdf790b3	-0.12088146
126	0xbd69850f	-0.05701166
127	0xbe247321	-0.16059543
128	0xbebb56fc	-0.365898
129	0xbe85cd1f	-0.26133057
130	0x3c707a57	0.014677606
131	0x3d349376	0.044085942
132	0xbe080bea	-0.13285795
133	0x3b0def08	0.0021657366
134	0xbf0500de	-0.5195445
135	0x3d8e8b4d	0.06960163
136	0xbd6eab29	-0.0582687
137	0xbd7bdce9	-0.061489973
138	0x3e53dc8c	0.206896
139	0xbf072653	-0.52792853
140	0x3f02949a	0.51008
141	0xbdf4076c	-0.11915478
142	0xbe3b23de	-0.18275401
143	0xbea9e331	-0.33181146
144	0xbe68f19d	-0.22748418
145	0x3df79d23	0.12090518
146	0xbe578c8d	-0.2104971
147	0xbecfdf72	-0.40600163
148	0x3d5aa9d9	0.053384636
149	0x3e94049c	0.28909767
