examples/rl/experiments_from_paper/experiments_data/trained_models/TiltrotorPlus8DofHoverEnv/DevelopmentalTiltrotorPlus8DofHoverEnv-1/ppo/TiltrotorPlus8DofHoverEnv-v0.pt (torch, 279745 bytes, 16 tensors)

weight f4 [150, 18]
000000 53 fa 67 be b4 fe 45 3f 74 22 2b bf cc 32 31 3d
       -0.22654085 0.7734177 -0.66849446 0.043261334
000010 f0 dc 48 bd 51 03 1d 3e 4a 27 bb bd 60 64 a9 3e
       -0.049038827 0.15333296 -0.09138353 0.33084393
000020 8a e1 c3 bd 0f 1b 53 bd 0f 33 5e 3d c8 20 b6 bd
       -0.095645025 -0.051539477 0.054247912 -0.08892971
000030 4b 6f 19 be 0c d2 50 3e 99 5c 03 be e4 46 9c bd
       -0.14983861 0.20392627 -0.12828292 -0.07630709
000040 dc d4 5d be e6 f5 12 3c 19 33 18 3e 56 25 9e 3e
       -0.2166323 0.00896976 0.14863242 0.3088786
000050 93 e9 28 3e a5 4a b3 bd c7 dc 11 3d 5d e5 21 3e
       0.16495351 -0.08754472 0.03561094 0.15810151
000060 99 86 80 3d 09 a5 2b 3e 66 2f 83 3e 8d a6 73 3e
       0.062756725 0.16762175 0.256221 0.23794003
000070 d8 fe b5 bd 12 8e de 3c f6 4e 69 3d 36 e9 18 3e
       -0.08886498 0.027167354 0.05696007 0.14932713
000080 c3 6e f3 3d 84 d9 86 be 3b 63 c9 3b dd 8d 71 3d
       0.118863605 -0.26337826 0.0061458624 0.058973182
000090 e6 ed b4 3e b4 37 8d 3d de 83 49 be 47 a4 e6 3d
       0.35337752 0.0689539 -0.1967921 0.11261802
0000a0 c2 26 4e bd 81 df c5 3d d8 55 cd bd 7a 5e c4 3d
       -0.05032993 0.096617706 -0.10026139 0.095883325
0000b0 69 07 43 be d7 f6 fc bd 01 c8 94 3d 4e a6 d0 3c
       -0.19045796 -0.123517685 0.0726471 0.025469925
0000c0 99 7b cb 3e 14 3c 74 3e 88 15 b8 bd 1d 23 8d bd
       0.39742735 0.23851043 -0.08988482 -0.06891463
0000d0 56 95 5e 3e 35 d5 32 3d e6 c0 21 3d 1f 68 57 3e
       0.21736655 0.04366036 0.039490603 0.21035813
0000e0 c1 88 d1 be bb 91 16 be f4 6e 46 be 2d f2 b5 bd
       -0.40924647 -0.1470403 -0.19378263 -0.08884082
0000f0 a7 73 07 3d a2 91 89 3d 65 cc 53 be 2c 6d 67 bd
       0.03306928 0.067172304 -0.20683439 -0.0565006
000100 c3 c6 78 bd 05 6c f4 bd 82 e6 71 be b2 3e 3f 3e
       -0.06073643 -0.119346656 -0.23623088 0.1867626
000110 1c d1 9d be 84 6c a7 3e fb d7 a6 3d e8 2e 2c bd
       -0.308236 0.32699978 0.08146664 -0.04203692
000120 c1 68 a1 bd ff fa 2b 3d d0 4e a9 3e be d2 4e 3c
       -0.07881308 0.041987415 0.33067942 0.012623487
000130 ba ad 11 bc 77 84 9a 3d 24 98 71 bd 00 94 f7 3d
       -0.008891517 0.07544797 -0.058982983 0.12088776
000140 c7 28 8c bd 27 30 b3 bd fc 5f 2c 3e e5 02 18 be
       -0.06843715 -0.08749419 0.1683349 -0.14844854
000150 f6 34 2e 3e e7 1d 5d 3e f4 e9 47 3e 86 89 c5 3d
       0.1701239 0.21593438 0.1952284 0.09645371
000160 8e e3 81 3d 3d 4b 92 3e d3 41 83 bd b5 9d 82 be
       0.06342231 0.28573027 -0.06409039 -0.25510946
000170 3b 50 64 bd 49 ef b4 bd 25 7a 59 3d a7 11 b5 bd
       -0.055740576 -0.088347025 0.053095 -0.088412575
000180 ff 0a e1 bc a9 9d 54 bc b2 b8 da bd ca 45 eb 3d
       -0.027471064 -0.012977042 -0.10679759 0.114879206
000190 72 ac 83 3e fb b0 3d be b6 17 67 3c 84 3f 9d be
       0.25717503 -0.18524544 0.014104774 -0.3071252
0001a0 6f 0f c7 3d 1a ac 34 be 92 ab c9 3a 80 9a 3e be
       0.097197406 -0.17643777 0.0015386215 -0.18613625
0001b0 94 6a f9 be ec 18 00 3e e3 f2 10 bf 5c d7 e4 3d
       -0.48714125 0.12509507 -0.56620616 0.11173889
0001c0 b1 de f3 3d 58 cc b6 3d 29 1c 6d bd c8 92 86 3e
       0.119077094 0.08925694 -0.057888184 0.2628386
0001d0 fc 65 cf 3d 85 b9 1e bd 60 7b ca 3d 73 02 88 be
       0.10126874 -0.038751144 0.09886813 -0.2656437
0001e0 39 2a 0a be 85 da b0 bd ff c2 1e be bb 1c af bc
       -0.13492669 -0.08635429 -0.15504073 -0.021376004
0001f0 46 3a 21 bd 6e 5a 15 3e 25 39 3f 3e c1 92 5a bd
       -0.039362215 0.14585277 0.18674143 -0.05336261
000200 31 cd 4d bd a9 0e f8 bd 0e 03 5b 3d a3 bc ef 3b
       -0.050244514 -0.12112171 0.05346971 0.0073161884
000210 e0 fb 12 3e 7d bd 50 3d db 3e 0c bd 1c a8 8e bd
       0.14353895 0.05096196 -0.03423963 -0.06965658
000220 87 a8 12 bb d5 1e 3f be 5b de 49 3e 02 31 68 bd
       -0.0022378282 -0.18664105 0.19713728 -0.056687362
000230 86 44 29 bd 50 aa 0e be 85 8c 20 bd 13 c3 1b 3e
       -0.041325115 -0.13932157 -0.03919651 0.15211134
000240 65 d2 c7 bd 45 0c 87 3e 1b 07 4a bd 47 12 a7 3e
       -0.097569264 0.26376548 -0.049323183 0.32631132
000250 d9 6e 41 be c3 91 82 be f0 35 e4 bc f3 74 d6 3c
       -0.18889941 -0.25501832 -0.02785775 0.026178813
000260 46 28 2e bc 07 39 86 bc 46 83 73 be dd d1 3d be
       -0.010629719 -0.016384615 -0.23780546 -0.18537088
000270 a3 8f 51 be 3a 07 6f be 2b cc cf 3d 39 76 61 be
       -0.2046495 -0.233426 0.10146364 -0.22017755
000280 27 ca f6 3d 01 b2 4b be da 2a 89 bd 33 ae 5d be
       0.12050276 -0.19892122 -0.066976264 -0.21648483
000290 f1 bc 1a 3e 63 36 3d be a8 77 14 3e 17 5b 1b bd
       0.15111138 -0.18477778 0.1449877 -0.037928667
0002a0 27 a4 85 3e 99 f6 42 be 30 a2 c5 bc f1 f7 6a bd
       0.261018 -0.19039382 -0.024125189 -0.05736536
0002b0 4a d3 73 3e f2 93 e7 3d 0b 7a 01 be 6c 63 b7 3d
       0.23811069 0.11307515 -0.12644212 0.0895451
0002c0 69 da 37 3e fd cf c0 3e d7 bb 61 3e 75 5d 82 be
       0.1795441 0.37658682 0.22044311 -0.25461927
0002d0 50 de 09 bf c0 a9 a2 be 82 57 57 3f c9 0f f8 bd
       -0.53854847 -0.31770134 0.841179 -0.12112386
0002e0 e6 2a b1 bd 5c ea 02 be 0a ea 7e bd 57 45 b3 3e
       -0.0865076 -0.12784714 -0.062234916 0.3501384
0002f0 a4 78 46 3c 21 9c 88 bd 57 79 12 bc 07 c6 8c 3c
       0.012113724 -0.06670404 -0.0089400625 0.01718427
000300 46 1f 86 be dd 62 58 3e 38 cb ea 3c d9 8b 8e 3e
       -0.26195735 0.21131463 0.028661355 0.2784107
000310 5c 92 33 be 61 fe 94 3d e4 3c 85 be 29 0c c7 3e
       -0.175363 0.072750814 -0.26023018 0.38876465
000320 01 97 22 bc 5c 21 18 bd 97 f9 49 3e 05 0a d5 bd
       -0.009923697 -0.03714119 0.19724117 -0.10402302
000330 33 25 23 bc 94 ef d0 bd 19 a5 e3 3c b8 61 cd 3b
       -0.009957599 -0.10201946 0.027788686 0.0062677525
000340 7f a2 fd be e3 e3 10 bd d8 d6 09 be f3 c6 4f be
       -0.49538037 -0.03537358 -0.13460863 -0.20290737
000350 cc a3 dd bd c1 3e e9 bd e8 49 b7 3e 34 d1 37 be
       -0.108222574 -0.113889225 0.35798573 -0.17950898
000360 70 1f 14 bd 22 b2 07 bd ba db c4 be fa 85 fe bd
       -0.036162794 -0.033128865 -0.38448888 -0.12427898
000370 76 7a e1 bc 52 a1 0f be 9b b4 41 3e 2c 54 0b be
       -0.027524214 -0.14026383 0.18916552 -0.13606328
000380 48 5f c1 bd ea cb b7 3b 04 ff e1 bd 95 af aa bd
       -0.094420016 0.0056090252 -0.110349685 -0.08334271
000390 3e f4 c4 3d 44 00 03 be 58 66 af be 1f 28 f4 bd
       0.09616898 -0.1279307 -0.3425777 -0.11921715
0003a0 0f 95 10 3a e8 eb 8c 3e 7b b0 11 bf 8a 12 24 bf
       0.00055153755 0.27523732 -0.5690991 -0.6409079
0003b0 4b c7 a2 3d 6c 8a 80 3c 67 93 94 bd 73 08 75 be
       0.07948168 0.015691005 -0.07254677 -0.23929004
0003c0 9c bc ad bc 41 cb 13 3d 01 e6 b3 be 64 cf 95 3d
       -0.0212081 0.03608251 -0.35136417 0.07314947
0003d0 b7 35 c0 bd 8d 15 d6 bd c5 74 f1 be e4 f9 8f bd
       -0.09385245 -0.10453329 -0.471594 -0.07030085
0003e0 8d 28 df 3d 5f 18 3c 3d 7d 90 59 3e 3f a0 36 3d
       0.10896406 0.04592168 0.21246524 0.044586416
0003f0 22 45 cd 3d dc 6b 59 3d 82 77 eb bd 1e 92 2b bd
       0.10022952 0.05308138 -0.11497404 -0.041887395

bias f4 [150]
000000 8b a4 46 3d 07 2a d4 3c 9c 73 01 3d 39 e1 2d 3e
       0.048496764 0.025898946 0.031604394 0.16980447
000010 89 27 50 be 51 2e 03 bf 7e 60 23 3e 18 04 02 bf
       -0.20327581 -0.5124255 0.15954778 -0.50787497
000020 1d 11 b3 bd 75 cd a8 bd 6c 9b b9 bd 13 aa fa 3d
       -0.087434985 -0.08242313 -0.090628475 0.1223947
000030 91 7c 7f 3d d8 33 0f be f3 81 a2 3d 4c 98 81 3d
       0.062374655 -0.1398462 0.07934942 0.063278764
000040 92 51 20 3e 0e 0a 81 be a4 cc 74 ba e1 cd d1 3d
       0.15656117 -0.25202984 -0.0009338355 0.102443464
000050 5e 19 6c be fb 32 c3 be eb 34 88 be b9 94 07 3e
       -0.23056552 -0.38124833 -0.26602873 0.13240327
000060 b6 46 59 3d 02 a8 53 be 1a cd 8f bd 35 7e 6a 3d
       0.05304595 -0.20669559 -0.07021542 0.057249267
000070 79 cc bc bd 92 de 65 3e f3 2b 70 be 55 8c 4a be
       -0.092186876 0.22448185 -0.23454265 -0.19780095
000080 d9 b8 8d bb fb c8 6c 3d 77 09 32 3d 9b ac 1e bd
       -0.004325014 0.057808857 0.043466058 -0.03873883
000090 4a 23 42 be 77 5f df 3d a7 28 fe 3d 08 1d c0 bd
       -0.18958774 0.1090688 0.124100976 -0.09380537
0000a0 7f 9c ad bd f6 b8 32 3d 39 35 8e 3e e2 26 02 be
       -0.08477115 0.043633424 0.2777498 -0.12710145
0000b0 fc 86 44 3e 11 a8 68 bd 2c 75 49 3e f7 91 26 3f
       0.19192117 -0.056800906 0.19673604 0.65066475
0000c0 df ae 84 3e 78 0e 6e be 3f 85 35 3e 52 dc ce 3d
       0.25914666 -0.23247707 0.1772661 0.101006165
0000d0 51 cf 8a 3e 3f be 18 be 06 10 02 3e 59 0e 07 be
       0.27111295 -0.14916323 0.12701425 -0.13189067
0000e0 c0 42 80 be 3a 8a 9b 3e b2 a5 01 be 4d 42 1d 3e
       -0.25050926 0.30378896 -0.12660864 0.15357323
0000f0 36 1c ec 3d 61 f0 8d 3e 8b f5 c8 3b 4c e0 7a 3e
       0.11528818 0.27722457 0.0061327866 0.24499625
000100 76 89 f1 bd ba 82 c4 3c 71 24 e4 3d 86 f5 01 3e
       -0.11793797 0.023988117 0.11139763 0.12691316
000110 50 ae f0 bd 7c 38 8b 3e 4c 50 8d bd eb 75 72 3b
       -0.117519975 0.27191532 -0.06900081 0.0036996554
000120 b1 98 07 be 4d a2 f9 3d 3f 46 43 bd 41 1c b9 be
       -0.13241841 0.121891595 -0.047674414 -0.3615437
000130 26 b4 af bc 6b 30 a5 be 31 f5 08 be 27 25 7a bd
       -0.021448206 -0.32263502 -0.13374783 -0.061070587
000140 b7 8c ca 3e 53 d7 a1 3c ae 4b cf 3d 3f ff d5 bd
       0.39560482 0.019755995 0.10121857 -0.10449075
000150 bb f8 20 3e 1c e4 0c be ab 28 e0 3c 60 d5 87 3e
       0.15719883 -0.13758892 0.027363142 0.2652998
000160 49 36 7c 3d 6f 86 ac be bc 46 c9 3d 29 8c d5 bd
       0.061575208 -0.33696315 0.09827945 -0.10427124
000170 b9 0c 08 3e 1c 53 bb 3d 9c da 42 be c3 3d 12 bf
       0.13286103 0.09146711 -0.19028705 -0.5712549
000180 a5 aa 35 be 59 01 6d be c7 01 80 3e 9c 8e b7 bd
       -0.17740877 -0.23145045 0.25001356 -0.089627475
000190 43 7e 9c bc 31 18 d8 3d ec 12 43 bd 3f fc c7 bd
       -0.019103175 0.10551489 -0.047625467 -0.09764909
0001a0 de 78 4e 3e 6c ee 5e 3d fc 5c f3 bc ac c2 0c bf
       0.20163295 0.054426596 -0.029707424 -0.54984546
0001b0 ea 44 78 be 75 3e 01 3f 12 da 59 3e 3d 66 38 3e
       -0.24245039 0.50485927 0.21274593 0.18007751
0001c0 e9 70 00 3e f4 42 11 be 4d 8d 08 3e 14 f5 ee be
       0.12543072 -0.14185697 0.13335152 -0.46671355
0001d0 69 99 3d 3e 28 0c 54 bb e5 38 94 3b 40 9d 2e 3d
       0.18515553 -0.0032355879 0.004523384 0.042630434
0001e0 f0 77 28 3b 69 31 c1 bd 2d 1d 48 3d ce 52 15 bd
       0.0025706254 -0.09433252 0.04885595 -0.03645592
0001f0 81 81 56 bd b6 16 37 3e cf fb 4f 3d 7c 1e 46 be
       -0.0523696 0.17879757 0.050777253 -0.19347566
000200 96 28 3f 3e f6 f1 2d 3e a1 2d 79 be 9c 50 13 3e
       0.18667826 0.16986832 -0.24333812 0.14386219
000210 65 0a eb be ca 16 84 3d 89 00 c5 bc d5 fe 0d bd
       -0.45906368 0.06449659 -0.024048107 -0.034666855
000220 d8 6f 40 3e 0c 19 04 3e ef 98 25 3d 41 4c 11 3e
       0.18792665 0.1290018 0.040429052 0.14189245
000230 4f cd 02 3e 0b a8 93 3e 0d bd 13 3d ec 02 d5 3d
       0.12773632 0.28839144 0.036068965 0.10400948
000240 51 29 2c be 23 d0 c4 bd a8 74 77 3e 2b fc 7d 3d
       -0.16812636 -0.096100114 0.24165595 0.062008064
000250 52 c0 1e 3e 4e 3c 00 3e
       0.15503052 0.12523004

weight f4 [150, 150]
000000 7e 67 e9 bd 71 f9 a5 bd 8f 24 00 be 62 80 01 be
       -0.11396693 -0.08104218 -0.12513946 -0.1264663
000010 0e 45 f9 3e c7 03 8b be 63 9d 46 3d 41 ef 47 3d
       0.48685497 -0.2715132 0.04848994 0.048812155
000020 c2 60 35 be 9f cd 61 3d f9 33 87 3e da 24 19 3c
       -0.17712691 0.055127736 0.2640684 0.009347165
000030 4e 96 5f 3d 9c 19 0f 3d 8f bd b9 3b f2 ce 90 be
       0.0545867 0.034936532 0.005668349 -0.28282887
000040 84 56 10 be 76 ed 3a be 81 c5 3f 3d bc 22 c4 be
       -0.14095503 -0.18254647 0.046819214 -0.3830775
000050 2a e2 3b be 5c 81 ec 3b 75 d8 84 be 54 a7 cd be
       -0.18347993 0.0072175693 -0.25946394 -0.40166724
000060 bf 78 38 bd c0 6b 99 be c3 e6 28 be 0d 47 69 3e
       -0.045037027 -0.2996502 -0.16494279 0.2278101
000070 c5 ec 21 3d c9 3e 44 be f1 6f 02 3f 0a c2 97 3e
       0.03953244 -0.19164576 0.5095206 0.29640228
000080 bb 33 44 bd f0 97 cd bd 4a f6 56 be be c6 14 be
       -0.047900897 -0.100387454 -0.2099239 -0.14528939
000090 2f c5 4c 3d c6 1d b0 3d be 79 0e be 32 f1 32 3e
       0.049992736 0.08599429 -0.13913628 0.17474821
0000a0 23 75 34 be a9 fe 83 bd c8 07 1a 3e 16 db 53 3e
       -0.17622809 -0.06445057 0.15042031 0.20689043
0000b0 0d ba 27 3e 28 2c 4c bd 2d 6e 5d bd 92 6b b7 3b
       0.16379566 -0.0498468 -0.05406015 0.00559754
0000c0 7a 44 6b 3e da d9 67 3e 90 6d 1a be 2c 64 dc bd
       0.2297534 0.22641698 -0.15080857 -0.10761294
0000d0 36 a4 03 be bd b4 d3 3d cb ae b0 bd 79 ab 39 be
       -0.1285561 0.103372075 -0.08627089 -0.18131818
0000e0 62 07 24 be 30 a4 35 be a7 eb da 3c 10 94 90 be
       -0.16018441 -0.17738414 0.026723696 -0.28237963
0000f0 7a 0b 83 3d a7 39 f6 3d 1e b9 ed 3d 3c 0a 89 be
       0.06398673 0.12022715 0.11607574 -0.2676562
000100 12 fa 48 3e 67 18 34 3e 64 39 00 3e d0 a9 1b be
       0.19626644 0.17587434 0.12521893 -0.15201497
000110 6e c1 85 be f8 71 fc bd dd 7b ce 3d ca 5c 45 3e
       -0.26124138 -0.12326425 0.10082219 0.19273677
000120 f8 b2 b0 bd fc 43 31 3e df bb d6 3d 28 5c d5 bc
       -0.086278856 0.1731109 0.10485052 -0.02604492
000130 d9 b9 8f 3e ad e8 3a 3e 15 d3 56 bd 09 30 82 bd
       0.28071478 0.18252821 -0.052447397 -0.06356818
000140 4a a8 09 3e 85 08 31 3e 17 cd 99 bd 32 d6 c5 bd
       0.13443103 0.17288406 -0.07509821 -0.09659995
000150 65 40 0b 3d 6b 61 58 be e6 c9 ab 3d 42 5d 5e be
       0.03399696 -0.21130912 0.083881184 -0.21715263
000160 d6 b2 bf 3d 37 2d a8 3e 49 14 21 be 84 af 84 bd
       0.09360282 0.32846996 -0.15730394 -0.064787894
000170 7e 21 1c 3b f4 86 df bd f3 97 d5 3d 03 e4 c8 bd
       0.0023823674 -0.10914412 0.10429373 -0.09809115
000180 dd 0b 23 3e 8d dd 66 bc af 3f 08 3e 8a 9c 9c 3e
       0.15922494 -0.014090908 0.13305543 0.3058818
000190 55 c9 c1 3d 3a 0b 94 bd df f5 d0 bb 12 0a 03 3e
       0.09462229 -0.07228704 -0.0063769664 0.1279681
0001a0 bf ad 6e bd d1 46 85 bc 01 ed 80 bd 0b ab 64 be
       -0.058271166 -0.01626912 -0.06295205 -0.22330873
0001b0 4b 4d 78 3d b6 fe 11 3d 62 ba 87 be 51 11 27 bb
       0.060620587 0.035643302 -0.26509386 -0.00254925
0001c0 82 c4 3f be 7f 90 7a 3e 1a bf 81 3d df 26 83 bd
       -0.18727306 0.24469183 0.06335278 -0.064038984
0001d0 7e e5 24 be d4 f0 11 3e fd 31 92 be 7c be c4 3d
       -0.1610317 0.14252025 -0.28553763 0.096066445
0001e0 9a 95 e9 bd 69 e7 76 3e 15 0e 20 3e 24 b3 06 be
       -0.11405487 0.24111713 0.15630372 -0.13154274
0001f0 e1 eb 71 3d d1 2d ed 3c b1 ab 56 3d 2c b0 11 3e
       0.059062842 0.028952511 0.05240983 0.1422736
000200 95 38 b9 be 48 69 fa 3c e3 ea 9d ba 3e 79 05 3e
       -0.3617598 0.03056778 -0.0012048151 0.13034531
000210 ad 9c 12 be 9f f3 2e bd f4 70 10 3e bc 30 e4 3e
       -0.1431758 -0.042712804 0.14105588 0.4456843
000220 23 02 cb bd c7 79 54 3e 14 06 2e 3e ec 4c 95 3c
       -0.09912517 0.2074958 0.16994506 0.018225156
000230 ac 75 79 3c b5 eb 43 be d4 ad 4c 3e dd af e3 3d
       0.015225809 -0.19132884 0.19988185 0.11117528
000240 78 06 e3 3c fe da c5 3e bb 59 4c be 6f e2 ac 3d
       0.027713045 0.3864364 -0.19956104 0.08441626
000250 b4 d3 51 be 11 a9 b8 bd 75 cb 72 3e a0 d4 cd bd
       -0.20490915 -0.09016622 0.23710425 -0.100503206
000260 5e a5 02 bd f4 51 d4 bc 04 b3 77 be 0b f8 61 be
       -0.031895988 -0.025917985 -0.24189383 -0.22067277
000270 67 46 9e 3d ee 63 15 bc b7 e1 7d 3e 68 46 28 bd
       0.07728272 -0.009118063 0.24793135 -0.04108277
000280 ab 4b be bd f1 54 94 3e 0d 96 64 bd e1 fa 83 be
       -0.09291776 0.28971055 -0.055807162 -0.25777343
000290 53 f3 14 3e 8f 73 93 be fd 9c 1d be 6b 83 34 3d
       0.14545946 -0.28799102 -0.15391918 0.044070642
0002a0 c4 aa 42 3d ab 4b 4c 3e 82 2f f3 3b 41 b1 01 be
       0.047526136 0.1995074 0.007421435 -0.12665273
0002b0 6d c6 7d be 7d c1 33 3e 84 25 7a 3e 2f bf fe 3e
       -0.24782725 0.17554279 0.24428374 0.49755237
0002c0 6d 93 be bb 1d 71 9b be 8e e9 64 bd cf 72 d5 bd
       -0.0058159144 -0.30359736 -0.055886798 -0.104222886
0002d0 bc 45 41 3e 75 e8 fe bc 3b a7 da 3c 47 d6 25 be
       0.18874258 -0.031116704 0.02669107 -0.16195022
0002e0 88 7e f7 3d b2 06 a9 bd f2 aa 9f 3d 7b b8 5c be
       0.12084681 -0.0825323 0.07796277 -0.21554749
0002f0 73 f9 ee bc 4c 10 17 be e0 7b 1e 3e 32 10 99 3d
       -0.029171681 -0.1475231 0.15476942 0.07473792
000300 fe 85 55 39 5c 12 73 be 95 cc be bd 46 db 07 3e
       0.00020363179 -0.23737472 -0.09316365 0.1326724
000310 3d 5c 13 3e 75 58 51 3d 5f e7 a5 3c 1d 03 9d bd
       0.14390655 0.05110975 0.020251928 -0.076666094
000320 6a 19 36 be aa fa 0d 3c 90 e9 94 3e 4d 5a ea bd
       -0.17783132 0.00866572 0.29084444 -0.11443005
000330 f0 2e cb 3d 90 72 09 be 80 87 fd 3d ee 2b c5 bd
       0.09921062 -0.13422608 0.1237936 -0.096275195
000340 93 14 43 be 39 8d f4 3d 9d 7a 28 3e 4f 69 c3 3e
       -0.19050817 0.119409986 0.16453023 0.38166282
000350 9d e8 a1 3d 1b 01 c4 3c 07 2a ac be 52 90 5e 3e
       0.079056956 0.023926308 -0.33625814 0.21734741
000360 6a c9 46 bd 33 51 af bd 45 71 f3 3d ba 5d 04 3e
       -0.048531927 -0.085604094 0.11886839 0.12926379
000370 df 95 83 3c e0 9b 51 3e d4 20 68 3d 69 72 f3 bd
       0.016062675 0.20469618 0.056671932 -0.118870564
000380 dd 64 eb bd 8b 4c ee bd 18 7e f4 3d d5 63 35 bd
       -0.114938475 -0.11635693 0.11938113 -0.04428466
000390 56 fd ce 3d 72 55 20 3d 3d 12 62 be 3f 4f 86 be
       0.10106914 0.039143987 -0.2207727 -0.26232335
0003a0 1d 27 81 3e 99 c9 f0 be b5 c3 fe 3b 94 09 02 3e
       0.25225154 -0.47028807 0.007774795 0.12698966
0003b0 ac 7e 8c 3e a9 36 6f 3d bc e6 94 3d 5e 5e a3 bc
       0.27440393 0.058401737 0.072705716 -0.019942459
0003c0 f1 67 4d 3b bd 48 59 3e 34 f8 bd bd 55 95 da 3d
       0.0031342471 0.21219154 -0.092758566 0.10673014
0003d0 75 93 dd be 41 b8 3d be d1 e9 33 be fc 45 ef bb
       -0.43276563 -0.18527319 -0.17569663 -0.007302044
0003e0 d6 b0 9d bd a2 bd 3b 3e c2 46 fe bc 14 de 0c 3d
       -0.076997444 0.18334058 -0.0310396 0.034391478
0003f0 bb 72 90 3b d5 46 8e 3d 7c a6 68 bd 34 55 2e be
       0.004408208 0.06947104 -0.056799397 -0.1702469

bias f4 [150]
000000 a6 74 f8 bd c5 d7 f2 3d 59 69 de bd f3 77 8c be
       -0.12131624 0.11857561 -0.10859937 -0.27435264
000010 e5 e1 f2 3d 22 11 44 bd 91 aa a1 3e e3 ff 33 be
       0.11859492 -0.0478679 0.31575444 -0.17578082
000020 33 2a 59 3e 20 c1 c5 bd 08 b6 8d 3d 14 57 0c be
       0.21207504 -0.09655976 0.06919485 -0.13705093
000030 92 e5 62 3e 99 9c ce 3d 0c 6c 9e 3d f0 13 a0 be
       0.22157887 0.100884624 0.07735452 -0.3126521
000040 ea c0 81 bd 52 61 41 bd eb 0d f6 bd e0 d6 8b 3e
       -0.063356236 -0.047211953 -0.120143734 0.27312374
000050 20 b3 8c be d5 17 af 3e a3 e3 cf bd 77 c8 20 3e
       -0.27480412 0.3419787 -0.1015084 0.15701471
000060 3b 14 5a 3d 56 b1 9b 3c 3b ac 93 bd 99 2b 5c 3d
       0.05324195 0.019005459 -0.07210585 0.053752515
000070 88 a4 84 3e 25 46 d4 3d 91 b9 c4 3c cf 66 a0 3e
       0.25906777 0.103649415 0.024014266 0.31328437
000080 8a f9 07 3f 3c b9 e0 3d 7e 57 11 bf 47 97 33 be
       0.5311514 0.10972831 -0.5677413 -0.17538176
000090 4c ce b9 3d e1 5f 57 3e a7 37 a6 bd 86 d0 ed ba
       0.09072551 0.21032669 -0.081160836 -0.001814381
0000a0 29 20 65 3d 9a d6 ad 3d df 9d ff 3d fa 5a 2e be
       0.055938873 0.084881976 0.124812834 -0.17026892
0000b0 6f ce 9e 3e 39 e5 26 3b 21 9c 36 3d 22 da a4 3e
       0.3101687 0.0025466217 0.04458249 0.32197672
0000c0 9f 05 a9 3d 49 10 7f 3e 3c 5f 19 3e 55 53 e2 bb
       0.08253025 0.24908556 0.14977735 -0.0069069066
0000d0 5b 98 bd 3d cf 82 00 3e 54 f9 07 bd 03 b7 1b 3e
       0.09257575 0.125499 -0.033196762 0.15206532
0000e0 0c 1b 5a be b9 fe 3d 3d 2c 38 f2 3d 07 15 63 3e
       -0.2129938 0.0463855 0.1182712 0.2217599
0000f0 9f cc 05 be d2 8c 58 3e 19 84 50 3e 56 48 c4 3c
       -0.13066338 0.21147469 0.20362891 0.023960274
000100 0b ff 53 3e 7c 88 e6 3c e5 6e fa 3c 78 b6 75 3e
       0.2070276 0.028141253 0.030570457 0.23995388
000110 32 90 a5 bc 83 1c 44 3e 9a b6 e6 be 33 b8 8d 3e
       -0.02021036 0.19151501 -0.4506119 0.27679595
000120 49 ab 66 be e2 6e 86 3d 1b ce 48 3e d3 0b 47 bd
       -0.22526278 0.06564118 0.19609873 -0.04859526
000130 58 d2 b8 bd fc 47 5b bd f2 dd 29 3e 78 d2 1b 3e
       -0.09024495 -0.053535447 0.16588572 0.15217006
000140 69 ec 3b be 90 c0 b7 3d 3f d6 3d 3e 95 fe bc bc
       -0.18351902 0.08972275 0.1853876 -0.023070613
000150 f7 b9 16 3e 34 05 85 be f3 ae 58 3d d6 38 08 3f
       0.14719377 -0.25980532 0.05290122 0.53211725
000160 a5 2d 4a 3e 3b 25 ce be 9a 3e 3b be 2d 1b 39 bc
       0.19743975 -0.4026278 -0.182856 -0.011297983
000170 ff 9a 83 3e f6 04 c9 bd 6f 8d 2e be e5 36 96 3d
       0.2570419 -0.09815399 -0.1704614 0.07334689
000180 ef 0a 93 be d5 43 2d 3b c6 b5 2a 3d 40 cf 88 3c
       -0.2871928 0.0026438136 0.04167726 0.016700387
000190 2b b1 ec be 06 e0 39 3e 33 9d cf be 2d 7c 05 bf
       -0.46228918 0.18151864 -0.4054962 -0.521426
0001a0 27 fb c0 3d 0f d8 94 bd 0c de a0 3d 52 12 c1 3d
       0.094229035 -0.072677724 0.07854852 0.094273224
0001b0 40 6a 9a 3e 4f 1e 91 3d d6 d1 f9 bd 63 2c 18 bd
       0.30159187 0.07085859 -0.12198226 -0.037151705
0001c0 43 b2 06 3e 35 fb 9e bd fc 69 99 be 97 95 72 3e
       0.13153939 -0.07762758 -0.29963672 0.23689876
0001d0 d3 4e b3 be 27 57 9d 3b 83 e5 4a 3b e6 79 28 be
       -0.35021076 0.004801649 0.0030959554 -0.1645275
0001e0 54 8a e8 be 85 f0 76 3e a5 ab f6 bd 32 11 75 3d
       -0.45418036 0.24115188 -0.12044457 0.05983085
0001f0 72 19 95 bc bc bd 61 be ca e3 c6 3e c7 85 6c be
       -0.01820061 -0.22045034 0.38845664 -0.23097907
000200 49 f6 81 3d f1 6f 3a be d2 c4 cf b9 fe a7 fc 3d
       0.06345803 -0.18206765 -0.0003962876 0.123367295
000210 e4 a8 90 bc 88 d1 d1 3d ac eb 83 bd 43 88 24 3e
       -0.017658658 0.10245043 -0.06441435 0.16067605
000220 5c f3 1c bd 60 64 a7 bd 9e 25 55 3d ea b6 44 3e
       -0.038318023 -0.08173442 0.052037828 0.19210401
000230 d6 ad b0 bd 59 bb 52 3d a3 f0 87 3e f7 01 14 be
       -0.086269066 0.0514482 0.2655078 -0.14453875
000240 bb fb 25 bd 1c 6c 4e bd 2a ab 27 3d 83 fb 04 be
       -0.040523272 -0.05039607 0.04093472 -0.12986569
000250 aa dd ad 3d 81 d1 0c 3c
       0.08489545 0.0085948715

weight f4 [64, 4]
000000 69 a5 d4 be fd 2d 1f be d4 6c a4 3e e0 e3 2a bb
       -0.41532448 -0.15544887 0.3211428 -0.0026075765
000010 9e a0 04 3f 6d 97 0c be c5 b9 0f 3d 8c fb b4 be
       0.5180758 -0.1372964 0.035089273 -0.35348165
000020 40 f4 18 bf 88 fd a5 bd 5e 0f 91 be 4a 86 0e be
       -0.59747696 -0.08104998 -0.28332037 -0.13918415
000030 cb 0a 96 be 32 eb e5 be b1 7a 17 be b9 e4 05 3e
       -0.2930511 -0.44906002 -0.14792897 0.13075532
000040 63 12 d8 3e f3 03 19 3d 90 44 6f be 50 da cc bd
       0.42201528 0.037357282 -0.23365998 -0.10002577
000050 b7 3c a8 3d 82 7e 9d be 3c 41 16 be 1f 9a e7 3e
       0.082147054 -0.3076058 -0.14673322 0.45234773
000060 63 c0 6c bd 89 16 8a 3e db 4b 19 bd c3 53 2b be
       -0.05780066 0.26970318 -0.037425857 -0.16731171
000070 ae bb 90 bd 50 c9 e0 be 03 40 14 3e 03 7d c1 3e
       -0.07067047 -0.4390359 0.14477544 0.3779069
000080 51 fc eb bc 09 95 ee bd f5 76 b7 bc 01 45 03 3f
       -0.028806837 -0.1164952 -0.02239559 0.51277167
000090 76 19 68 bd 1e ba 78 3e c4 c7 94 3d 5a 0c e0 be
       -0.056664906 0.24289748 0.07264665 -0.43759423
0000a0 e7 50 0e 3e 5c bf c4 be fd c3 26 3e aa 16 2c 3d
       0.1389805 -0.38427246 0.16285701 0.0420138
0000b0 93 b3 62 3e e4 8d ad 3e 8c bc 68 be ea 2e a5 3e
       0.22138815 0.33897316 -0.22728175 0.32262355
0000c0 76 ca 47 be 56 02 f7 be 1c 29 c9 3e 38 f2 e4 bd
       -0.19510826 -0.4824397 0.39289176 -0.11179012
0000d0 e1 bb 18 be dd a5 cf bc a0 79 8d be 9c 9e bd be
       -0.1491542 -0.025347644 -0.27631855 -0.37035072
0000e0 06 78 ce be 33 6e f5 3e ba 23 2b 3e ad 4b c5 bd
       -0.40325946 0.47935638 0.16712847 -0.09633575
0000f0 47 b6 3b 3d e7 5e 9f 3e e2 6c 2b be 1d d9 94 3a
       0.04582813 0.31127092 -0.16740754 0.0011356209
000100 6b 58 ab be 71 06 85 3d 71 7d ad 3e a6 c5 40 be
       -0.33465895 0.06495369 0.33884767 -0.18825397
000110 ab d4 a7 bd 31 9d 59 3e 85 81 9a 3e dc 59 43 3d
       -0.0819486 0.2125137 0.3017694 0.04769312
000120 59 5a 97 be 0b 2c 51 be 27 4c 68 3e b8 cc c1 bd
       -0.29561117 -0.20426957 0.226853 -0.09462875
000130 7d 11 30 3c 2d ea 26 3e f3 7b b2 3e 78 d0 ec be
       0.010746357 0.16300268 0.3486019 -0.462528
000140 6a 08 ad 3e a5 4b 95 be 9b 44 af be e1 48 38 be
       0.33795482 -0.29159275 -0.3423203 -0.17996551
000150 47 af 40 3e 6b 0a 4e be 99 27 42 be 74 28 16 3e
       0.18816863 -0.20121162 -0.18960418 0.14663869
000160 00 5f 31 3d 16 f3 34 3e 90 2a 9a be 3d e5 12 bf
       0.04330349 0.17670855 -0.30110598 -0.5738104
000170 17 da 3e bf 1b 13 54 3b ea b6 b8 3e ba ae 94 3e
       -0.7455153 0.003236002 0.36077052 0.29039556
000180 39 bd 5b bd 91 45 83 3d 11 a3 a5 be b1 a4 9c 3e
       -0.053647254 0.06409753 -0.32350972 0.305944
000190 5c fe 09 bf b2 54 55 3e f6 22 25 3e fa 06 ac be
       -0.53903747 0.2083309 0.16126618 -0.33599073
0001a0 5d 03 27 be 8b fb 28 be c5 48 ab be bb 58 15 be
       -0.16309877 -0.16502206 -0.33453956 -0.14584629
0001b0 58 e3 6b 3e 23 7e 80 bd d6 8a ed 3e f5 38 c5 3e
       0.23035944 -0.06274059 0.46394986 0.38520017
0001c0 2e 24 5c 3c 63 d0 32 bf 57 71 36 bc 3a b2 5a 3d
       0.01343636 -0.6984922 -0.011135421 0.053392626
0001d0 54 f1 4d 3e 18 98 11 be b5 f2 a4 be fd cb dd 3d
       0.2011159 -0.14218175 -0.3221642 0.10829923
0001e0 5b bc 39 3d 8f 51 43 3e 51 c9 8f be cf 4c ab be
       0.045345645 0.19074081 -0.2808328 -0.33457038
0001f0 ee 7d 44 3d eb b8 a2 be 23 94 d2 be f0 0f d2 3e
       0.04797166 -0.31781706 -0.41128644 0.41027784
000200 c4 36 e7 3e 71 08 b0 bd 10 c0 d9 3e d2 46 60 3d
       0.4515897 -0.0859536 0.42529345 0.05475504
000210 f9 37 70 3f fb 6c ba 3e bb 28 53 3e 7d 55 72 3c
       0.9383541 0.3641127 0.20621006 0.01479089
000220 04 18 1a be ac c5 ac 3e 4a ba 0f bd 0f 74 76 be
       -0.15048224 0.33744562 -0.03508977 -0.2406771
000230 7e a7 74 be 15 c4 3b be 53 1f d0 3d d2 ab 6c 3e
       -0.23892018 -0.18336518 0.101622246 0.23112419
000240 a3 7e 77 3c f0 84 5f be 23 5c 87 3e e0 2f 04 3e
       0.015105876 -0.21828055 0.26437482 0.12908888
000250 9b 5e 09 3f bf d7 98 bd 69 b6 41 3e c2 ee 93 3e
       0.5365998 -0.07463025 0.1891724 0.28893095
000260 90 0a 4e be d1 c8 22 bf 4d bc cc bc ed 17 0b 3e
       -0.20121217 -0.6358767 -0.024992133 0.13583346
000270 8e b7 a6 3e fd 15 41 3e dc c1 b7 be 03 d5 b8 bd
       0.32561916 0.18856044 -0.3589009 -0.09025004
000280 26 67 0b be 2f 7b 7d be 82 77 d6 be f9 cc c4 3d
       -0.13613567 -0.24754022 -0.41888052 0.09609408
000290 0a 25 a3 3e 4d 53 7a bd 7e de 08 be 13 11 29 be
       0.31864196 -0.061114598 -0.13366124 -0.1651042
0002a0 47 ec 3d 3f 8d 7c ba 3e 54 d4 dd 3d 36 43 b8 bd
       0.74188656 0.3642315 0.10831514 -0.089971945
0002b0 09 29 0b 3e cb 3f 0e 3d f2 d4 79 be 79 69 e1 3e
       0.13589872 0.034728806 -0.24397638 0.44025782
0002c0 0f 70 70 3e 73 99 2f bd fe 41 bd 3e 5d 4a c8 bc
       0.23480247 -0.04287095 0.3696441 -0.024449522
0002d0 d5 a2 03 be e4 84 ad be 94 66 75 3d d2 08 1d 3e
       -0.12855084 -0.3389045 0.05991228 0.15335396
0002e0 18 94 1b 3e 4f a9 8f 3e 5e 13 6f be 39 26 82 be
       0.15193212 0.2805886 -0.23347232 -0.25419787
0002f0 97 c2 be 3e a4 0e 89 be 4c bf 0c 3e 59 44 0a be
       0.37257835 -0.26768982 0.13744849 -0.13502635
000300 bd 15 30 3d f2 63 b0 3e 27 2d bf be 49 e4 1d 3c
       0.04298948 0.34451252 -0.37339136 0.009636947
000310 a9 b8 04 3f 2c d7 14 3f 3b e8 e2 3e 86 45 86 3e
       0.5184427 0.58140826 0.44317803 0.26224917
000320 81 3b 20 bf fb fb 2b be 85 e4 c2 3e 0f a7 6a 3e
       -0.62590796 -0.16795342 0.38064972 0.2291529
000330 d8 e3 ba 3e 24 93 94 be ac 0f 6d be 28 f9 51 3e
       0.36501956 -0.2901851 -0.2315051 0.20505202
000340 c6 de 32 bf c7 6b 97 3e 9a ce ee 3d 1c fe 86 3c
       -0.69871175 0.29574415 0.116605 0.01647859
000350 cc d1 aa 3d ef e7 d8 bd 99 d4 bb 3d 81 ed bc 3e
       0.08340797 -0.10591113 0.09171409 0.3689995
000360 de 48 b3 3d 53 cc 24 be 28 cd 28 3d 15 dc a5 3e
       0.08754133 -0.16093569 0.041211277 0.32394472
000370 a0 66 d9 bc b7 8d 83 bb a8 a2 08 bf b4 af 48 3e
       -0.026538193 -0.0040146965 -0.53373194 0.19598275
000380 98 d6 8e bd 27 30 6f 3d ee 69 71 be bc e5 80 be
       -0.06974524 0.05839553 -0.23575565 -0.25175273
000390 b5 23 28 3f 76 29 95 3d df 5c 8c 3e e6 8d af be
       0.65679485 0.07283299 0.27414605 -0.34287947
0003a0 4d 48 84 be 5c ba c0 bd 83 b4 03 bf 8f 06 9c 3e
       -0.2583641 -0.09410545 -0.51447314 0.30473754
0003b0 88 70 73 3e 14 4a 03 bf d6 95 f7 3d 76 9f 41 3e
       0.23773396 -0.5128491 0.12089126 0.18908486
0003c0 0c 46 b5 be 12 c5 98 3d 86 27 04 be b3 36 0f bf
       -0.35405004 0.07459463 -0.12905702 -0.5594284
0003d0 0b ec 53 bc 32 ca 27 bd 2c 2b fb 3d d9 91 87 3e
       -0.012934695 -0.040964313 0.12264094 0.2647846
0003e0 be c9 36 be 99 47 08 be 40 1b df 3e db 0a c0 be
       -0.17850396 -0.13308562 0.43575478 -0.37508282
0003f0 fa 26 e8 bd 05 6f f5 bd 97 12 bf 3e db 70 bb bd
       -0.11335559 -0.11984066 0.3731887 -0.09152385

bias f4 [64]
000000 1a 16 33 bd 0b 36 34 bc e7 49 93 3c 68 91 6a bc
       -0.04372225 -0.010999213 0.017979575 -0.014316894
000010 fe d7 7c 3d 9b ab 87 3c 08 bf 29 3c ce 2c 8b bd
       0.061729424 0.01656132 0.010360487 -0.06795655
000020 83 82 99 bc 3c 57 31 bc 1d 17 f2 bc 3f 91 71 3d
       -0.01873899 -0.010824021 -0.029552037 0.058976408
000030 6a 43 8f bd b0 d0 55 3d cf 8e d2 bb ca 81 bc 3d
       -0.0699528 0.052200973 -0.0064257155 0.09204443
000040 73 37 58 bd fc 3d b8 bc 68 83 01 bd 94 58 2e bd
       -0.052787255 -0.022490494 -0.03161946 -0.042564943
000050 36 d7 a5 3d e0 3b 9a 3c 40 77 1c 3c 00 9c ab bd
       0.08097689 0.018827379 0.009549916 -0.08379364
000060 c7 1a 69 3d f5 d5 9f bc 67 f5 97 3d 4b 6b 81 bd
       0.056910302 -0.019511202 0.07419854 -0.06319293
000070 2e 0f 96 bc de fe 32 3d ba d6 97 3d 8d 2e 4e 3c
       -0.018317785 0.04370009 0.07414003 0.012584341
000080 21 b3 a7 bd 2f df 17 bc 76 24 0d 3d a2 26 2c 3c
       -0.08188463 -0.00926952 0.0344586 0.010507258
000090 d4 c0 81 bd ea 99 71 bc 73 e4 8c 3c 4b 23 80 3d
       -0.06335607 -0.014746169 0.017198777 0.062567316
0000a0 35 ef 5f 3a e4 66 d7 3c 7f c6 d1 bb 85 49 c2 bc
       0.00085424195 0.02629418 -0.0064018364 -0.023716697
0000b0 cb cd 98 bd 55 f8 a0 bc e3 47 21 3d bb 0d 6c bd
       -0.07461127 -0.019649664 0.039375197 -0.057630282
0000c0 94 7c c2 3d 68 75 52 bd ed ed 78 bd 98 00 11 3c
       0.09496418 -0.0513815 -0.06077378 0.008850239
0000d0 64 13 a3 bc b4 3a 34 bd 51 b4 66 3b bf 61 b7 3d
       -0.019906707 -0.044001296 0.0035202692 0.089541905
0000e0 bc 46 80 3c e7 b2 48 bd 7b af 96 3d d6 0f 8c bd
       0.015658729 -0.04899874 0.07357689 -0.06838958
0000f0 1d b8 7b bc e4 a6 80 3c 3b a0 90 bc 56 07 87 bd
       -0.01536372 0.01570458 -0.017654529 -0.06593196

weight f4 [64, 214]
000000 ed 91 47 3e ae c5 04 be 9c 56 c4 3e e1 5c 20 3c
       0.1948926 -0.12966034 0.38347328 0.009787769
000010 99 0d 13 bd 28 9d 6a be 0e f9 b6 3b 7f 2f e0 3d
       -0.03590164 -0.22911513 0.005583889 0.10946559
000020 2d 32 fd 3c 6c df aa bd ab de 2b be f3 de f4 3c
       0.030907715 -0.083433956 -0.1678416 0.029891467
000030 81 0e ad 3d a6 e0 28 3b 79 6f f6 3d 5a ad 9c bd
       0.08450032 0.0025768667 0.120329805 -0.07650252
000040 85 ad 85 3b 4c de 2c bd 4b 10 a8 bd de 37 f4 bd
       0.004079523 -0.042204186 -0.08206233 -0.11924718
000050 14 63 64 be ed 5d ed 3c 11 55 ce 3d 8c 0e 95 be
       -0.2230342 0.028975451 0.10074819 -0.2911266
000060 3b c0 5b be 41 74 36 3d a6 28 2b 3d b6 10 10 be
       -0.21460049 0.044544462 0.041786812 -0.14068875
000070 0a 81 53 3c 64 14 18 3b 08 9f 09 be 08 70 90 3d
       0.012909183 0.0023205513 -0.13439572 0.07052618
000080 ae fc 58 bc 17 ba a5 bc 76 7f 26 3c 9e db 63 be
       -0.013243837 -0.020230336 0.010162225 -0.22251746
000090 26 11 fd ba c0 93 e0 3d 87 44 ca 3b 5e 50 5d be
       -0.0019307479 0.10965681 0.00617272 -0.21612689
0000a0 ae 05 57 3e f1 00 87 be 36 12 78 3d f5 38 0c 3e
       0.2099826 -0.26367906 0.060564242 0.13693602
0000b0 9b 89 79 be 4f f5 f8 bc 47 7d 21 be b2 86 0b 3e
       -0.24368899 -0.03039041 -0.15770446 0.13625601
0000c0 29 75 84 bd 32 cb 00 3e b0 d5 f6 bd 54 95 3e be
       -0.06467659 0.12577513 -0.120524764 -0.18611652
0000d0 af 96 36 bc ab 7a 24 3d 10 24 08 3d 12 22 0a be
       -0.011144324 0.040156048 0.033237517 -0.1348956
0000e0 a8 dd 7c 3c 96 2d f1 3c ae b7 1f 3e 9f de 48 bd
       0.015433706 0.029440682 0.15597412 -0.049040433
0000f0 c0 14 c4 bd 58 e8 38 3d 30 5d b1 bc 2f 3f 09 3d
       -0.0957427 0.045143455 -0.02165088 0.033507522
000100 ed b2 85 bd ed ab 36 3e 8e b1 87 3e 7d f3 92 3a
       -0.06528268 0.17839022 0.2650265 0.0011211481
000110 eb 04 39 3e 11 ca 7a bd bc 1f ef 3d 2f 37 19 3d
       0.18068282 -0.06122786 0.11675975 0.037406143
000120 e8 2c 03 be c9 29 de 3d 98 30 20 3d 8f a6 08 bd
       -0.12810099 0.10847814 0.039108843 -0.033361968
000130 02 8e 80 3d 84 70 69 3c 46 62 ba bc 8d ab 64 bd
       0.06277086 0.014248017 -0.022751939 -0.055827666
000140 5d 31 86 bc 50 f7 fc 3c 30 e9 fa 3d 77 b3 0e 3e
       -0.01638096 0.030879647 0.12251508 0.13935648
000150 41 4a a8 3d e4 91 17 3d 44 e1 a7 3e d6 4a c5 3c
       0.08217288 0.037004367 0.32789052 0.024083536
000160 ad cd 2f 3e 40 69 f7 3d 08 9e d2 bc c4 fb 28 bd
       0.17168303 0.12080622 -0.02571012 -0.041255727
000170 f6 29 70 3d d8 5b 4b 3c 7c 44 2f be 00 a6 6e be
       0.058633767 0.012412034 -0.17115968 -0.23305511
000180 4d b1 1d 3d ed a3 1c 3e 48 eb 85 bd a6 00 2e be
       0.038499165 0.15296908 -0.06539017 -0.16992435
000190 4e 0f aa bd f4 06 37 3e 54 d5 01 3e fc b9 ce bc
       -0.083037004 0.17873746 0.12679034 -0.025235169
0001a0 39 bd 81 be 41 e7 cf bd a8 ee 84 bd 4b ff ad bd
       -0.25339678 -0.1015153 -0.064908326 -0.08495959
0001b0 ee 1c f7 3d 95 26 03 be 8a 51 2a bd 9c 02 bf 3d
       0.12066065 -0.12807687 -0.041581668 0.093266696
0001c0 26 b8 2a 3e 08 25 c5 3d 6e d1 f0 bc 28 12 87 3b
       0.1667181 0.09626204 -0.029396739 0.0041220374
0001d0 e5 09 d5 bc 16 6d c1 3c 0d dc 82 be 85 e8 47 3d
       -0.026005695 0.023611587 -0.2555851 0.048805732
0001e0 e0 af 3c be 7c f9 8a 3d d9 be 7e 3c 6f d5 e5 3c
       -0.18426466 0.067858666 0.015548431 0.028055875
0001f0 2d ae ee bc 74 6f 3c 3e 6b d4 68 3d e9 3a 1d be
       -0.029135788 0.18401891 0.056843203 -0.15354504
000200 24 ad 61 bb f5 7c 26 be 1d 74 f4 3c 5e d2 9d 3e
       -0.0034435475 -0.16258605 0.029840523 0.3082456
000210 dc a6 02 3e 84 f6 1c be b6 b2 0f be 2e d9 89 bd
       0.12758964 -0.15328413 -0.14033017 -0.06730877
000220 72 dd d2 3d 41 df 1d 3e c3 e0 39 be 6c 95 85 bd
       0.102961436 0.15417196 -0.18152146 -0.065226406
000230 02 9e 67 bd 3f 1b d7 3d 99 78 b7 3d d4 6a 77 3b
       -0.056547172 0.10503244 0.08958549 0.0037752884
000240 5a 22 f2 3c fc b3 90 3d d7 bd a6 3d 06 04 f0 3d
       0.029557396 0.07065579 0.08141678 0.117195174
000250 5a cb 68 3b 57 7c 27 bd a0 7f 5c be 4b d4 87 3d
       0.0035521598 -0.040890064 -0.2153306 0.066322885
000260 c8 10 9c b8 05 b1 89 bd de f4 47 3e 09 88 44 bc
       -7.4417854e-05 -0.06723217 0.19527003 -0.011995324
000270 7d 38 92 3c 98 d2 ef 3d ae b3 b7 bd 78 7b 2c be
       0.017849201 0.117100894 -0.08969818 -0.16843975
000280 08 d1 dd 3b 53 2b f4 3d e9 40 b3 bd 4d 1d 11 bd
       0.006769303 0.11922326 -0.08752615 -0.035428334
000290 bd fa 9c be 27 30 cd 3d c8 ad 4b be 1a 12 f9 3a
       -0.30660048 0.1001895 -0.19890511 0.0019002587
0002a0 01 11 dd bd 92 94 be bd a0 c0 c4 3d 5d 07 71 3c
       -0.10794259 -0.09305681 0.09607053 0.014711228
0002b0 a5 ca 51 bd 6a d4 7d bd f3 37 cf 3d eb 52 a5 be
       -0.051218648 -0.061970152 0.10118093 -0.32289824
0002c0 04 54 7f bd d3 1e a5 bc 02 46 47 bc 8f 22 58 3d
       -0.062335983 -0.0201563 -0.012162687 0.052767333
0002d0 6a 35 85 bc 0f 18 31 3e 95 4c 51 3e a0 0d 23 3e
       -0.016260821 0.17294334 0.2043937 0.15923166
0002e0 55 d4 9d 3d 2a ef b0 3d a2 87 14 be cc 87 ae 3d
       0.07706515 0.08639367 -0.14504865 0.08521995
0002f0 2f c5 46 be c0 38 4e 3d 53 a9 88 bc 19 60 00 3e
       -0.19411157 0.05034709 -0.016682303 0.12536658
000300 d6 4b 6b 3e d2 5b b3 3d 11 12 87 3d f9 39 85 bd
       0.22978148 0.08757748 0.06595243 -0.06505198
000310 d0 99 88 bd aa d2 18 3d 7f a2 e6 3d 9b 5e 2b 3e
       -0.066699624 0.03731028 0.112614624 0.16735308
000320 96 a1 ff bd 2b 3c 0e 3e 32 f9 a5 bd c6 01 14 3d
       -0.12481992 0.1389014 -0.08104171 0.036134504
000330 d6 7c 1f 3d 38 12 70 bd db 15 e1 3d 8a b4 4f 3d
       0.038937412 -0.058611125 0.10990497 0.050709285
000340 f3 09 b5 bc 42 f5 8d 3e c8 02 2f bd e8 3a 90 bd
       -0.02209947 0.2772618 -0.04272726 -0.070424855
000350 7d 68 16 be 6f fd 57 be 44 63 32 3e f3 ea 3c be
       -0.14688297 -0.21092771 0.1742068 -0.18449001
000360 14 3d ee 3d bc af 83 3d 70 32 36 3d ae 40 7b bd
       0.116327435 0.06430003 0.044481695 -0.06134098
000370 69 3f 49 3b 3f 29 ae bd 41 9a 72 3c 7f 7e 4e be
       0.0030707961 -0.08503961 0.014807285 -0.20165442
000380 3c 19 b2 bd fe 80 bd bd e6 43 00 bc 61 46 85 3d
       -0.08696219 -0.09253119 -0.007828688 0.06507564
000390 df 4f 97 3d 4b 04 15 be 76 f4 5b 3e cc 53 04 3d
       0.07388281 -0.14552419 0.21479973 0.032306477
0003a0 7d cb a7 bd 3b 9c 6d 3d ba cf 82 3c fc d7 00 be
       -0.08193109 0.05801032 0.015968192 -0.12582392
0003b0 db b2 5f bd b4 bf 73 bd d6 4c 24 3e 3a 33 1b 3e
       -0.05461393 -0.059508994 0.16044936 0.1515626
0003c0 06 ff 13 3e 3c b4 9e 3d 03 80 7c bd 07 f6 45 bd
       0.14452752 0.07749221 -0.06164552 -0.048330333
0003d0 c5 79 85 be cc 6e 28 3d a4 9c d3 bd 0e e2 2f bd
       -0.26069465 0.04112129 -0.10332611 -0.042940192
0003e0 d6 35 fc 3d 92 e9 18 be 9b 2d 0b be fd 7b cc bd
       0.12314956 -0.1493285 -0.13591616 -0.099845864
0003f0 37 d1 99 3d 4a 8a 94 3d aa 46 80 bd b3 da 42 3d
       0.07510608 0.07252939 -0.06263478 0.04757185

bias f4 [64]
000000 b4 a3 73 3c ba 43 06 3d dc b6 09 3c fb d6 c7 bc
       0.014870573 0.032779433 0.0084054135 -0.024394503
000010 90 34 fe bb e0 eb 34 3c e2 1a 9b bc 30 34 05 be
       -0.007757731 0.011042565 -0.018933717 -0.13008189
000020 78 3f 9a bc 89 9f 87 3d be 20 1f 3d 66 e7 16 3e
       -0.018829092 0.06622226 0.038849585 0.14736709
000030 9c b4 43 3d 10 c3 85 3d f2 86 18 3c 3c f0 ce bc
       0.047779664 0.06531346 0.009309517 -0.025261037
000040 e6 34 b1 bd 92 05 07 bd 31 c9 f6 bd 4e 5e 05 3d
       -0.08652668 -0.032964297 -0.12050093 0.03256064
000050 97 ef cb bc 42 55 12 bd e3 97 7a bd f3 5c 37 3d
       -0.024894519 -0.03572584 -0.061180007 0.044766378
000060 08 94 8d 3c 20 f4 5c bd 61 9c 8d bc cc c3 a5 bd
       0.0172825 -0.053943753 -0.017286481 -0.08093986
000070 a0 06 29 bd 3f 6e 04 3b 25 c4 15 bd 10 56 18 3d
       -0.041266084 0.0020207313 -0.03656401 0.03719145
000080 4f 03 1f 3d 97 2f 4c bd 59 b9 52 bc 22 a8 b2 bd
       0.038821515 -0.049850073 -0.012861573 -0.08723475
000090 9e b4 95 3c e9 08 55 3d 58 fa 5b bd 1d fe 13 bd
       0.018274602 0.05201045 -0.053705543 -0.036131013
0000a0 7c 9e f1 3d f7 bc 3f bd ae 1b 43 3d 32 cf 8a bb
       0.117978066 -0.04681107 0.04763382 -0.0042361254
0000b0 3c b0 af 3d 7b f0 90 3d b0 bf 03 bc 34 88 d6 bc
       0.08578536 0.07077118 -0.008041307 -0.026187994
0000c0 82 1e 31 bd 8c af aa bc c9 0c 00 3c c1 74 84 3d
       -0.043241985 -0.02083566 0.007815548 0.064675815
0000d0 cb 90 49 3d ed 5c 40 3d a0 9e 0d 3d c6 80 b3 bc
       0.04921035 0.04696362 0.034575105 -0.02191199
0000e0 09 c5 29 3d 63 6c 82 bd 91 28 e3 3c f6 11 2a bc
       0.041447673 -0.063683294 0.027729305 -0.010380259
0000f0 cf 2d 19 bd bc b3 54 bc d5 05 87 3b 61 8d 00 bd
       -0.037397202 -0.012982305 0.0041205683 -0.03138483

weight f4 [150, 22]
000000 cd 20 c0 3d 78 78 8b bd 52 34 53 3d 85 43 27 3d
       0.09381256 -0.06810087 0.05156357 0.040835876
000010 2b d2 0d 3d af da 1e 3e 49 1e 0c be 9d 89 1e 3e
       0.03462426 0.15513109 -0.13683428 0.15482183
000020 f6 c6 93 bd 8a d6 a5 bd b6 a6 d9 ba 13 26 d8 3d
       -0.07215683 -0.08097561 -0.001660547 0.10554137
000030 19 94 de 3d 96 92 ef bd d3 f3 ad 3e d3 bc bd bd
       0.10868091 -0.11697881 0.33975086 -0.09264531
000040 67 7b 58 3e 41 75 b8 be cf 4c 85 3e 15 ea 41 be
       0.21140824 -0.36026958 0.26035163 -0.18936951
000050 47 d3 0d 3e d3 68 6f be 91 cb 81 3d 9f 81 ec bc
       0.13850127 -0.23379831 0.06337655 -0.028870402
000060 28 8d 89 bd 97 71 1e 3d 43 c9 a9 bc 0b b4 63 bd
       -0.067163765 0.038682546 -0.020725852 -0.055591624
000070 ba 0b 0d bd 02 9e 90 bc f5 ba 31 bd 72 9c 9e 3c
       -0.03443501 -0.017653469 -0.043391187 0.019361708
000080 e3 d8 4f bc fb c8 e2 3c e9 a9 cf 3d 54 c8 42 be
       -0.012685987 0.027683726 0.1013983 -0.19021732
000090 2f 56 a5 3c be 99 8d bc 22 34 e7 bc 0a d0 1d 3e
       0.020182697 -0.017285224 -0.028223101 0.15411392
0000a0 b9 6b 9d bd f4 71 a1 3d db a1 c9 3b ba 14 ea 3c
       -0.07686562 0.07883063 0.006153328 0.028574336
0000b0 bd 36 90 3d cb 71 13 3d 8a 9c b6 be 32 80 8d bd
       0.070416905 0.035997193 -0.35666305 -0.06909217
0000c0 8e d4 8f 3d 39 47 3f bb e0 8a a7 3d 21 f0 66 3c
       0.070229635 -0.002918674 0.08180785 0.014095337
0000d0 34 09 16 3e 16 1a a5 3c ae 1e fd 3b b7 ab 15 be
       0.14651948 0.02015404 0.0077246046 -0.14616285
0000e0 05 5e 2e 3d 60 73 1a 3e 53 79 a7 be 3e 4e a8 3d
       0.042570133 0.15083075 -0.3270975 0.082180485
0000f0 84 cb 76 3d 3d 80 2c bd 87 bf 03 be 3a 07 d0 be
       0.06025268 -0.042114485 -0.1286603 -0.40630513
000100 d7 40 ab bd a5 02 32 3e 18 13 a9 bd c5 fb de bc
       -0.083619766 0.17383821 -0.08255595 -0.027219662
000110 f3 a5 b2 bd 64 5f 78 bd cb c9 8d 3d 8d 27 12 bd
       -0.087230586 -0.060637847 0.069232546 -0.03568225
000120 f1 9e 14 3e ef 69 17 bd 21 38 27 bd 04 35 0c bd
       0.14513756 -0.03696626 -0.040825013 -0.034230247
000130 ec 8d ee 3c 96 77 de bd 5e 67 78 bd f8 83 12 3d
       0.029120408 -0.10862653 -0.060645454 0.035770386
000140 8d ab 21 be 6a cd ce bb 85 f3 0a be ff a0 c5 3d
       -0.15788098 -0.0063111084 -0.13569458 0.09649848
000150 bf ec d9 bc 9b 09 63 3d 65 6e 36 bd d4 4f 0b 3d
       -0.026602147 0.055429082 -0.044538874 0.034011677
000160 89 ea ec 3d 74 a1 72 3d 78 e7 d6 bd a3 03 11 bd
       0.115681715 0.059236005 -0.10493368 -0.03540386
000170 3a f0 18 bc 30 90 01 3c 21 31 47 be 75 d4 6a be
       -0.009334618 0.007907912 -0.19452335 -0.22932608
000180 6d 56 40 3d 6d 48 50 bd c8 ab c6 bc d7 52 f7 be
       0.046957422 -0.05085032 -0.024251834 -0.4830539
000190 0e 43 2b 3d 48 fa 72 3c 59 3d 2c bf ab c0 b0 be
       0.041811995 0.0148301795 -0.6728111 -0.34521994
0001a0 e3 c3 74 be 46 78 ff bd 05 f3 47 3d 32 b8 08 3d
       -0.2390285 -0.12474112 0.048815746 0.033378787
0001b0 79 a3 5a 3e 4e ef 15 be 8e 12 8a 3d c6 02 fc 3d
       0.21351422 -0.14642069 0.0674182 0.123052165
0001c0 66 6e 0a be 2e a8 89 3d c9 87 f7 bb 18 0c d0 3a
       -0.13518676 0.06721531 -0.0075540286 0.0015872745
0001d0 9a 7d a2 bd 88 9a f7 bd fb 72 01 3e 93 3d 85 bc
       -0.07934113 -0.12090021 0.12641518 -0.016264712
0001e0 02 b1 b2 ba 9c 96 d0 bc 8c be 2c 3e 51 1e 11 3e
       -0.0013633075 -0.025462441 0.16869563 0.14171721
0001f0 ff c3 bb bd d7 91 d8 bd 9d 09 99 3d a0 c9 c9 bd
       -0.09168243 -0.10574692 0.07472537 -0.0985291
000200 07 d8 0b 3c 42 4f cb bc d2 c1 3e 3d d4 10 47 bd
       0.008535392 -0.024818067 0.04657156 -0.048600033
000210 85 5c fa 3c 93 bf 17 3c 16 49 8b 3e 7d 04 c3 3d
       0.030561695 0.009261983 0.27204198 0.095223404
000220 5d ae 81 3d ac e1 3d 3d 19 e3 8b 3d ff 42 7e 3d
       0.06332085 0.046357796 0.06830425 0.06207561
000230 f6 04 ba 3d 6b 0b 74 3d b4 a1 44 3d 34 4a 45 3e
       0.090829775 0.0595812 0.048005775 0.19266587
000240 98 e9 78 3c 6b 54 a2 bd bc 37 8d 3e 37 65 ab bd
       0.015192412 -0.07926258 0.27581584 -0.083689146
000250 b9 d7 68 bd 46 a4 c9 bd d2 4f f1 3d e5 3c a8 bd
       -0.056846354 -0.09845786 0.11782803 -0.0821474
000260 fa ff ed 3d e9 64 bf bd c9 bd 8d 3d 6d 28 a9 3d
       0.11621089 -0.09345419 0.06920964 0.08259664
000270 26 a1 b4 bd 2f bb 43 bc a9 54 a2 bb 85 fd 02 3d
       -0.08819799 -0.0119464835 -0.00495394 0.031980056
000280 b6 57 02 be b1 b2 a1 3c 2c c5 c8 3d 2d ee 07 3d
       -0.12728772 0.019738527 0.098032326 0.033186127
000290 64 6a 74 bc d2 15 3b 3d 1c 19 8e 3d fb b4 a0 3d
       -0.014917944 0.045675106 0.06938383 0.07847019
0002a0 c4 2c 0d be 8d ff 80 bd 6b 67 a4 3d 12 1c 3c be
       -0.13786608 -0.062987424 0.08027538 -0.18370083
0002b0 1a 92 39 3d 4b a5 3b bd b2 fd c6 3d b4 c4 ff bb
       0.04530535 -0.045811933 0.09716357 -0.0078054313
0002c0 7e 50 84 3d 68 d1 0e bd eb 85 db bd 8a b0 54 bc
       0.06460665 -0.034867674 -0.10718902 -0.012981543
0002d0 5e 79 ae bc 2d 95 80 bd c9 07 9b bd bf ef 16 be
       -0.021298107 -0.06278453 -0.07569844 -0.14739893
0002e0 ff 49 82 bc 08 e4 3c 3c a8 16 2f bc 9c d0 a1 be
       -0.015904425 0.011528976 -0.010686554 -0.3160447
0002f0 98 a9 24 bd 79 59 a7 bd dc 73 b7 be bd 39 7e bd
       -0.0402008 -0.081713624 -0.3583058 -0.062066782
000300 86 fc 80 be 4d c6 bf bd 64 29 9b be 9d 8b 3a 3d
       -0.2519266 -0.09363995 -0.30305016 0.0455433
000310 1c 9a 87 3d 4a 44 b2 3c f9 36 6a 3e 25 e0 04 bc
       0.06621191 0.021761078 0.22872533 -0.008110081
000320 39 90 ae bc b7 6d e4 bb 0f a0 9c 3d e2 38 68 3d
       -0.021309005 -0.006971087 0.07647716 0.056694873
000330 1d 48 c5 bd c8 f9 ed 3d 12 eb e7 3d 50 02 72 bd
       -0.09632895 0.116199076 0.11324133 -0.059084237
000340 ae c6 09 bd 6b 32 87 3e ce c9 47 3e 56 ac 9c 3d
       -0.03363674 0.26405653 0.19510576 0.07650058
000350 f2 f1 a9 3e e3 cf 12 be 74 5b 85 bd 95 66 f0 bd
       0.33192402 -0.14337115 -0.06511584 -0.11738316
000360 86 c6 02 3d e0 05 43 be 50 f7 3a 3e 62 78 b6 bd
       0.031927608 -0.1904521 0.18258405 -0.0890968
000370 9c dd 6d 3d 3b 47 a8 bd b4 28 d8 bd 90 7f a2 3c
       0.05807267 -0.08216711 -0.105546385 0.019836217
000380 dc 28 82 bd c3 9f f0 bb 83 3d 16 bd 3f 15 1d 3b
       -0.063554496 -0.007343264 -0.036679756 0.0023968962
000390 90 f2 18 bc b8 0a 43 3d 01 9e cd bc 95 27 8c be
       -0.009335175 0.047617644 -0.025099756 -0.2737395
0003a0 f0 89 96 bc e7 5c ab 3b 45 93 06 bd c4 ed 21 3d
       -0.01837632 0.0052295807 -0.03285529 0.03953339
0003b0 38 9b 1a 3d d7 a8 49 3a 6a 0c 25 bd 97 83 40 3c
       0.037745684 0.00076927006 -0.040295042 0.011750123
0003c0 80 25 1b 3d ea 78 fd 3c 37 2c cf 3d b1 64 cd 3c
       0.03787756 0.030941445 0.10115855 0.025072427
0003d0 d0 58 02 be 27 09 b4 3d 44 23 55 bd f8 69 7d 3d
       -0.12729192 0.08790808 -0.052035585 0.061868638
0003e0 ef 8c d0 bd e6 35 fc bd 62 d4 45 bd 44 2e e7 3c
       -0.10183131 -0.12314968 -0.048298247 0.028220303
0003f0 a2 8d 3d 3c 24 42 86 bd 48 58 b5 3d 13 d0 28 be
       0.011569412 -0.06555584 0.08854729 -0.16485624
