examples/rl/experiments_from_paper/experiments_data/trained_models/TiltrotorPlus8DofHoverEnv/ConventionalTiltrotorPlus8DofHoverEnv-0/ppo/TiltrotorPlus8DofHoverEnv-v0.pt (torch, 279745 bytes, 16 tensors)

weight f4 [150, 18]
0	0xbd1172c7	-0.03550985
1	0x3e51b9ec	0.2048108
2	0x3d38a237	0.045076575
3	0x3c9d0c03	0.019170767
4	0xbd01be2f	-0.031675514
5	0x3d4a7d05	0.049435634
6	0xbc9955aa	-0.018717606
7	0xbd87c272	-0.066288844
8	0x3dc38e14	0.095485836
9	0x3da18269	0.07886202
10	0xbdd00907	-0.10157972
11	0xbe553c3a	-0.20823756
12	0x3d61b32f	0.055102523
13	0x3df6f013	0.12057509
14	0xbeeaa40f	-0.45828292
15	0x3ba6f2cd	0.005094862
16	0xbc52e913	-0.012872952
17	0xbb1c40ee	-0.0023842412
18	0x3d9b756e	0.07590757
19	0xbe31031a	-0.1728634
20	0xbbf2f730	-0.007414721
21	0xbdba4784	-0.09095672
22	0xbd6362e0	-0.055514216
23	0xbc06109b	-0.00818267
24	0x3eac97f1	0.33709672
25	0x3da9ec8a	0.08297069
26	0xbe4e20ea	-0.20129743
27	0x3e497bc7	0.19676124
28	0x3d43903d	0.04774498
29	0x3d350ce6	0.044201754
30	0x3e2bb923	0.16769843
31	0xbdecc31d	-0.115606524
32	0x3d877e8b	0.06615933
33	0xbe1893d4	-0.14900142
34	0xbc269133	-0.010166454
35	0x3e139cee	0.14415333
36	0x3e2eced4	0.17071086
37	0xbd8176f3	-0.06321516
38	0xbd0d3a5b	-0.03447948
39	0xbc88711a	-0.016655494
40	0x3e14c086	0.14526567
41	0x3da9c5dd	0.082896926
42	0xbc4b6a57	-0.01241549
43	0xbb6f5c64	-0.0036523575
44	0x3d38fc98	0.045162767
45	0xbd0a49d7	-0.033761825
46	0xbd6a6148	-0.05722168
47	0xbc1f8f25	-0.009738718
48	0xbe08ead2	-0.13370827
49	0xbdd7dfaa	-0.105407074
50	0xbc276f0e	-0.010219349
51	0xbdd5361c	-0.10410711
52	0x3dfe0b14	0.12404457
53	0xbbf09637	-0.0073421258
54	0x3d0d8180	0.03454733
55	0x3d5f6f6e	0.054549627
56	0x3d10c0cf	0.035340127
57	0x3cabb967	0.02096243
58	0xbd389444	-0.045063272
59	0x3c261a37	0.010138086
60	0xbdaebe4f	-0.08532392
61	0xbdb91834	-0.090378195
62	0xbcd96452	-0.026537094
63	0xbe388a1f	-0.18021439
64	0x3d0bfc2b	0.034176033
65	0xbe9c1980	-0.30488205
66	0x3e036ad9	0.12833728
67	0xbd181cf3	-0.037136983
68	0x3e9543f0	0.29153395
69	0xbd0acd58	-0.033887237
70	0xbe8365a3	-0.2566348
71	0xbdc00b44	-0.09377149
72	0xbe0e6ddc	-0.13909096
73	0xbdb09c78	-0.08623594
74	0xbe945336	-0.28969735
75	0x3d917b53	0.071036
76	0xbe2dfd9a	-0.16991273
77	0xbd7c2e0e	-0.06156736
78	0x3e08669d	0.13320394
79	0x3e54c713	0.20779066
80	0xbe8065a3	-0.25077543
81	0x3e2d1280	0.16901588
82	0x3da6651c	0.08124754
83	0x3c223918	0.0099013075
84	0x3cca73b5	0.024713377
85	0xbe20e34b	-0.15711705
86	0xbd22dcfc	-0.03976153
87	0x3d8c65c6	0.06855349
88	0xbe349803	-0.17636113
89	0x3cb8fd2a	0.022581656
90	0x3e6399a5	0.2222658
91	0x3dd9ae08	0.10628897
92	0xbede7b02	-0.43453223
93	0x3d380ac7	0.044932153
94	0xbc774cf9	-0.015094035
95	0xbdf93cba	-0.12169786
96	0x3bafc233	0.0053637265
97	0xbca75ea3	-0.020430868
98	0x3d85e5b6	0.065379545
99	0xbd4c3b47	-0.04986122
100	0x3d4ce23c	0.05002044
101	0xbd08a523	-0.03336061
102	0x3e05ffd6	0.13085875
103	0x3ce9bef5	0.028533438
104	0x3e19c2e5	0.15015753
105	0xbe39c902	-0.18143085
106	0x3e32ce2d	0.17461462
107	0xbc431697	-0.011907241
108	0xbe00d4fb	-0.12581246
109	0x3e42b77c	0.19015306
110	0x3e243cde	0.16038844
111	0xbe520702	-0.20510486
112	0xbe652bd8	-0.22380006
113	0xbdec7a0f	-0.11546718
114	0x3caaf036	0.020866495
115	0x3e1c4edf	0.15264462
116	0x3d15cc90	0.03657204
117	0xbdfda2fd	-0.12384603
118	0xbd0fffe6	-0.035156153
119	0x3d8355ea	0.06412871
120	0x3ddf99f0	0.10918033
121	0x3e5245c2	0.20534423
122	0xbe059e39	-0.13048638
123	0xbe01dc25	-0.12681635
124	0x3ba81d08	0.005130414
125	0x3e1ee5d4	0.1551736
126	0x3e369489	0.17830099
127	0xbc5a9bc9	-0.013342806
128	0x3e5d8b28	0.21635115
129	0xbd91a54a	-0.071116045
130	0x3dbd0549	0.09229524
131	0x3e6b1860	0.22958517
132	0x3e378329	0.17921127
133	0xbd9fdb5e	-0.07805513
134	0xbe06d399	-0.13166656
135	0xbe9b1a45	-0.3029348
136	0xbd9bd0e3	-0.07608201
137	0x3e7c26fe	0.2462425
138	0x3d6e66c9	0.058203492
139	0x3e7ba5e9	0.24575008
140	0x3c4e1a4d	0.012579513
141	0xbdad73a9	-0.08469326
142	0x3d89cfaa	0.06729062
143	0x3d85da82	0.06535818
144	0xbd71454b	-0.058903974
145	0xbdeb3575	-0.114848055
146	0x3e01bf76	0.12670693
147	0xbcdc51c3	-0.026894456
148	0x3d8088b2	0.062760726
149	0xbd8ae7a4	-0.06782463
150	0xbe25b36a	-0.16181722
151	0x3e18773e	0.14889237
152	0xbdb05ccf	-0.08611452
153	0xbdadb72e	-0.084822044
154	0x3d90587f	0.07048129
155	0xbe647aea	-0.22312513
156	0xbe39d157	-0.18146263
157	0xbd865483	-0.06559088
158	0x3e54fa19	0.2079853
159	0xbd06a179	-0.032868836
160	0x3e2a7f62	0.16650155
161	0xbe49a2d4	-0.1969102
162	0xbb6fa219	-0.0036565124
163	0x3e29080e	0.16506979
164	0x3cc0989d	0.023510272
165	0xbe3b096b	-0.18265311
166	0x3d91a099	0.0711071
167	0xbdc123c2	-0.094306484
168	0x3df5566e	0.11979376
169	0xbe269531	-0.1626785
170	0x3e43beff	0.19115828
171	0xbe16fc8b	-0.14744775
172	0xbe797102	-0.24359515
173	0x391b4501	0.00014807658
174	0xbe7def87	-0.24798404
175	0xbe2e50c3	-0.17022996
176	0x3cc30609	0.023806589
177	0xbe06b702	-0.1315575
178	0xbdcc872f	-0.09986722
179	0x3d17b2e0	0.037035823
180	0x3ddeaf3e	0.108732685
181	0xbd7db2e9	-0.0619382
182	0xbb1fc769	-0.0024380332
183	0xbd06b494	-0.032887056
184	0x3dcd3502	0.10019876
185	0x3e46b2e9	0.19404186
186	0x3e9ce4eb	0.306434
187	0xbe124d3c	-0.14287275
188	0xbdd399d4	-0.10332075
189	0x3d0d2cc0	0.034466505
190	0x3dda8c67	0.10671311
191	0x3df3091e	0.11866973
192	0x3c887d25	0.016661236
193	0x3decb7b7	0.11558478
194	0x3d749451	0.059711758
195	0x3dd98f37	0.10623019
196	0x3ce232fe	0.027612206
197	0x3e47adca	0.19499889
198	0xbe9c1f47	-0.30492613
199	0xbe192a07	-0.14957438
200	0xbe6241b6	-0.22095379
201	0x3e824287	0.2544138
202	0xbcf2effe	-0.029655453
203	0x3bde93b9	0.0067925123
204	0x3df10213	0.11767974
205	0x3d60400e	0.054748587
206	0xbd973fd9	-0.07385225
207	0xbdbc4ab5	-0.09193937
208	0xbd0db1ba	-0.03459332
209	0xbdc64462	-0.09681012
210	0xbdfe0bac	-0.1240457
211	0xbe22dbae	-0.15904114
212	0xbd85790c	-0.065172285
213	0x3d7cf84c	0.06176023
214	0x3e2e6243	0.17029671
215	0x3e55ccb7	0.20878874
216	0xbdf94a0c	-0.121723264
217	0x3ee327e5	0.44366375
218	0x3dc96c6c	0.09835133
219	0xbe10cc52	-0.14140442
220	0x3da386f2	0.07984723
221	0x3e1a4146	0.15063962
222	0x3d1c7177	0.038194146
223	0xbd5e7d0e	-0.05431848
224	0x3d0abf3f	0.033873793
225	0xbb1ce4fd	-0.0023940199
226	0xbd87e7ca	-0.06636007
227	0x3e091b04	0.13389212
228	0x3e801b13	0.25020656
229	0xbe65c934	-0.22440034
230	0x3c56040d	0.013062489
231	0x3b534543	0.0032237328
232	0x3c329606	0.010900026
233	0x3e4224f4	0.18959409
234	0x3e5a662d	0.2132804
235	0xbe47b3bc	-0.19502157
236	0xbd31b79f	-0.043388005
237	0x3d78794d	0.060662556
238	0xbc11f873	-0.008909333
239	0xbe1e6ee4	-0.15471989
240	0x3d9566ab	0.07294973
241	0x3d9a15e0	0.075237036
242	0xbe566d9a	-0.20940247
243	0xbde9f5fc	-0.11423871
244	0x3d713b36	0.05889436
245	0x3eb68fb0	0.356565
246	0x3e0e4a4e	0.13895532
247	0x3ddc9d3b	0.10772177
248	0xbd9eb019	-0.07748432
249	0x3cb51330	0.022103876
250	0xbe8bc3db	-0.27297863
251	0xbd68e740	-0.056861162
252	0xbd28f529	-0.041249428
253	0xbdd1259c	-0.102122515
254	0xbd54be3a	-0.051939227
255	0x3cb75675	0.022380093

bias f4 [150]
0	0xbc082106	-0.008308655
1	0x3e2eca46	0.17069349
2	0xbd315d24	-0.043301716
3	0x3cbf5491	0.023355754
4	0x3e0b20a7	0.13586675
5	0x3d53e7f0	0.051734865
6	0xbd82d5a1	-0.06388403
7	0x3c3f6033	0.0116806505
8	0xbd9915b2	-0.07474841
9	0xbce6dd4c	-0.028181694
10	0xbe1118fd	-0.14169689
11	0x3d9c0abd	0.07619236
12	0xbd001e96	-0.03127917
13	0xbbdd7714	-0.00675858
14	0x3d50144d	0.05080061
15	0x3cd08f2b	0.025458893
16	0xbd940bcc	-0.072288126
17	0xbd569777	-0.052390542
18	0xbceb41a2	-0.02871782
19	0xbd28973b	-0.04115985
20	0x3e0de5ee	0.13857242
21	0xbc044687	-0.008073456
22	0xbe19fef2	-0.1503866
23	0x3d924a67	0.07143097
24	0xbe3ff4b5	-0.18745692
25	0x3d20c7b0	0.039252937
26	0xbd7f4a8e	-0.06232696
27	0xbd50b124	-0.050950184
28	0xbd2105ed	-0.039312292
29	0xbcf16c54	-0.0294706
30	0x3daf779e	0.08567737
31	0x3dc18263	0.094486974
32	0xbc76b470	-0.015057668
33	0x3c43c645	0.011949127
34	0x3e26366a	0.16231695
35	0x3cac68e6	0.021046113
36	0x3d92e4ad	0.07172523
37	0xbd25579f	-0.040366765
38	0xbde33b25	-0.11095265
39	0x3d8603d8	0.06543702
40	0xbb0fdacf	-0.0021950488
41	0xbde85143	-0.113436244
42	0xbd86bf59	-0.065794654
43	0x3d2c9aaf	0.042139705
44	0xbdd13e3b	-0.10216948
45	0x3d3d7f02	0.046263702
46	0xbd278905	-0.040902156
47	0x3d7617e3	0.060081374
48	0xbc284240	-0.0102697015
49	0x3d69f215	0.057115633
50	0xbe14812f	-0.14502405
51	0xbe037b62	-0.12840036
52	0xbd8deb10	-0.069296
53	0x3bcdfc8d	0.00628621
54	0x3db836bd	0.089948155
55	0x3e0cafe6	0.13738975
56	0xbdc63ada	-0.09679194
57	0x3d9947ca	0.07484396
58	0x3d98f3d5	0.07468382
59	0xbd64ac78	-0.05582854
60	0xbd32be70	-0.043638647
61	0x3d43205f	0.047638293
62	0xbe2bf16f	-0.16791318
63	0xbc99127d	-0.018685574
64	0xbcf34d3b	-0.029699912
65	0xbca6b9e7	-0.020352317
66	0x3d6b0afa	0.057383515
67	0xbc31973c	-0.01083928
68	0xbb85d22f	-0.0040838937
69	0xbdf94518	-0.12171382
70	0xbd652df4	-0.055952027
71	0x3db5e7d7	0.088821106
72	0xbdb9d5fb	-0.09074017
73	0x3e12ef61	0.14349128
74	0xbd4aa11f	-0.049470063
75	0xbc151c0e	-0.009100927
76	0x3dd985f1	0.106212504
77	0xbd15cf94	-0.036574915
78	0x3d89a869	0.06721575
79	0x3dd71cf1	0.10503567
80	0xbcf512ee	-0.029916253
81	0x3e51444c	0.2043621
82	0x3e1dd05a	0.15411511
83	0x3c9e6b16	0.019338172
84	0x3cc0be7e	0.023528334
85	0xbbb26cb2	-0.0054450864
86	0x3d6f5453	0.058430027
87	0xbcdd47fb	-0.027011862
88	0x3e859550	0.2609048
89	0xbe194431	-0.14967419
90	0xbdfbcea8	-0.12295276
91	0x3da640b8	0.08117813
92	0xbe25cf65	-0.16192396
93	0xbcf47ba8	-0.02984412
94	0xbd6bf56f	-0.05760711
95	0xbb9d1fd1	-0.0047950526
96	0xbcc25f5d	-0.023727113
97	0xbd0219ae	-0.03176277
98	0xbc588db7	-0.013217381
99	0x3cf6270f	0.030047921
100	0xbd32888a	-0.043587245
101	0x3b64cd2b	0.0034912329
102	0x3d2d456f	0.042302545
103	0x3c99847d	0.018739933
104	0xbd6e35b5	-0.058156688
105	0xbdcc0a81	-0.09962941
106	0xbd6b4905	-0.057442684
107	0xbe1cd6c8	-0.15316308
108	0xbe7f6c1f	-0.24943589
109	0x3c2ddd84	0.0106118955
110	0xbca98b92	-0.020696435
111	0x3d3df779	0.046378586
112	0xbd6ee326	-0.058322094
113	0xbe513512	-0.20430401
114	0xbc277822	-0.010221513
115	0x3d79cb69	0.060985003
116	0xbcf476fe	-0.029841896
117	0xbd7a36a2	-0.06108726
118	0x3d8117e9	0.063033886
119	0x3b80d8e1	0.003932104
120	0x3bc8c532	0.006127023
121	0x3c60113f	0.013675987
122	0xbde59fdc	-0.112121314
123	0x3d877926	0.06614904
124	0x3b818d95	0.0039536455
125	0x3df7d8c4	0.12101892
126	0x3db6c2e1	0.08923889
127	0xbdbdcf69	-0.09268076
128	0x3d9b131e	0.07572006
129	0x3b90a3b0	0.0044140443
130	0x3dea664c	0.11445293
131	0x3d0e936b	0.034808557
132	0xbcfff4d3	-0.031244671
133	0x3e6530f3	0.22381954
134	0x3df86f4e	0.12130605
135	0x3e09b6c3	0.13448624
136	0xbbe3f46f	-0.006956629
137	0xbe18e026	-0.14929256
138	0xbdbbf8ef	-0.0917834
139	0xbd4457b1	-0.04793519
140	0xbe0249e4	-0.127235
141	0xbd0a2dfb	-0.033735257
142	0xbe042617	-0.12905155
143	0x3c9a1e91	0.018813403
144	0xbba6be4f	-0.0050886045
145	0x3dc6da69	0.09709627
146	0x3ee3ca62	0.44490343
147	0xbd17dd79	-0.037076447
148	0x3d0fc931	0.03510398
149	0xbdcff58b	-0.101542555

weight f4 [150, 150]
0	0x3e119db9	0.14220323
1	0x3d209a67	0.03920975
2	0x3d5ad4f8	0.05342576
3	0xbc5a7bad	-0.013335151
4	0x3e1aa498	0.1510185
5	0x3d639ee9	0.05557147
6	0x3bfe6511	0.007763513
7	0x3d8b4ed2	0.06802143
8	0xbdbe82f6	-0.093023226
9	0x3c004dba	0.007831031
10	0xbe4dbcd3	-0.20091562
11	0x3dd77a66	0.105213925
12	0xbe22d404	-0.1590119
13	0x3e1db5ce	0.15401384
14	0x3e1df920	0.15427065
15	0xbd45f970	-0.048333585
16	0xbe240035	-0.16015704
17	0xbdf3a0bb	-0.11895891
18	0xbc29e5e0	-0.010369748
19	0x3c98ae4f	0.018637804
20	0x3d7b4449	0.06134442
21	0x3e24bb08	0.16086972
22	0xbd6ebc6d	-0.058285166
23	0xbde2dc7f	-0.110772125
24	0xba86fc83	-0.0010298643
25	0xbe133a3f	-0.14377688
26	0x3d850dab	0.064967476
27	0xbe0ea2b2	-0.13929251
28	0xbeef228e	-0.4670605
29	0x3d175f1f	0.03695595
30	0xbe582ff8	-0.21112049
31	0x3ec1e8e1	0.37872985
32	0x3e1b4fc8	0.15167153
33	0xbdf14949	-0.11781556
34	0xbdfbbb2c	-0.122915596
35	0x3c67658d	0.014123333
36	0xbe45e2a9	-0.19324745
37	0x3e213ab1	0.15745045
38	0x3daf2e81	0.08553792
39	0x3e38a49f	0.18031548
40	0x3cf054e6	0.029337358
41	0xbe3c21a1	-0.18372203
42	0x3d226000	0.039642334
43	0xbe37f118	-0.17963064
44	0x3e032b58	0.12809503
45	0x3cd37d3d	0.025816554
46	0x3d60a494	0.054844454
47	0x3dfd2431	0.123604186
48	0xbd90716f	-0.07052886
49	0xbe0d607c	-0.13806337
50	0x3d350085	0.04418995
51	0x3c318660	0.01083526
52	0xbe4b6629	-0.1986319
53	0x3dc9170d	0.0981885
54	0xbdf632aa	-0.12021382
55	0xbe451975	-0.19247992
56	0xbc2437c2	-0.010023059
57	0x3dbc0b0e	0.09181796
58	0xbe79099d	-0.24320073
59	0x3e2770ef	0.16351674
60	0x3d92b995	0.07164303
61	0xbdacfb54	-0.084463745
62	0x3d83ca86	0.06435113
63	0x3de396e5	0.11112765
64	0xbdf475fe	-0.11936568
65	0xbd0ee58e	-0.03488689
66	0xbd9f3ca3	-0.077752374
67	0xbe88b80d	-0.2670292
68	0xbe15759e	-0.14595649
69	0xbea735e6	-0.3265831
70	0xbe911ba2	-0.28341395
71	0x3d9fef42	0.07809307
72	0xbd1a1b52	-0.03762371
73	0xbc406bb7	-0.011744431
74	0xbdfc4cef	-0.123193614
75	0x3ec22708	0.37920403
76	0x3dd782f1	0.10523022
77	0x3d86fc7c	0.06591126
78	0x3e8c23a1	0.27370933
79	0x3cb97c86	0.022642385
80	0xbd601b03	-0.05471326
81	0xbd3ea1a5	-0.046540875
82	0xbe19dfd8	-0.15026796
83	0x3d7a6e95	0.061140615
84	0xbd94ef2b	-0.0727218
85	0xbe13823b	-0.14405148
86	0xbe06e126	-0.13171825
87	0x3c8bd4f5	0.01706932
88	0xbd63a973	-0.05558152
89	0xbd6eec9f	-0.05833113
90	0xbd012d46	-0.031537317
91	0x3e4bcdc0	0.19902706
92	0xbe82b9b5	-0.25532308
93	0xbdb67e91	-0.089108594
94	0xbdcacde2	-0.0990255
95	0x3d9da4e8	0.07697469
96	0x3db8e07a	0.090271905
97	0x3ce03036	0.027366739
98	0xbd85915e	-0.06521867
99	0xbd88a466	-0.066719815
100	0x3e1afe63	0.15136103
101	0x3d81d181	0.06338788
102	0x3ec647ed	0.3872675
103	0x3ced3834	0.028957464
104	0x3d35c304	0.044375435
105	0xbe0a6c92	-0.13517979
106	0x3cb236d1	0.021754654
107	0x3d117fda	0.03552232
108	0xbddf48c2	-0.10902549
109	0x3dd838ac	0.10557684
110	0x3ce52109	0.027969854
111	0xbc24f800	-0.010068893
112	0xbd292d18	-0.04130277
113	0x3e4e5213	0.20148496
114	0x3da5b17b	0.08090492
115	0x3dadd444	0.08487752
116	0xbc1fefa2	-0.009761723
117	0x3d2a2730	0.04154128
118	0x3dc98dcc	0.09841499
119	0x3da5b9d1	0.08092082
120	0x3b898a1d	0.0041973726
121	0x3e4e9397	0.20173489
122	0xbdc12b03	-0.09432032
123	0xbddead64	-0.108729154
124	0x3ded73a5	0.11594323
125	0x3dacfb21	0.084463365
126	0x3e527b21	0.20554782
127	0x3caffca7	0.021482779
128	0x3e65de5f	0.22448109
129	0xbd51d128	-0.051224858
130	0x3dcbd8f2	0.099534884
131	0xbd435380	-0.047687054
132	0xbe01f7f3	-0.12692241
133	0xbdf7a4b9	-0.12091965
134	0x3e3cd016	0.18438753
135	0x3e4306e2	0.19045594
136	0xbcf24784	-0.029575117
137	0x3a03bc66	0.0005025327
138	0xbd914d4b	-0.070948206
139	0x3dfa1dbd	0.122127034
140	0xbbe44b30	-0.006966971
141	0x3d9f7882	0.07786657
142	0xbe0bf110	-0.13666177
143	0xbe058aa6	-0.13041171
144	0xbe8b447d	-0.2720069
145	0x3d39db26	0.04537501
146	0xbcaa7389	-0.020807045
147	0x3d7496e5	0.059714217
148	0x3dba4802	0.09095766
149	0xbe069836	-0.13144001
150	0xbd9e1083	-0.07717993
151	0xbde59e8c	-0.11211881
152	0xbe1f6c7a	-0.15568724
153	0x3d262b15	0.04056843
154	0xbd050b38	-0.032481402
155	0xbe756418	-0.23963964
156	0x3d605ea9	0.054777775
157	0xbe17a832	-0.14810255
158	0xbae4f148	-0.0017466927
159	0xbb9bf575	-0.0047594854
160	0xbd21cbe2	-0.03950108
161	0x3d513561	0.051076297
162	0x3e51bab1	0.20481373
163	0xbe1331c8	-0.14374459
164	0x3d83afa8	0.06429988
165	0xbd9c6f0f	-0.0763837
166	0xbdbb0b33	-0.091329955
167	0x3e35c844	0.17752177
168	0xbd8070df	-0.062715285
169	0xbda4ad56	-0.08040874
170	0x3e115591	0.14192797
171	0xbd9890eb	-0.07449516
172	0xbda869b4	-0.08223286
173	0xbe852b87	-0.2600977
174	0x3e8cbef7	0.27489445
175	0xbdf93513	-0.12168326
176	0x3deca5af	0.11555039
177	0x3dd36aac	0.103230804
178	0xbe854f4f	-0.2603707
179	0xbeace0b6	-0.3376519
180	0xbdb2c155	-0.087282814
181	0x3dc4de07	0.09612661
182	0x3e435285	0.19074447
183	0x3dc8f596	0.09812467
184	0x3ccd6841	0.025074126
185	0xbd880005	-0.06640629
186	0xbd602d80	-0.054730892
187	0x3e0d3193	0.13788442
188	0x3cdd1a80	0.026990175
189	0x3e0a45b3	0.1350315
190	0xbd0762da	-0.033053257
191	0xbe3b3ea8	-0.1828562
192	0xbbf0e12d	-0.007351062
193	0xbe459a2d	-0.19297095
194	0x3dc31516	0.09525506
195	0xbe0c97cb	-0.1372978
196	0x3debf922	0.11522128
197	0x3bd1e59a	0.0064055445
198	0xbcf1a728	-0.029498652
199	0x3d97e977	0.07417577
200	0x3dd7a78e	0.105300054
201	0xbdb9d1cd	-0.090732194
202	0xbe62c2d6	-0.22144637
203	0xbe449abf	-0.19199656
204	0xbc988b39	-0.018621074
205	0xbe2bf89c	-0.16794056
206	0xbde0603f	-0.109558575
207	0x3da9346e	0.08261953
208	0xbddae9bc	-0.106891125
209	0xbe5fe750	-0.21865582
210	0xbe1eb986	-0.15500459
211	0xbd75e291	-0.060030524
212	0xbcdfc2a8	-0.027314499
213	0x3c809b37	0.015699012
214	0x3dbac8a5	0.09120301
215	0xbe190fe0	-0.14947462
216	0xbe135ac5	-0.14390095
217	0xbc8aeb08	-0.016957775
218	0x3db088b8	0.08619827
219	0xbdfaaa51	-0.122395165
220	0x3e2b4647	0.16726027
221	0x3ce2dff8	0.027694687
222	0xbdcf3ee4	-0.10119417
223	0xbd957315	-0.07297341
224	0x3d3fad54	0.046796158
225	0x3e8aa3e8	0.27078176
226	0xbccd8030	-0.025085539
227	0x3cf70482	0.030153517
228	0x3c24e572	0.01006447
229	0xbd23c7fc	-0.03998564
230	0xbe2c9aba	-0.16855898
231	0x3dafa041	0.08575488
232	0x3bed7650	0.00724677
233	0xba2b28f8	-0.0006529237
234	0xbe3e1a1c	-0.18564647
235	0xbca30d18	-0.019903705
236	0x3e4d33aa	0.2003924
237	0x3d9101cb	0.0708042
238	0xbd33d1ec	-0.04390137
239	0xbe34830f	-0.1762812
240	0x3d369a01	0.044580463
241	0x3dc02901	0.09382821
242	0xbc9b06c3	-0.018924123
243	0x3de442ea	0.11145575
244	0x3defab69	0.11702616
245	0xbdf1f473	-0.11814203
246	0xbe4548ed	-0.192661
247	0x3e50d9a1	0.20395519
248	0x3d51ad87	0.05119088
249	0xbe976dab	-0.29575858
250	0x3ca4b26d	0.020104611
251	0xbdaa310e	-0.08310138
252	0x3dbd4264	0.09241179
253	0x3d8967af	0.06709229
254	0x3d7c2030	0.061554134
255	0xbb89ad04	-0.0042015333

bias f4 [150]
0	0x3e3324de	0.17494532
1	0x3c2bea24	0.010492835
2	0x3dfcbbda	0.12340517
3	0x3d7c5503	0.06160451
4	0x3d2a8c32	0.041637607
5	0x3cefc7d6	0.029270094
6	0x3da9d256	0.082920715
7	0x3cf04550	0.029329926
8	0xbcf05fae	-0.029342499
9	0x3d211f78	0.03933665
10	0xbdf4d0bc	-0.119538754
11	0xbac5f366	-0.0015102446
12	0xbcf47843	-0.029842502
13	0x3db2780b	0.08714303
14	0xbe1a951e	-0.15095946
15	0x3ca90596	0.020632546
16	0xbdeea97e	-0.11653422
17	0x3ca578e4	0.020199247
18	0x3c53c352	0.012924986
19	0xbeb6231e	-0.35573667
20	0xbe69bb13	-0.2282527
21	0x3cacf257	0.02111165
22	0x3cf1a606	0.029498111
23	0xbd5fa797	-0.054603186
24	0x3d3fa3ae	0.046786956
25	0xbdbccae2	-0.09218384
26	0x3ddce3ab	0.10785612
27	0xbd558818	-0.052131742
28	0x3d997ac8	0.07494122
29	0xbbb6a703	-0.0055741086
30	0xbd689963	-0.056786906
31	0x3e2b7f77	0.16747843
32	0x3dc9bb37	0.098501615
33	0x3d754082	0.059875973
34	0x3dd9d0ca	0.106355265
35	0xbc5e7c18	-0.013579391
36	0xb8bbf9d2	-8.9633875e-05
37	0xbc79c651	-0.015245036
38	0xbd969359	-0.07352323
39	0xbca5bea2	-0.020232502
40	0x3cb40834	0.021976568
41	0xbd841d6a	-0.06450923
42	0x3d6c1d44	0.057645097
43	0xbdc2f2cc	-0.09518966
44	0xbd475882	-0.048668392
45	0x3be03dd5	0.0068433085
46	0x3d0f7d76	0.03503176
47	0x3c8b5feb	0.01701351
48	0x3dae34a0	0.08506131
49	0xbd596491	-0.053074423
50	0xbd81c46c	-0.063362926
51	0xbdda1e08	-0.10650259
52	0x3d00b516	0.031422697
53	0x3d081c47	0.033230092
54	0xbe428d74	-0.18999273
55	0xbd8c121f	-0.06839394
56	0xbd25638e	-0.040378146
57	0x3dac810b	0.084230505
58	0x3d5f809f	0.054566022
59	0xbdaf35e9	-0.085552044
60	0x3c7f6cd4	0.0155899115
61	0xbdf8a71c	-0.121412486
62	0x3d7b9c47	0.061428335
63	0xbeaee782	-0.34161
64	0x3b9902d1	0.004669525
65	0xbdb43a4e	-0.08800183
66	0x3dcd17b4	0.10014287
67	0x3e650a00	0.22367096
68	0xbd070373	-0.032962274
69	0xbdbda3f0	-0.09259784
70	0x3d08fa74	0.033441976
71	0x3cda4855	0.026645819
72	0xbda15269	-0.078770466
73	0xbc6a72d0	-0.0143096
74	0x3dd79dba	0.10528131
75	0x3d38bc27	0.04510131
76	0x3dbc04a9	0.09180576
77	0xbde0c83b	-0.10975691
78	0xbe962efc	-0.2933272
79	0xbd44aeeb	-0.048018377
80	0x3de11c04	0.10991672
81	0xbd955c39	-0.07292981
82	0xbb5b2b4e	-0.003344256
83	0xbda38c8a	-0.0798579
84	0xbcdfb685	-0.027308712
85	0xbddc70c3	-0.10763695
86	0x380d3366	3.3664888e-05
87	0x3dc7229e	0.097233996
88	0xbd81050e	-0.06299792
89	0xbe01f446	-0.12690839
90	0xbc512681	-0.012765528
91	0x3e8b419d	0.27198496
92	0xbe4495c1	-0.19197752
93	0x3d3bce37	0.04585096
94	0x3d450650	0.048101723
95	0xbdb6cffc	-0.089263886
96	0xbd060c08	-0.032726318
97	0x3dc43ff5	0.09582511
98	0xbe50cedc	-0.2039141
99	0xbcd9abb3	-0.02657113
100	0x3e263e06	0.16234598
101	0x3d80147c	0.06253907
102	0xbe09b9b1	-0.13449742
103	0xbe8deceb	-0.27719817
104	0xbde83ac5	-0.113393344
105	0x3da18c4c	0.07888088
106	0xbbffcbdf	-0.0078062858
107	0x3e55ef97	0.20892178
108	0x3d9900e3	0.07470872
109	0x3da9dddb	0.08294269
110	0x3a6a5c35	0.00089401315
111	0x3d8c08c3	0.06837609
112	0xbbb28f7b	-0.005449233
113	0xbdae3ec6	-0.08508067
114	0xbbcdaeda	-0.0062769474
115	0xba5b73fa	-0.0008371469
116	0x3d11e2a0	0.035616517
117	0xbd6d09b6	-0.05787059
118	0xbd090218	-0.033449262
119	0xbb21a8d8	-0.002466729
120	0x3d17afc3	0.037032854
121	0x3d5e38b2	0.054253288
122	0x3d27629c	0.040865526
123	0x3ae88aa9	0.0017741519
124	0x3df6e60a	0.12055595
125	0xbda47a74	-0.080311686
126	0xbd5ea687	-0.05435803
127	0xbe760309	-0.24024595
128	0x3b8e58d8	0.004344087
129	0xbc41409b	-0.011795188
130	0xbe340e57	-0.17583595
131	0x3e64cfae	0.22344849
132	0xbc9dd562	-0.019266788
133	0xbd8f8fc8	-0.07009846
134	0xbd9971d7	-0.07492416
135	0xbe13d601	-0.14437105
136	0x3cf71e99	0.030165957
137	0x3d39f1df	0.045396682
138	0x3cdcf098	0.026970193
139	0x3dd08604	0.101818115
140	0xbe5f40bb	-0.21802036
141	0xbe6c15c6	-0.23055181
142	0x3d7756a5	0.060385365
143	0x3c08850d	0.008332503
144	0xbe078195	-0.13233025
145	0xbe6293ef	-0.22126745
146	0x3db6936d	0.08914838
147	0xbcfa6bae	-0.030568924
148	0x3dc43c16	0.09581773
149	0x3d85bf04	0.06530574

weight f4 [64, 4]
0	0xbe27e83c	-0.16397184
1	0xbf1d30e4	-0.61402726
2	0xbddbabe9	-0.10726149
3	0xbd8a0871	-0.06739891
4	0x3d143e27	0.036192086
5	0x3e1d3c58	0.1535505
6	0xbe39e10d	-0.18152256
7	0xbe964de3	-0.29356298
8	0xbe7da6a0	-0.24770594
9	0xbf33f597	-0.70296615
10	0x3dd37566	0.10325126
11	0x3e4fcecd	0.20293732
12	0xbed50a7f	-0.4160957
13	0xbca9c589	-0.020724075
14	0x3e7bc79f	0.24587868
15	0x3e9deb4c	0.3084358
16	0xbeef65f9	-0.46757486
17	0xbe165761	-0.1468177
18	0x3e36b198	0.17841184
19	0x3dde5ea4	0.10857895
20	0xbd67ff04	-0.056639686
21	0xbde56957	-0.112017326
22	0xbe6cf265	-0.23139341
23	0x3e48cac3	0.19608597
24	0x3da5e0e9	0.08099539
25	0xbe65860f	-0.2241442
26	0x3b597f7c	0.003318756
27	0xbeb24061	-0.34814742
28	0x3e6607bc	0.22463888
29	0xbdce40d9	-0.100709625
30	0xbe9796ab	-0.29607138
31	0x3d32de0d	0.043668795
32	0x3f0b6d9a	0.54464114
33	0xbe408a31	-0.18802716
34	0xbc643bdb	-0.013930286
35	0x3e7f8c8c	0.24955958
36	0xbcbbfa09	-0.022946374
37	0xbdb49601	-0.088176735
38	0xbdc0cc78	-0.09413999
39	0x3e657211	0.22406794
40	0xbe064f88	-0.13116276
41	0x3c7e102b	0.015506784
42	0xbef75d61	-0.4831343
43	0x3d438ad6	0.047739826
44	0xbf2b85a0	-0.6700077
45	0x3e30fdb3	0.17284279
46	0x3d7f3ee5	0.06231584
47	0xbdeaa7d4	-0.11457792
48	0xbecb296b	-0.39680037
49	0x3ec35106	0.38147753
50	0x3da94ffd	0.0826721
51	0xbe53b510	-0.20674539
52	0xbeb866fa	-0.36016065
53	0x3e783274	0.24237996
54	0x3c68e00c	0.014213573
55	0x3dbd83fe	0.09253691
56	0xbd96e5f2	-0.07368077
57	0x3ed84926	0.42243308
58	0xbdf4ea0a	-0.11958702
59	0xbec3190f	-0.38105056
60	0x3ebc6060	0.36792278
61	0x3e8de182	0.2771111
62	0x3e90b957	0.28266403
63	0x3ebe8a97	0.3721511
64	0x3e726452	0.23671082
65	0x3cef3b1b	0.029202988
66	0xbf03e491	-0.5152064
67	0x3d0c7675	0.034292657
68	0xbe0c943b	-0.1372842
69	0x3dd0fdf8	0.10204691
70	0xbeb0ba34	-0.34517062
71	0x3f0200aa	0.50782263
72	0xbe185ee2	-0.14879945
73	0x3ba2c285	0.004967036
74	0x3e6710c2	0.22564986
75	0x3e6a5921	0.22885562
76	0x3e980048	0.29687715
77	0xbd848c1b	-0.064720355
78	0x3dcb0551	0.099131234
79	0xbe836b1c	-0.25667655
80	0x3c0b5db0	0.008506224
81	0xbe0c4393	-0.13697653
82	0x3eb9e38c	0.36306417
83	0xbe14b027	-0.14520322
84	0x3eaefd6c	0.3417772
85	0x3d84e65c	0.0648925
86	0xbe56226e	-0.20911571
87	0xbe4fbc31	-0.20286633
88	0xbe1f2f60	-0.15545416
89	0x3f2fa641	0.6861306
90	0xbe525c6e	-0.20543072
91	0x3e728ea7	0.2368723
92	0x3ef3a57d	0.47587195
93	0xbf048192	-0.5176021
94	0x3c9fce54	0.019507565
95	0x3e4d69ec	0.20059937
96	0xbe381d59	-0.17979945
97	0xbda7165c	-0.081585616
98	0x3ebc2662	0.36748034
99	0x3e9c6d8c	0.30552328
100	0xbe6f1769	-0.23348774
101	0xbebe14e9	-0.37125328
102	0xbc950c88	-0.018194452
103	0x3cf46c34	0.029836752
104	0x3da0e9d2	0.07857098
105	0xbe29bce8	-0.16575968
106	0x3d9911d2	0.07474102
107	0x3eb74a56	0.357989
108	0xbe1602fe	-0.14649579
109	0x3ea0a86b	0.31378493
110	0xbd4eec31	-0.05051822
111	0xbed24743	-0.41069993
112	0x3d21137e	0.03932523
113	0x3def4787	0.11683565
114	0x3ec87266	0.3914978
115	0x3e6057d2	0.21908501
116	0xbe6dc1dc	-0.23218483
117	0xbd859bce	-0.06523858
118	0xbe68216b	-0.22668998
119	0x3d8eb21f	0.06967568
120	0xbe463346	-0.19355497
121	0x3e59b6c9	0.21261133
122	0x3e300002	0.17187503
123	0xbefec70d	-0.4976124
124	0xbe86469d	-0.2622575
125	0xbd17c08d	-0.037048865
126	0xbe477bb1	-0.19480778
127	0xbea9d777	-0.331722
128	0xbe8b447c	-0.27200687
129	0x3e3bbb0d	0.18333073
130	0x3ea91806	0.3302614
131	0xbc721fc5	-0.014778082
132	0xbf1dd562	-0.6165372
133	0xbe02ce4f	-0.12774013
134	0xbd244853	-0.040108036
135	0x3eca37d0	0.39495707
136	0x3e246e01	0.16057588
137	0x3e42ebe1	0.19035293
138	0xbf1574cc	-0.5838134
139	0x3e36bb95	0.17844994
140	0x3ec88c26	0.39169425
141	0xbe697630	-0.22798991
142	0x3e4046b2	0.18776968
143	0xbdbc4c24	-0.0919421
144	0x3f45cd56	0.7726644
145	0x3e70d12d	0.23517294
146	0xbd2cda42	-0.042200334
147	0xbd65ce53	-0.05610497
148	0x3dab0948	0.0835138
149	0xbda64fdb	-0.081207
150	0x3ec0e647	0.37675688
151	0x3da5c6d5	0.08094565
152	0xbe7fdde7	-0.24986993
153	0x3e59031e	0.21192595
154	0x3ea93373	0.33047065
155	0x3d6936ed	0.056937147
156	0xbed96e26	-0.4246685
157	0xbebb6c3d	-0.36606017
158	0x3e289b0d	0.16465397
159	0xbaab3d23	-0.0013064485
160	0xbe026604	-0.12734228
161	0x3ba3c7d6	0.0049981875
162	0xbd53a645	-0.05167224
163	0x3e0c7764	0.13717419
164	0xbe7b77f8	-0.24557483
165	0xbe78976d	-0.24276514
166	0xbec67a0a	-0.38764983
167	0x3eb5c8d7	0.3550479
168	0x3d96eba5	0.073691644
169	0x3e4ccfd7	0.2000116
170	0x3d5b7d76	0.053586446
171	0xbf2264e0	-0.63435173
172	0x3def1b1b	0.11675092
173	0xbd96e1ad	-0.07367263
174	0x3eb6c0ba	0.35693914
175	0x3d1e6c6d	0.03867762
176	0x3b8a71bf	0.0042249854
177	0xbd6ad60a	-0.05733303
178	0x3da104d0	0.07862246
179	0x3ee2f63a	0.4432848
180	0x3e6725c3	0.22572999
181	0x3e423e7f	0.18969153
182	0x3e8e7fce	0.27831882
183	0xbe74b500	-0.23897171
184	0xbac6cd30	-0.0015167352
185	0xbeaa1d84	-0.33225644
186	0x3e1825b2	0.1485813
187	0x3d4dfcf7	0.050290074
188	0x3dc507de	0.09620641
189	0xbe645fe3	-0.22302203
190	0x3eeab06e	0.4583773
191	0x3e76c995	0.24100335
192	0x3d396461	0.045261744
193	0x3f161e9c	0.58640456
194	0x3e9973ed	0.29971257
195	0x3e01e2f4	0.12684232
196	0xbee55640	-0.44792366
197	0xbd434cfa	-0.047680832
198	0xbe592beb	-0.2120816
199	0x3e35754d	0.17720528
200	0xbdab8356	-0.0837466
201	0x3ddf6238	0.109074056
202	0x3e50cfab	0.20391719
203	0xbea02658	-0.31279254
204	0x3ea07c78	0.31344962
205	0x3e3c0488	0.18361104
206	0x3e9da5fe	0.30790704
207	0x3d2354ef	0.03987592
208	0x3e8ef07b	0.27917847
209	0xbe8466a6	-0.25859565
210	0x3eb966fc	0.36211383
211	0x3edbc6a8	0.42925
212	0xbe1b7bb4	-0.15183908
213	0xbec737c3	-0.3890973
214	0xbedf62b8	-0.43630004
215	0xbe19bb69	-0.15012898
216	0xbba4c4ca	-0.005028342
217	0x3bac3466	0.00525527
218	0x3edf5234	0.43617404
219	0xbe648785	-0.22317322
220	0x3dfe9331	0.12430418
221	0xbe56adcf	-0.2096474
222	0x3db51575	0.08841983
223	0xbbf538f5	-0.0074835964
224	0xbd08cc3e	-0.033397906
225	0xbd5a7d33	-0.053342056
226	0x3ed25b9a	0.4108551
227	0xbed0191d	-0.4064416
228	0x3e357814	0.17721587
229	0x3edc9af9	0.43086985
230	0xbea36848	-0.31915498
231	0x3bc03fab	0.005866965
232	0xbdcb03dc	-0.099128455
233	0xbee9182d	-0.45526257
234	0xbe0ede44	-0.13951975
235	0xbe4ffaed	-0.20310564
236	0xbe55487f	-0.20828436
237	0xbd909c27	-0.07061034
238	0x3ee3ccce	0.4449219
239	0xbea49790	-0.32146883
240	0x3da073f6	0.07834618
241	0xbe647ac2	-0.22312453
242	0x3e90e1ec	0.28297365
243	0x3f07dedc	0.5307443
244	0xbedb5423	-0.4283763
245	0xbe9a5709	-0.30144528
246	0x3d7e859b	0.062139135
247	0x3da4ab68	0.08040506
248	0x3df5b3d9	0.11997194
249	0xbd999e48	-0.07500893
250	0x3e8296c5	0.25505653
251	0x3ed15ab0	0.40889502
252	0x3d0e5fbc	0.03475927
253	0x3ed6bdcc	0.4194168
254	0x3dabc652	0.08387436
255	0xbe30d2c9	-0.17267908

bias f4 [64]
0	0x3e10b251	0.14130522
1	0x3d2dff00	0.042479515
2	0x3d19bbb6	0.03753253
3	0xbdb955b4	-0.0904955
4	0xbcfc3bc8	-0.030790225
5	0xbc60e909	-0.013727435
6	0xbbc0a754	-0.005879322
7	0xbea8a0d4	-0.32935202
8	0x3d8f1cf7	0.069879465
9	0xbd3df42a	-0.04637543
10	0x3dd51345	0.10404066
11	0xbd922fc7	-0.07138019
12	0xbd8c826d	-0.06860814
13	0xbc596816	-0.013269445
14	0xbd4c87ab	-0.04993407
15	0xbcee28b7	-0.029072149
16	0x3e4cb29d	0.1999001
17	0xbd5030c5	-0.05082776
18	0xbd010083	-0.03149463
19	0x3e0b9b8f	0.1363356
20	0xbd8ae06f	-0.067810886
21	0x3d1c8076	0.038208447
22	0x3dca6265	0.098820485
23	0x3e0435ce	0.1291115
24	0xbbee2a0e	-0.007268197
25	0x3d0fc190	0.035096705
26	0x3d136e34	0.03599377
27	0xbcb2d8de	-0.021831926
28	0x3c890bd3	0.016729271
29	0x3da084d6	0.078378364
30	0xbe1b9521	-0.15193607
31	0x3da22c52	0.0791861
32	0xbe05bb2d	-0.13059683
33	0x3c3fbdef	0.011702999
34	0x3e1f2a6d	0.15543528
35	0x3cd769a0	0.026295483
36	0xbe16afe8	-0.1471554
37	0xbd6344f6	-0.05548569
38	0xbd996ed5	-0.07491843
39	0x3dc2e255	0.09515826
40	0x3e16aa91	0.14713503
41	0x3d2c61be	0.0420854
42	0xbd8d18ba	-0.06889482
43	0xbd0655f0	-0.0327968
44	0xbb7d03b2	-0.003860694
45	0x3e1459f1	0.14487435
46	0xbd7291a7	-0.059220936
47	0xbe027beb	-0.12742583
48	0xbe278256	-0.16358313
49	0x3c961bcb	0.0183238
50	0x3c45d6fb	0.012075181
51	0xbe12fdb7	-0.14354597
52	0x3a886b5a	0.001040797
53	0xbe0334aa	-0.12813058
54	0xbe08b3f0	-0.1334989
55	0x3e08317d	0.13300128
56	0x3d367007	0.04454043
57	0x3d31f479	0.043446038
58	0x3e07b744	0.13253504
59	0xbda71445	-0.08158163
60	0xbd810d56	-0.06301372
61	0xbd1f5985	-0.03890373
62	0x3c89d717	0.016826196
63	0x3d0d6f80	0.034530163

weight f4 [64, 214]
0	0xbe90d123	-0.2828456
1	0x3df24221	0.11829019
2	0x3db7d362	0.08975865
3	0x3c80f506	0.015741836
4	0x3e45fae3	0.19333987
5	0x3d0fcfce	0.035110287
6	0x3be8e037	0.0071068066
7	0xbd393f21	-0.04522622
8	0x3d88606f	0.06659018
9	0x3e0128a7	0.12613164
10	0xbd80f29d	-0.06296275
11	0x3e0b455c	0.13600677
12	0x3d22b11a	0.03971968
13	0xbbe30f97	-0.0069293487
14	0xbe00032c	-0.1250121
15	0x3ca3881b	0.019962361
16	0xbd76a1fb	-0.06021307
17	0xbdaddb39	-0.08489079
18	0xbd01cbcf	-0.031688508
19	0xbd9153aa	-0.07096036
20	0x3d3aebf0	0.045635164
21	0x3dd51e03	0.10406115
22	0xbe1cbc7f	-0.1530628
23	0xbc9c8aa7	-0.019109083
24	0xbcd4d0e7	-0.025978519
25	0x3e2ca7e8	0.16860926
26	0xbe16f39c	-0.14741367
27	0x3d13aa7c	0.03605126
28	0x3e0a611c	0.13513607
29	0x3d327446	0.04356792
30	0x3dab8653	0.0837523
31	0x3c4c9ff2	0.012489306
32	0x3cfcfc2c	0.030881964
33	0xbd5b3c43	-0.053524267
34	0xbe4ff857	-0.20309578
35	0x3e854caa	0.26035053
36	0xbd7be20e	-0.06149488
37	0xbd3898f8	-0.045067757
38	0xbe34f5af	-0.17671846
39	0xbc636902	-0.013880016
40	0x3e4a5fc4	0.19763094
41	0xbe80dd80	-0.2516899
42	0x3b39cf09	0.0028352162
43	0x3cf458e7	0.029827548
44	0xbe435433	-0.19075088
45	0x3d93a3a8	0.07208949
46	0xbde43ee4	-0.11144808
47	0x3c70965d	0.014684287
48	0xbb63ee2a	-0.0034779408
49	0x3dd91a5f	0.10600733
50	0x3e3cddba	0.18443957
51	0xbe84e0ec	-0.25952852
52	0x3e67d395	0.22639306
53	0xbd8381d4	-0.06421247
54	0x3b5afec1	0.0033416005
55	0x3d90df16	0.070738
56	0x3dcc8fc1	0.099883564
57	0xbe069ab0	-0.13144946
58	0xbe0d7a88	-0.13816273
59	0xbde2fe08	-0.11083609
60	0xbc3af027	-0.011409796
61	0xbd499a54	-0.049219444
62	0xbd4d8deb	-0.05018417
63	0xbe6df733	-0.2323883
64	0x3d7c450f	0.061589297
65	0xbdd98751	-0.10621513
66	0xbda6f3a7	-0.08151942
67	0x3e0e73b4	0.13911325
68	0x3d885a14	0.06657806
69	0x3e676653	0.22597627
70	0xbd23dad4	-0.040003613
71	0x3e1fd0df	0.15607022
72	0xbdf1ed2e	-0.118128166
73	0xbe25cbd6	-0.16191038
74	0xbcd1874b	-0.025577208
75	0x3e0b52a6	0.13605747
76	0x3cbb9cdc	0.022901945
77	0xbb069b71	-0.0020539428
78	0x3d4537b3	0.048148822
79	0x3e2848d9	0.16434039
80	0x3db6c142	0.0892358
81	0x3d1c6086	0.03817799
82	0x3b918cf0	0.00444185
83	0x3ddd20a3	0.107972406
84	0x3ddc1657	0.107464485
85	0xbca5e275	-0.020249585
86	0x3e89da42	0.2692433
87	0xbe5466b8	-0.20742309
88	0xbe275c13	-0.16343717
89	0x3dd10f88	0.102080405
90	0xbbed6b7b	-0.0072454787
91	0x3c9d579d	0.019206816
92	0xbd88fe94	-0.06689182
93	0x3d26b965	0.04070415
94	0xbdfc1573	-0.123087786
95	0xbcedf261	-0.02904624
96	0x3d93c5b4	0.07215443
97	0x3d60d1c2	0.05488754
98	0xbce10251	-0.027466925
99	0xbe7ece11	-0.24883296
100	0x3dee0626	0.116222665
101	0xbc61a516	-0.01377227
102	0x3db0567d	0.08610246
103	0x3cf283cd	0.029603863
104	0x3dd761db	0.10516711
105	0xbe00b36f	-0.12568448
106	0x3d3fada2	0.04679645
107	0xbd9dcfb8	-0.07705635
108	0x3d66ca6d	0.056345392
109	0xbdf4d0ba	-0.11953874
110	0x3e099655	0.13436253
111	0xbd3036e2	-0.04302109
112	0x3df97d91	0.12182153
113	0x3d24692e	0.04013937
114	0xbc132b63	-0.008982512
115	0xbe2d90f3	-0.16949825
116	0x3d497780	0.04918623
117	0x3c50b224	0.012737785
118	0xbd4502b6	-0.04809829
119	0x3e3262a7	0.17420445
120	0xbe3974c0	-0.18110943
121	0xbc9e135a	-0.019296337
122	0xbd74c4e3	-0.05975808
123	0x3e3190ad	0.17340346
124	0xbda1640f	-0.07880413
125	0xbdae4a44	-0.08510259
126	0xbc16a11c	-0.009193685
127	0x3e23bd77	0.15990244
128	0x3e14bdbb	0.14525501
129	0xbca8d84c	-0.02061095
130	0x3d99937f	0.07498836
131	0xbdeff0de	-0.11715864
132	0x3dcecd0d	0.10097704
133	0x3d2a530b	0.041583102
134	0x3bbe1a2c	0.00580146
135	0xbd7e24d0	-0.062046826
136	0xbd7ee224	-0.062227383
137	0x3dc720e3	0.097230695
138	0xbe00e2e7	-0.12586556
139	0xbc6bae14	-0.014384765
140	0x3b4c105c	0.003113768
141	0x3da10c4b	0.07863673
142	0xbe3b43ee	-0.18287632
143	0x3db61abb	0.08891817
144	0xbdcdfea9	-0.10058338
145	0x3d85146b	0.06498035
146	0x3cfd6010	0.030929595
147	0x3e1f0fab	0.1553332
148	0x3d11a370	0.035556257
149	0x3dbc4cd9	0.09194345
150	0x3e2d25bc	0.16908926
151	0x3d248ba6	0.04017224
152	0xbdf12c4d	-0.11776028
153	0x3c1449d1	0.009050802
154	0xbd076f1a	-0.03306494
155	0x3c801f71	0.015639992
156	0xbe3df36c	-0.1854989
157	0xbcc01dd0	-0.023451716
158	0xbd68edfc	-0.056867585
159	0x3cd18bdb	0.025579384
160	0x3e4b6df3	0.19866161
161	0x3e2d790b	0.16940705
162	0x3ce6bb57	0.028165502
163	0x3da0560b	0.078289114
164	0x3e32a4d1	0.17445685
165	0xbdc21e5f	-0.09478449
166	0x3d6bbdb3	0.05755396
167	0xbccf2826	-0.025287699
168	0x3de18419	0.11011524
169	0xbe2afa66	-0.16697082
170	0x3d5844e1	0.052800063
171	0x3ce07a69	0.02740212
172	0x3a123c27	0.00055784214
173	0xbd6a3394	-0.057178095
174	0xbe03740f	-0.12837242
175	0x3cca6309	0.024705427
176	0xbe07bdbf	-0.13255976
177	0x3da125dd	0.0786855
178	0xbd307a0b	-0.04308514
179	0x3e0713f0	0.131912
180	0x3d862adb	0.06551143
181	0x3d172b62	0.036906607
182	0xbd3c6ad3	-0.046000313
183	0x3db8650c	0.09003648
184	0x3e448eca	0.19195095
185	0xbd82a911	-0.06379903
186	0xbcd076e9	-0.025447326
187	0xbe4a98a0	-0.19784784
188	0xbe438cb6	-0.19096646
189	0x3de5e3a2	0.11225058
190	0x3e204199	0.15650024
191	0xbdeff7bb	-0.11717173
192	0xbdee4979	-0.116351075
193	0x3c161185	0.00915945
194	0x3b424339	0.0029642119
195	0x3cced25b	0.02524679
196	0xbe80a15a	-0.251231
197	0xbebf9464	-0.374179
198	0xbda5d410	-0.08097088
199	0x3de87d19	0.113519855
200	0x3d483bcd	0.048885155
201	0xbe9d4e74	-0.30723917
202	0xbe5fcf62	-0.21856454
203	0x3d801d78	0.06255621
204	0x3d9e0f1b	0.07717725
205	0x3cbde8ab	0.023182234
206	0x3de92b15	0.1138517
207	0x3e0abb9c	0.1354813
208	0x3d54a6b1	0.05191678
209	0xbc9f447f	-0.019441841
210	0x3b984ae3	0.004647599
211	0x3dc4eab9	0.09615082
212	0xbd1ddaee	-0.038538866
213	0x3c41d9d7	0.011831722
214	0x3e08c4de	0.13356349
215	0xbd8ed19d	-0.06973574
216	0xbde61d0d	-0.1123601
217	0x3cf620d3	0.030044949
218	0xbd3d88df	-0.04627311
219	0xbc1e2ee4	-0.009654734
220	0x3e3df799	0.18551482
221	0x3e5f1596	0.21785578
222	0xbdf3aedb	-0.118985854
223	0xbcdcf35c	-0.026971512
224	0x3c8bd85d	0.017070943
225	0x3d67b264	0.05656661
226	0xbd90f411	-0.07077802
227	0x3e321ce5	0.17393835
228	0xbb481700	-0.0030531287
229	0xbd13e7a1	-0.03610957
230	0xbc26f65a	-0.010190571
231	0x3d80e027	0.06292754
232	0xbd8cbefb	-0.06872364
233	0xbe13a267	-0.1441742
234	0x3db45e29	0.08807022
235	0x3e2ba443	0.1676188
236	0xbcaf4109	-0.021393316
237	0xbdbd29b7	-0.09236472
238	0xbe2a34ee	-0.16621754
239	0x3e25d95c	0.16196197
240	0xbe09f614	-0.13472778
241	0xbe824a6d	-0.25447407
242	0x3d98b270	0.07455909
243	0xbe46b3ff	-0.194046
244	0x3db976c4	0.09055856
245	0x3e276523	0.16347174
246	0xbc9ed0f8	-0.019386753
247	0x3e59357a	0.21211806
248	0x3e20823f	0.15674685
249	0x3c63f1fc	0.013912674
250	0xbdc7bb6c	-0.09752545
251	0xba971152	-0.0011525548
252	0xbea459c1	-0.32099727
253	0x3e358d43	0.17729668
254	0x3d566030	0.052337825
255	0x3cb372f1	0.021905394

bias f4 [64]
0	0x3dd84c97	0.10561483
1	0x3e0f2b14	0.13981277
2	0xbe149db7	-0.14513288
3	0xbdd59c6c	-0.10430226
4	0xbd0d2f99	-0.03446922
5	0x3dc96b12	0.09834875
6	0x3cccc8a8	0.024998024
7	0x3e1b0377	0.1513804
8	0x3d4b9796	0.04970511
9	0xbd801021	-0.06253076
10	0xba85e119	-0.0010214179
11	0xbe0e204a	-0.13879505
12	0xbccf27c7	-0.025287522
13	0xbd075fce	-0.03305035
14	0xbd9a9fb3	-0.075499915
15	0x3cf98a68	0.030461505
16	0xbb8de2af	-0.0043300013
17	0xbde02f92	-0.10946573
18	0x3e0cb4cb	0.13740842
19	0xbdc68f01	-0.096952446
20	0x3dd55d46	0.10418181
21	0x3dc43f3b	0.09582373
22	0x3c054597	0.008134267
23	0x3e174dab	0.14775722
24	0x3deb7d39	0.11498494
25	0x3e0eb819	0.13937415
26	0xbd76ef3c	-0.060286745
27	0x3c796ecd	0.015224171
28	0xbd51e19a	-0.05124054
29	0xbdcf5f8a	-0.101256445
30	0xbe86d511	-0.26334432
31	0xbbff83ab	-0.0077976785
32	0xbd6297e3	-0.05532063
33	0x3d471091	0.048599783
34	0xbdd6e543	-0.10492947
35	0xbe8a0381	-0.26955798
36	0xbd45a3c3	-0.04825188
37	0xbca82129	-0.020523624
38	0xbd109dcc	-0.035306737
39	0x3e1e14ee	0.15437672
40	0x3db345d9	0.08753557
41	0xbcc233a9	-0.023706274
42	0xbe4b1fe0	-0.19836378
43	0xbb050bf2	-0.002030131
44	0xbd85ee42	-0.06539585
45	0x3e6205e4	0.2207256
46	0x3df34806	0.11878972
47	0xbd80cca6	-0.062890336
48	0x3e947861	0.28998092
49	0xbc2438a9	-0.010023274
50	0xbe0452b7	-0.12922178
51	0xbc65ccc0	-0.014025867
52	0x3e2fa7cb	0.17153852
53	0xbe5783a1	-0.21046306
54	0x3d2ae3cf	0.04172116
55	0xbd6ba710	-0.05753237
56	0x3da44d55	0.080225624
57	0x3df5e969	0.1200741
58	0x3c101657	0.008794389
59	0xbdab7cd3	-0.08373418
60	0x3e7404cc	0.23829955
61	0xbd6ebeae	-0.058287315
62	0xbd21b37a	-0.039477803
63	0xbe16441e	-0.14674422

weight f4 [150, 22]
0	0xbebac7f4	-0.36480677
1	0x3ead7d28	0.3388455
2	0xbea8ca49	-0.3296683
3	0x3af82236	0.0018931094
4	0x3cf2635c	0.029588394
5	0xbbf43664	-0.007452773
6	0x3cbecb2f	0.023290245
7	0x3cd56057	0.026046915
8	0x3e0af59c	0.13570255
9	0x3d17f169	0.03709546
10	0xbbce28a1	-0.0062914644
11	0xbe53f36a	-0.20698324
12	0xbdf3173d	-0.11869667
13	0x3e05280f	0.13003562
14	0xbe8c5cbd	-0.27414504
15	0xbcda2c2e	-0.026632395
16	0x3dfcd5ab	0.123454414
17	0xbdaa0ecf	-0.08303606
18	0x3cc7462c	0.024325453
19	0xbd5d3ac6	-0.05401113
20	0x3cc9b3cf	0.024621872
21	0xbdb14fab	-0.086577736
22	0x3c70e2cb	0.014702509
23	0x3c586939	0.013208681
24	0x3be796ff	0.0070675607
25	0xbda72789	-0.081618376
26	0x3cf39e28	0.0297385
27	0xbc6e32f1	-0.014538513
28	0x3cdc2d1c	0.026876979
29	0x3d22fd5d	0.039792407
30	0xbe0d84ed	-0.13820238
31	0xbdbc82b5	-0.09204618
32	0xbdc7a9f3	-0.09749212
33	0xbe0f842a	-0.1401526
34	0x3dd6966c	0.104779094
35	0xbc5e7ef5	-0.013580074
36	0xbd7bf619	-0.061513994
37	0xbc64d5ed	-0.0139670195
38	0xbcac0bc9	-0.021001713
39	0x3d9a1d3b	0.075251065
40	0x3c9c7e02	0.019103054
41	0x3cdbfe96	0.026854794
42	0xbd2e41d8	-0.042543262
43	0x3b1e7f65	0.002418482
44	0xbbb7fe34	-0.00561502
45	0xbcce1b80	-0.025159597
46	0x3d583b7e	0.05279111
47	0xbd37aa5d	-0.044840205
48	0x3d4f2785	0.050574798
49	0x3cb36e7a	0.021903265
50	0xbca0cddf	-0.019629417
51	0x3e1b488d	0.15164395
52	0x3d991a45	0.07475714
53	0xbe31dc3d	-0.1736917
54	0xbd150c11	-0.03638846
55	0x3e013247	0.12616836
56	0xbcee890e	-0.029118087
57	0x3b2c02ae	0.0026246714
58	0x3e0d4fde	0.13799998
59	0xbd7764f3	-0.060399007
60	0x3e80cc4b	0.25155863
61	0x3b9cec7e	0.0047889343
62	0x3dda7f46	0.10668807
63	0xbd1dc8a1	-0.038521413
64	0x3d92c922	0.07167269
65	0xbdbffc4a	-0.09374292
66	0xbe21dd27	-0.15807019
67	0xbdf12cbc	-0.117761105
68	0x3e29129f	0.1651101
69	0x3d9781fa	0.07397838
70	0xbd3892a0	-0.045061707
71	0xbdb1d5e9	-0.08683378
72	0xbd4b265d	-0.049597133
73	0x3d9b4f25	0.07583455
74	0xbd39f47a	-0.045399167
75	0x3dc9ea92	0.09859194
76	0x3b191f47	0.002336459
77	0x3e886bab	0.26644644
78	0xbe42d03f	-0.19024752
79	0xbdc02f9b	-0.0938408
80	0x3e7034f8	0.23457706
81	0x3c79efb2	0.015254902
82	0xbdf9a4cc	-0.12189636
83	0x3db52022	0.088440195
84	0xbbfcf96e	-0.007720164
85	0x3d5f35f9	0.05449483
86	0xbda3bc55	-0.07994906
87	0xbd579477	-0.05263182
88	0xbf0d0e2a	-0.5509974
89	0x3efc8484	0.4931985
90	0x3ebdef50	0.37096643
91	0x3d8363c6	0.06415515
92	0x3da22306	0.079168364
93	0x3d7283b2	0.059207626
94	0x3db01456	0.08597629
95	0x3c4b48b8	0.012407474
96	0x3d5f9e84	0.05459453
97	0xbdb686ec	-0.08912453
98	0x3d8d4eab	0.0689977
99	0x3db3f0c0	0.08786154
100	0xbdcafc26	-0.09911375
101	0x3db4a2b8	0.08820099
102	0x3e825215	0.2545325
103	0x3c604a98	0.01368966
104	0x3da44adf	0.08022093
105	0xbd8208f6	-0.063493654
106	0xbcd27b18	-0.025693461
107	0x3cb67555	0.022272745
108	0xbcb42449	-0.021989958
109	0x3d14613e	0.03622555
110	0x3da8619e	0.08221744
111	0xbd32a266	-0.043611906
112	0x3e25d13a	0.16193095
113	0x3e424f02	0.18975452
114	0xbd9145c0	-0.07093382
115	0x3d66a3b2	0.056308456
116	0x39ac2388	0.0003283287
117	0x3c2d4f0c	0.010577928
118	0xbcd6b877	-0.026211007
119	0x3e185276	0.14875206
120	0x3b58c45d	0.0033076026
121	0xbd9cd0b2	-0.07656993
122	0xbc658a6c	-0.014010053
123	0xbd1d1127	-0.038346436
124	0x3df0e443	0.117622875
125	0xb9584219	-0.00020623989
126	0x3c852d24	0.016256876
127	0xbd735b41	-0.0594132
128	0xbd618d35	-0.055066306
129	0x3d890984	0.06691268
130	0xbd620e59	-0.055189464
131	0x3d8829f8	0.0664863
132	0x3c3ebe42	0.011642041
133	0xbd014f26	-0.031569622
134	0x3d8c16de	0.06840299
135	0x3cc0c266	0.023530196
136	0x3cbf5305	0.023355016
137	0x3da32134	0.07965317
138	0xbdb32a4a	-0.087483004
139	0x3d93e727	0.07221823
140	0xbc1e66dc	-0.009668078
141	0xbda72096	-0.08160512
142	0x3c74bbe4	0.014937375
143	0x3e05bf82	0.13061336
144	0x3cbf91c4	0.023384936
145	0x3cff7325	0.031182835
146	0x3ed13fc1	0.40868953
147	0x3b880e92	0.0041521275
148	0x3c4db69e	0.012555746
149	0xbe8b8790	-0.27251863
150	0x3e0b4c8f	0.13603424
151	0xbdb24ae2	-0.08705689
152	0x3dcedd7c	0.101008385
153	0xbe537cd2	-0.20653084
154	0x3d4d4d7d	0.050122727
155	0x3ce5c49e	0.028047856
156	0x3db73690	0.08945954
157	0x3df7a07e	0.12091158
158	0xbd91cbd2	-0.07118954
159	0x3d9e219f	0.077212565
160	0xbe07e747	-0.13271819
161	0x3d9e90fe	0.07742499
162	0x3d198697	0.03748187
163	0xb9e0f59d	-0.00042907606
164	0xbd91314f	-0.07089483
165	0x3dffb5e9	0.124858685
166	0x3d822907	0.063554816
167	0xb954004e	-0.00020218009
168	0x3edcfe8f	0.43162963
169	0xbd58f096	-0.052963816
170	0x3e28aa99	0.16471328
171	0xbce3e4ad	-0.027819002
172	0x3e0d97be	0.13827416
173	0xbd75ebc2	-0.06003929
174	0xbe1c8241	-0.15284063
175	0xbe2411d1	-0.16022421
176	0x3d32458b	0.043523353
177	0x3dfea449	0.12433679
178	0x3ce241fd	0.027619356
179	0x3d2f123a	0.04274199
180	0xbb96fc06	-0.0046076803
181	0xbd143c58	-0.03619036
182	0x3c6a79c8	0.0143112615
183	0xbe1edcca	-0.15513912
184	0x3e189d10	0.14903665
185	0x3da615a2	0.08109595
186	0x3c02eb75	0.007990708
187	0xbe028792	-0.12747028
188	0x3c95a82e	0.01826867
189	0x3e7232fa	0.23652259
190	0x3da79e10	0.08184445
191	0xb95fabd8	-0.00021330954
192	0xbdace148	-0.084414065
193	0x3d9128a8	0.07087833
194	0xbdb0f249	-0.08639962
195	0xbdb9316f	-0.09042632
196	0x3dce62c7	0.10077434
197	0xbe112a00	-0.14176178
198	0x3ed22b67	0.41048738
199	0x3e365d8f	0.17809127
200	0x3dba01ea	0.09082396
201	0xbe18dc20	-0.14927721
202	0x3e0e69f9	0.13907613
203	0x3e038295	0.12842782
204	0x3dccca86	0.09999566
205	0xbd1a1718	-0.03761968
206	0x3d86b32b	0.06577142
207	0xbc6c53c9	-0.014424273
208	0xbd474790	-0.04865223
209	0xbeca26fe	-0.39482874
210	0x3e9a388e	0.30121273
211	0x3e370268	0.17872012
212	0x3d930a1e	0.07179664
213	0xbe051d32	-0.12999418
214	0x3c298096	0.010345599
215	0xbe59ae35	-0.21257861
216	0x3c322466	0.010872936
217	0xbd45b95d	-0.04827248
218	0x3d3ae744	0.04563071
219	0xbb3a41f2	-0.0028420654
220	0x3dcd3c40	0.100212574
221	0x3dfde637	0.123974256
222	0x3a90e2cf	0.0011053922
223	0xbda9240f	-0.08258831
224	0x3de23a9c	0.11046335
225	0xbd06c617	-0.032903757
226	0x3d36d4f1	0.04463667
227	0xb99db79d	-0.00030082176
228	0x3d3571c2	0.04429794
229	0x3d82e7fb	0.06391903
230	0xb87cf407	-6.030875e-05
231	0xbd22b037	-0.039718833
232	0x3d7fdfbf	0.06246924
233	0x3db60342	0.0888734
234	0x3dee1c14	0.11626449
235	0xbd3df42e	-0.046375446
236	0xbd8ead4d	-0.06966648
237	0xbdd5db4a	-0.10442217
238	0xbd33c9da	-0.043893673
239	0xbc077daf	-0.008269711
240	0xbbae9dce	-0.0053288704
241	0x3cf20490	0.029543191
242	0xbc1c56b7	-0.009542159
243	0x3cd4455a	0.025911976
244	0xbe35907c	-0.17730898
245	0xbe29d5f3	-0.16585521
246	0x3c74b4ad	0.014935655
247	0x3e13703b	0.14398281
248	0x3cecec33	0.028921222
249	0xbde3a9eb	-0.11116394
250	0x3b85de98	0.004085373
251	0x3d8197ab	0.063277565
252	0xbd63a65b	-0.05557857
253	0xbe20857f	-0.15675925
254	0xbc96b4ba	-0.018396724
255	0xb8d5e703	-0.00010199661

bias f4 [150]
0	0xbe24cec5	-0.16094501
1	0x3d45d97c	0.048303112
2	0xbd3615dc	-0.04445444
3	0xbe2733d0	-0.16328359
4	0x3e85f39a	0.26162416
5	0x3e3c2e87	0.18377124
6	0x3e2052af	0.15656541
7	0x3e9a48ce	0.3013367
8	0x3ea1171a	0.31462938
9	0xbefb819d	-0.49122325
10	0x3e14965e	0.14510486
11	0xbdd9c340	-0.10632944
12	0xbe04ddf4	-0.12975293
13	0x3e8ed776	0.2789876
14	0x3e851e1b	0.2599953
15	0x3e30dbd2	0.17271355
16	0x3eb6db4c	0.35714185
17	0x3d554a44	0.05207278
18	0x3e2c0376	0.16798195
19	0x3f00d198	0.50319815
20	0xbdd46274	-0.10370341
21	0x3df83bd9	0.1212079
22	0xbf2195fe	-0.63119495
23	0x3ea64bdc	0.3247975
24	0xbf29c905	-0.66322356
25	0xbed428e7	-0.41437456
26	0x3bba47fe	0.0056848517
27	0xbdb2d202	-0.08731462
28	0xbeae6798	-0.3406341
29	0x3e5da24a	0.2164394
30	0xbe094f29	-0.13409103
31	0x3d6b8b6e	0.057506017
32	0x3d951cbb	0.072808705
33	0xbd0df4f2	-0.034657426
34	0xbcd2ac18	-0.025716826
35	0xbddc380e	-0.10752879
36	0x3f0397c0	0.5140343
37	0xbed81b65	-0.422084
38	0x3e278664	0.1635986
39	0xbcab7c1e	-0.020933207
40	0x3e8143fb	0.25247177
41	0xbcd07810	-0.025447875
42	0xbf0911d1	-0.5354281
43	0xbef12176	-0.4709584
44	0xbe0cc6b5	-0.13747676
45	0xbd33b005	-0.043869037
46	0xbe0d429e	-0.13794944
47	0xbeb16a71	-0.3465152
48	0x3e9f7779	0.31145838
49	0xbe7d261a	-0.24721566
50	0xbd817cd8	-0.0632264
51	0x3e681d46	0.22667417
52	0x3c7f6f2e	0.015590472
53	0xbefb86b0	-0.49126196
54	0x3deeb872	0.11656274
55	0xbec960d3	-0.39331684
56	0x3d129b64	0.035792723
57	0x3e7eee3a	0.24895564
58	0xbeb112d3	-0.34584674
59	0x3e4fa8e2	0.20279267
60	0x3e88d74b	0.26726755
61	0x3bcea2bc	0.0063060205
62	0xbbf7477e	-0.0075463643
63	0x3ed18e5b	0.4092892
64	0x3ed354a1	0.41275504
65	0x3e84e02e	0.25952286
66	0xbef17ead	-0.47166958
67	0x3eefd483	0.4684182
68	0x3eb9e775	0.363094
69	0x3edcfcf4	0.43161738
70	0xbe8ae59e	-0.2712831
71	0x3b480b52	0.0030524326
72	0x3ba3d269	0.004999448
73	0xbf3c3d34	-0.7353089
74	0x3dc550c6	0.09634547
75	0xbf0c1663	-0.5472166
76	0x3dfa1266	0.122105405
77	0x3eb3f238	0.35145736
78	0x3e127c55	0.14305241
79	0xbd85a958	-0.065264404
80	0xbd9b5104	-0.07583812
81	0x3e14f409	0.14546217
82	0x3f160aab	0.5861003
83	0x3ed31aef	0.41231486
84	0xbe1bd32a	-0.15217271
85	0xbe2f1f81	-0.17101862
86	0xbdca8195	-0.09887997
87	0xbeef1e0b	-0.46702608
88	0xbf15c386	-0.5850147
89	0x3e996dc4	0.29966557
90	0xbdfca892	-0.1233684
91	0x3ecfdba9	0.40597275
92	0x3e54f76e	0.20797512
93	0xbed969d2	-0.42463547
94	0x3f1b6996	0.60707986
95	0x3e0fb9f9	0.14035787
96	0x3d6630c8	0.056198865
97	0x3ead44d1	0.33841565
98	0xbe2a3544	-0.16621882
99	0xbe1edf28	-0.15514815
100	0x3db286ef	0.08717143
101	0xbe63fe20	-0.2226491
102	0x3b1f431a	0.002430147
103	0xbe871d11	-0.26389363
104	0xbeb6b508	-0.3568499
105	0x3eb8b41a	0.36074907
106	0xbe090d58	-0.13383996
107	0x3e76373e	0.2404451
108	0xbef8f09c	-0.4862107
109	0x3d10b5ba	0.035329558
110	0x3e60a235	0.21936877
111	0xbdbf6292	-0.09344973
112	0xbe60322b	-0.21894138
113	0x3e736916	0.23770556
114	0xbddf72e6	-0.10910587
115	0x3e877f7c	0.2646445
116	0x3e4e7924	0.20163399
117	0x3e064f11	0.13116099
118	0x3e5e2b1a	0.2169613
119	0x3c3a8a3c	0.011385497
120	0x3e3e1471	0.18562485
121	0x3ecd4f62	0.40099627
122	0xbc892633	-0.016741848
123	0x3d6b4fe9	0.057449255
124	0x3e90ff15	0.28319612
125	0x3ebf4199	0.37354735
126	0xbe585eb8	-0.21129882
127	0xbe3022a9	-0.17200722
128	0xbd21d2f5	-0.039507825
129	0xbe8ce445	-0.27517906
130	0xbf0ee80f	-0.55822843
131	0xbce36077	-0.027755959
132	0x3e0b7d2b	0.13621967
133	0x3ef635d7	0.48087952
134	0x3bb929de	0.005650743
135	0x3d88adac	0.0667375
136	0xbe2c34f6	-0.16817078
137	0x3ee39a5d	0.44453707
138	0xbe2df9e3	-0.16989855
139	0xbd0b4118	-0.033997625
140	0xbe4fb38c	-0.20283335
141	0xbed40d49	-0.41416386
142	0xbefff6d3	-0.49993
143	0xbe47bf77	-0.19506632
144	0x3eddec0f	0.4334416
145	0xbe8a3395	-0.2699248
146	0x3e336330	0.17518306
147	0x3cc46cf0	0.023977727
148	0x3cf9b95a	0.03048389
149	0x3c8d0b48	0.017217293
