examples/rl/experiments_from_paper/experiments_data/trained_models/TiltrotorPlus8DofHoverEnv/DevelopmentalTiltrotorPlus8DofHoverEnv-2/ppo/TiltrotorPlus8DofHoverEnv-v0.pt (torch, 279745 bytes, 16 tensors)

weight f4 [150, 18]
0	0xbee82799	-0.4534271
1	0x3e71d931	0.23618008
2	0x3e0772ee	0.13227436
3	0x3d4ff235	0.050768096
4	0x3db406bf	0.08790349
5	0xbecea9ed	-0.40364018
6	0x3e1bf30f	0.15229438
7	0xbe7df2de	-0.24799678
8	0x3e637c51	0.22215392
9	0x3ebd48f5	0.36969724
10	0x3d94705d	0.07247994
11	0x3e0666e1	0.13125183
12	0xbf18f907	-0.59754986
13	0xbd93e211	-0.07220853
14	0xbe146952	-0.14493302
15	0x3c3e764b	0.011624883
16	0x3e5ff4d3	0.21870737
17	0x3d914e03	0.07094958
18	0x3b58fcc9	0.0033109656
19	0x3e3830cd	0.17987366
20	0x3eef85dc	0.46781814
21	0x3e77f9d1	0.24216391
22	0xbde784fa	-0.1130466
23	0xbc8e29ed	-0.017353976
24	0xbd7ee846	-0.062233232
25	0x3c5ad066	0.01335535
26	0x3dface13	0.12246337
27	0x3e70dfc8	0.23522866
28	0xbda9c6af	-0.08289849
29	0x3e419352	0.18903854
30	0x3d934941	0.071917064
31	0x3e1380db	0.14404623
32	0x3dbd0149	0.09228761
33	0xbdb781dc	-0.089603156
34	0xbec7152c	-0.3888334
35	0x3e24779b	0.16061251
36	0x3da07d4b	0.07836398
37	0xbe658e7c	-0.22417635
38	0x3e1053af	0.14094423
39	0xbd0608de	-0.0327233
40	0x3dd89022	0.10574366
41	0x3e39ffe2	0.18164018
42	0x3e23e4d1	0.16005255
43	0xbc44f34f	-0.0120209
44	0xbdad80b4	-0.08471814
45	0xbdee8c30	-0.116478324
46	0x3e87041c	0.26370323
47	0xbd986235	-0.074406065
48	0x3ed4bf28	0.4155209
49	0xbdc81da8	-0.097712815
50	0x3d8020b3	0.06256237
51	0xbe7ee24b	-0.24891011
52	0x3dec44e9	0.11536581
53	0x3dc26f28	0.094938576
54	0xbd9147cc	-0.07093772
55	0xbd65f75d	-0.056144107
56	0x3e3e0229	0.18555512
57	0xbe310459	-0.17286815
58	0xbdb84293	-0.08997073
59	0x3d6e410e	0.05816751
60	0x3da2578f	0.07926857
61	0x3d9bc49a	0.07605858
62	0x3c33451e	0.010941772
63	0xbd581be4	-0.052760974
64	0x3e884e1a	0.26622087
65	0xbeb6616e	-0.35621208
66	0x3d893732	0.06699981
67	0x3c672988	0.014109023
68	0x3b216df7	0.0024632195
69	0x3e749a32	0.23886946
70	0x3d554aca	0.052073278
71	0xbe0f3569	-0.13985218
72	0x3d2a66cb	0.041601937
73	0x3eb84cfa	0.35996228
74	0x3bf91260	0.0076010674
75	0xbe1bf2db	-0.15229361
76	0xbdc87c8a	-0.09789379
77	0x3df719e7	0.12065487
78	0x3cd5c29f	0.02609378
79	0xbe2bca99	-0.16776504
80	0xbd193b9d	-0.037410367
81	0xbd74c02a	-0.059753574
82	0x3e1be07b	0.15222351
83	0xbeb1d496	-0.34732503
84	0x3def5616	0.116863415
85	0x3dace0a5	0.08441285
86	0xbe92ee45	-0.2869741
87	0xbe26e9ff	-0.163002
88	0xbe2b987d	-0.16757388
89	0xbdd5e7d6	-0.1044461
90	0xbda31185	-0.07962326
91	0xbe0c9a3f	-0.13730715
92	0x3d8b9149	0.0681482
93	0x3de5c258	0.11218709
94	0x3e0ae983	0.1356564
95	0xbd119017	-0.035537805
96	0x3dab30b7	0.08358901
97	0x3da9eaa2	0.08296706
98	0x3ce07560	0.027399719
99	0xbd4b5307	-0.049639728
100	0x3c0bc44f	0.00853069
101	0xbe900201	-0.2812653
102	0x3df95cae	0.1217588
103	0xbe80ae6b	-0.2513307
104	0xbdef4d39	-0.11684651
105	0xbe4218c2	-0.18954757
106	0x3e6b2fe7	0.22967492
107	0xbe326d67	-0.17424546
108	0xbd6fb24d	-0.05851965
109	0xbe276f58	-0.16351068
110	0x3cc5ff4c	0.024169587
111	0xbd1110c7	-0.03541639
112	0x3d7f896a	0.062386908
113	0x3ddb07aa	0.10694821
114	0xbca50aa9	-0.020146685
115	0xbd9ff97a	-0.07811256
116	0xbd5185c5	-0.051152963
117	0xbd50cc77	-0.050976243
118	0xbd6a9ee4	-0.057280436
119	0xbe07fbd8	-0.13279665
120	0x3e32c5e4	0.17458302
121	0x3e618d8a	0.22026649
122	0xbe227b93	-0.15867452
123	0x3c0f2038	0.008735709
124	0x3de63d30	0.11242139
125	0x3b8afa58	0.004241269
126	0x3e1363ae	0.14393494
127	0x3e82c100	0.25537872
128	0x3e63e42e	0.22255012
129	0xbde90b72	-0.11379136
130	0x3d478094	0.048706606
131	0x3de4b13e	0.11166619
132	0x3cc4d128	0.024025515
133	0x3dcd5133	0.10025253
134	0x3c8e4bd1	0.017370136
135	0xbe9b6c7e	-0.3035621
136	0x3e490df3	0.19634227
137	0x3eb6808b	0.35644946
138	0x3e885449	0.26626804
139	0x3e0b606b	0.13611
140	0xbcbf5c30	-0.023359388
141	0xbe98a7b3	-0.29815444
142	0xbe0c4e0c	-0.13701648
143	0x3db89253	0.09012284
144	0xbc870309	-0.01648094
145	0x3e6470dc	0.22308677
146	0xbec32980	-0.381176
147	0xbe36a452	-0.1783612
148	0xbc459494	-0.01205935
149	0xbe038896	-0.12845072
150	0x3e02d474	0.12776357
151	0xbe56ffbe	-0.20995995
152	0xbda2ccdd	-0.07949231
153	0x3c8609d6	0.016362112
154	0x3da5f556	0.08103435
155	0xbe5b4f23	-0.21416907
156	0xbda840c1	-0.08215476
157	0x3ea58f0c	0.323357
158	0x3ddd21d4	0.10797468
159	0xbdc6a817	-0.09700029
160	0x3eb12a5d	0.34602633
161	0xbe906747	-0.28203794
162	0x3dfc6f7b	0.12325951
163	0xbf9506b9	-1.1642677
164	0x3d83e0b5	0.06439344
165	0xbbe6ce12	-0.0070436085
166	0xbe0ea9c8	-0.13931954
167	0xbcd694a3	-0.026193922
168	0xbd834f15	-0.06411568
169	0x3b85fe42	0.004089148
170	0x3d8b7c22	0.06810786
171	0xbe5a6caf	-0.21330522
172	0x3e2a9ad0	0.16660619
173	0x3e667fdd	0.22509713
174	0x3e45cdff	0.19316863
175	0xbe71f1fc	-0.23627466
176	0x3e38d37b	0.18049423
177	0xbded83cc	-0.11597404
178	0xbdeaf3c4	-0.11472276
179	0xbe3c471b	-0.183865
180	0xbccbd258	-0.024880573
181	0x3db105e9	0.086437054
182	0xbe7503ed	-0.23927279
183	0xbdbb77bc	-0.09153697
184	0x3c461d79	0.012091988
185	0xbd0e59db	-0.03475366
186	0xbe1dc20c	-0.15406054
187	0x3bf8a1fa	0.0075876685
188	0x3d3819ce	0.044946484
189	0xbded34af	-0.11582314
190	0xbd00552a	-0.03133122
191	0xbc9b6fff	-0.018974302
192	0xbe59ab81	-0.2125683
193	0x3dac0196	0.0839874
194	0xbe3b80e8	-0.18310893
195	0x3e45c489	0.19313253
196	0x3dc2a63a	0.095043615
197	0xbe519357	-0.20466362
198	0x3e084159	0.13306178
199	0x3ebea672	0.37236363
200	0xbd5374ac	-0.05162494
201	0xbec10f00	-0.37706757
202	0xbd462537	-0.048375335
203	0xbcb9884f	-0.022648005
204	0xbe129f51	-0.14318587
205	0x3ea82eeb	0.32848296
206	0x3e4d9b69	0.20078816
207	0x3e171fd1	0.14758231
208	0xbe75a968	-0.23990405
209	0xbcc472d8	-0.023980543
210	0xbe8ee374	-0.27907908
211	0xbe12216d	-0.14270563
212	0x3dca7def	0.09887301
213	0xbe92c2c7	-0.28664228
214	0xbd2348e6	-0.039864443
215	0xbe8a53bc	-0.2701701
216	0x3e5db4f3	0.21651058
217	0xbf5da269	-0.86575943
218	0xbf093c54	-0.5360768
219	0x3c64f972	0.013975488
220	0x3e2dbcbe	0.1696653
221	0x3d059f8e	0.032622866
222	0xbe44aa40	-0.1920557
223	0x3e347ec5	0.17626484
224	0x3ea323ef	0.31863353
225	0xbc0c8455	-0.008576472
226	0xbeb5334e	-0.35390705
227	0xbeb2f000	-0.3494873
228	0x3dd88d88	0.1057387
229	0xbd980d0d	-0.07424364
230	0xbe5e47d4	-0.21707088
231	0xbde7729e	-0.11301158
232	0x3dbbe109	0.091737814
233	0xbd219202	-0.039445885
234	0xbe8f7240	-0.28016853
235	0xbebb5655	-0.36589304
236	0xbed338a4	-0.4125415
237	0x3d32cf17	0.043654528
238	0x3dbacd95	0.09121243
239	0xbe46af99	-0.19402923
240	0xbd3a5a99	-0.045496557
241	0xbd638c5f	-0.05555379
242	0xbe7e7c85	-0.24852188
243	0xbce97073	-0.028496003
244	0x3e0bfeb0	0.13671374
245	0x3e3b8af4	0.18314725
246	0xbe0d0abc	-0.13773626
247	0xbd9b56ee	-0.0758494
248	0x3bffa938	0.007802155
249	0x3b72b4ea	0.0037034103
250	0x3e27fa00	0.16403961
251	0xbdf7d4b3	-0.12101116
252	0x3e59163b	0.21199887
253	0xbdc1b2f1	-0.094579585
254	0x3e790473	0.24318103
255	0x3cc5701b	0.024101308

bias f4 [150]
0	0xbc046967	-0.0080817705
1	0x3e27891b	0.16360895
2	0xbd95f9b6	-0.07323019
3	0xbe5af751	-0.21383406
4	0xbf2d3e1c	-0.67672896
5	0xbea1347f	-0.31485364
6	0xbe46f9a8	-0.19431174
7	0x3e4830f9	0.19549932
8	0xbbfa9f12	-0.007648357
9	0xbdc904eb	-0.09815391
10	0x3e646896	0.22305521
11	0x3bd1889a	0.006394458
12	0xbd40c141	-0.0470593
13	0x3dee8634	0.11646691
14	0xbe095df1	-0.13414742
15	0x3e01b449	0.1266643
16	0x3e90e6c7	0.2830107
17	0x3dc9ca04	0.098529845
18	0xbd33601b	-0.043792825
19	0xbdd7ddbe	-0.10540341
20	0x3d33d1cb	0.043901246
21	0xbd8f45bf	-0.06995725
22	0xbdd00e11	-0.10158933
23	0xbd88a983	-0.06672957
24	0x3e44e1f3	0.19226818
25	0xbe7bcb13	-0.24589185
26	0x3d1e8f12	0.03871066
27	0x3d8ba473	0.068184756
28	0xbdf7bada	-0.12096186
29	0x3d0c75c8	0.034292012
30	0xbe201a8e	-0.1563513
31	0x3d4f8496	0.050663553
32	0xbe842f97	-0.25817558
33	0x3e4f3a9f	0.20237206
34	0xbe2d3aab	-0.16916911
35	0x3d8640fd	0.06555364
36	0xbe489f8a	-0.1959211
37	0x3d6c9335	0.057757575
38	0xbe24ca8c	-0.1609289
39	0x3e5fe5c4	0.21864992
40	0xbe40c292	-0.18824223
41	0x3da2e555	0.07953898
42	0xbe4acc0a	-0.19804397
43	0xbd503784	-0.050834194
44	0x3cd6354b	0.026148459
45	0xbe684689	-0.22683157
46	0x3de9f61d	0.114238955
47	0xbe630685	-0.22170456
48	0xbe867d25	-0.26267353
49	0xbd1e2eba	-0.03861878
50	0xbcd88fc0	-0.026435733
51	0xbe549acb	-0.20762174
52	0x3e961772	0.29314762
53	0x3e85adc5	0.26109138
54	0xbe3558ca	-0.17709652
55	0x3c3718dd	0.011175361
56	0x3e5e7363	0.21723704
57	0xba7ed9da	-0.00097217935
58	0x3d8b0d97	0.067897014
59	0xbe45cf9c	-0.19317478
60	0x3e675ec8	0.2259475
61	0x3e07d431	0.13264538
62	0x3e2ddacb	0.16977994
63	0xbdf9c168	-0.121950924
64	0xbc84ba12	-0.016202006
65	0xbcda3672	-0.02663729
66	0xbdf744e8	-0.1207369
67	0xbeb1c773	-0.3472248
68	0xbe2d8d53	-0.16948442
69	0xbe78f180	-0.24310875
70	0xbd2ba121	-0.04190171
71	0xbe5e4740	-0.21706867
72	0x3cb8d8b2	0.022564266
73	0x3ebc093a	0.3672579
74	0xbcd34b9c	-0.02579289
75	0x3ca2bfa1	0.019866766
76	0xbe38a33b	-0.18031017
77	0x3e657caa	0.22410837
78	0xba5e5c16	-0.000848235
79	0xbdc34167	-0.09533959
80	0xbdf7faac	-0.12108359
81	0x3c6ad954	0.014334042
82	0x3e4f9166	0.20270309
83	0x3c93e218	0.018052146
84	0x3dcdfc74	0.10057917
85	0x3dd7d58d	0.105387785
86	0x3e9c7f5c	0.30565917
87	0xbd29355f	-0.041310664
88	0x3d498de7	0.049207594
89	0xbeb4b398	-0.3529327
90	0x3de369e3	0.11104181
91	0x3c54b442	0.01298243
92	0x3e596fbb	0.21234028
93	0xbd1faab6	-0.038981162
94	0x3e92b8a9	0.2865651
95	0xbccd567e	-0.025065657
96	0xbe95f40a	-0.2928775
97	0x3e6c2669	0.23061527
98	0x3d6fd60c	0.05855374
99	0xbee21c44	-0.4416219
100	0x3dc0c22e	0.09412037
101	0xbdde7f01	-0.10864068
102	0xbd05b662	-0.032644637
103	0xbe187b37	-0.14890753
104	0xbdbf7cb5	-0.09349958
105	0xbf2232e7	-0.6335892
106	0xbe2698c5	-0.16269214
107	0xbe44b5bb	-0.1920995
108	0x3e439127	0.1909834
109	0x3d6ccfe8	0.057815462
110	0x3cff8e7c	0.031195872
111	0xbefd06f6	-0.49419373
112	0xbe2631d4	-0.16229945
113	0xbdbd71a4	-0.09250191
114	0x3f08ca57	0.53433746
115	0xbd8ecb31	-0.069723494
116	0xbdff4a97	-0.12465399
117	0xbb30c694	-0.002697383
118	0x3e1d297d	0.15347858
119	0x3e6f9420	0.23396349
120	0xbda499d7	-0.08037155
121	0xbd681c87	-0.05666783
122	0x3ddcce83	0.107815765
123	0x3e348c62	0.17631677
124	0x3d4fc680	0.050726414
125	0x3df6b9b3	0.12047138
126	0xbc4e2978	-0.012583129
127	0x3d7cfb60	0.061763167
128	0xbe0b0e06	-0.13579568
129	0x3dc68383	0.096930526
130	0xbe6d2218	-0.23157537
131	0xbdf2b32d	-0.11850581
132	0x3e9f2348	0.31081605
133	0x3e541765	0.2071205
134	0xbd137230	-0.03599757
135	0x3ed436fb	0.41448197
136	0x3e333e37	0.17504202
137	0xbce5d98d	-0.028057838
138	0x3d8d0705	0.068861045
139	0xbc93c476	-0.018038016
140	0xbe470b0b	-0.19437806
141	0xbc245635	-0.010030319
142	0x3e2dac65	0.16960295
143	0xbe97f15e	-0.29676336
144	0x3df7b0a4	0.120942384
145	0xbe2b00f3	-0.16699581
146	0x3cf2cfa6	0.02964003
147	0xbe831f99	-0.25610045
148	0x3e4c0c05	0.1992646
149	0xbe2bfb93	-0.16795187

weight f4 [150, 150]
0	0xbd9d750b	-0.0768834
1	0x3ca355fa	0.019938458
2	0x3c53ab87	0.012919313
3	0x3e99f451	0.3006921
4	0x3ed6a656	0.4192378
5	0xbd1ace91	-0.037794653
6	0x3e216cac	0.15764111
7	0xbe1a5363	-0.15070872
8	0xbd1ab6e8	-0.03777209
9	0xbe57fb13	-0.21091871
10	0x3e0fcd9a	0.14043275
11	0xbea1340a	-0.31485015
12	0x3e1a0ba9	0.1504351
13	0xbe027c41	-0.12742712
14	0x3d06c36a	0.032901205
15	0x3e0f2b9f	0.13981484
16	0xbe819523	-0.25309095
17	0xbd5eccb1	-0.054394428
18	0x3dbc3ced	0.09191308
19	0x3e0636c4	0.13106829
20	0xbd40bd7d	-0.04705571
21	0x3e0bbddd	0.13646646
22	0xbe5c1117	-0.21490894
23	0xbdbc8b18	-0.092062175
24	0xbe92fc3b	-0.28708062
25	0x3e7125c3	0.23549561
26	0x3e528596	0.20558771
27	0x3eb8d751	0.36101773
28	0x3cf4be44	0.029875882
29	0x3de79099	0.11306877
30	0x3e96bde7	0.2944176
31	0xbc6ad408	-0.014332779
32	0x3e0feaf2	0.14054468
33	0xbc9ebddc	-0.019377641
34	0x3caf7263	0.021416849
35	0x3e288f7a	0.16460982
36	0x3db86aa4	0.09004715
37	0xbdef2f6a	-0.116789654
38	0x3c878cbf	0.016546605
39	0x3b015720	0.0019735768
40	0x3e9de8eb	0.30841765
41	0xbd9e147e	-0.07718752
42	0x3e246e47	0.16057692
43	0xbc8863c0	-0.016649127
44	0x3d445d8c	0.047940776
45	0x3e17791e	0.14792296
46	0xbdd3bbb9	-0.1033854
47	0x3ea88a82	0.32918173
48	0x3e6bb2a7	0.23017369
49	0x3e3cdfe2	0.1844478
50	0x3d3b9fa7	0.045806553
51	0x3e4264bf	0.18983744
52	0xbf051fa6	-0.52001417
53	0xbf1094d2	-0.5647708
54	0x3d0672d0	0.032824337
55	0x3e441e27	0.19152127
56	0xbe2cdf64	-0.16882092
57	0x3d0cd02c	0.034378216
58	0xbe688866	-0.22708282
59	0xbe236da8	-0.159598
60	0xbe317b6e	-0.17332241
61	0x3cdef299	0.027215289
62	0xbe03cdcf	-0.12871478
63	0x3e286769	0.16445698
64	0xbcf5f583	-0.030024296
65	0xbde2a7d2	-0.110671654
66	0x3db6fc8c	0.08934888
67	0x3e9f0784	0.3106042
68	0x3c7248c3	0.014787856
69	0x3e8c620f	0.27418563
70	0x3dd8526e	0.10562597
71	0x3d29ddff	0.041471478
72	0x3d80e662	0.06293942
73	0xbec91ab6	-0.3927819
74	0xbe23068f	-0.1592047
75	0xbe00f869	-0.12594761
76	0xbdafa070	-0.08575523
77	0xbe3d0fe1	-0.18463089
78	0xbcb61ef2	-0.022231553
79	0xbdc2eb0a	-0.095174864
80	0x3e91909b	0.28430638
81	0x3d579a7c	0.052637562
82	0x3e11d2fa	0.14240637
83	0x3def3912	0.11680807
84	0xbeace67a	-0.3376959
85	0x3dae9fca	0.08526571
86	0x3c51f317	0.012814305
87	0xbca78791	-0.020450385
88	0xbe27ea1a	-0.16397896
89	0x3ee4096b	0.44538435
90	0xbe52c560	-0.20583105
91	0xbeaf0adc	-0.34187973
92	0xbe2a89f8	-0.16654193
93	0x3dbe2f71	0.092863925
94	0xbed79694	-0.4210707
95	0xbd1d9145	-0.038468618
96	0x3e194c9c	0.1497063
97	0xbe71cb68	-0.2361275
98	0x3e589ae6	0.21152839
99	0x3e86c82b	0.2632459
100	0xbedb8cea	-0.42880946
101	0xbd5c091b	-0.05371962
102	0x3c8798ad	0.016552294
103	0xbdd4c6cc	-0.1038948
104	0x3ebeb22c	0.3724531
105	0x3f12d533	0.57356566
106	0x3e55a733	0.20864563
107	0x3ecc98d3	0.39960346
108	0xbdb513f0	-0.088416934
109	0xbd11dc49	-0.03561047
110	0x3e07187a	0.13192931
111	0x3e20baaf	0.15696214
112	0x3ea2cb77	0.31795856
113	0x3de983a1	0.11402059
114	0xbede9491	-0.43472722
115	0x3dac5aea	0.08415778
116	0x3ec7b757	0.39007065
117	0xbe5183d3	-0.20460443
118	0xbd8bd30a	-0.06827362
119	0xbea8ac8d	-0.32944146
120	0x3c9bd120	0.019020617
121	0x3e592359	0.2120489
122	0xbe543bed	-0.20725985
123	0xbe14054a	-0.14455143
124	0xbe376657	-0.17910133
125	0xbe1b055c	-0.15138763
126	0x3e7677dc	0.2406916
127	0x3dcd06c6	0.100110576
128	0xbdd64cb2	-0.10463847
129	0xbe6a928c	-0.22907466
130	0x3e36f02a	0.17865053
131	0x3d818a6e	0.063252315
132	0xbf1726fe	-0.5904387
133	0xbe35ad19	-0.17741813
134	0x3e8354dd	0.25650683
135	0xbed89ce3	-0.42307195
136	0xbe861836	-0.26190346
137	0xbe638493	-0.22218542
138	0xbe7cda24	-0.24692589
139	0x3e07b481	0.1325245
140	0x3e84d692	0.25944954
141	0x3ea0d913	0.31415614
142	0xbdcfa64e	-0.10139142
143	0x3e12e78a	0.14346138
144	0xbc49a4d6	-0.012307366
145	0x3e651278	0.22370327
146	0x3d064d16	0.03278836
147	0x3e154fdb	0.14581244
148	0xbdc366e4	-0.09541109
149	0x3e5f7763	0.21822886
150	0xbdd8d928	-0.10588294
151	0x3eea8671	0.45805696
152	0x3c330390	0.010926142
153	0x3de13bbb	0.10997721
154	0x3de1dafd	0.11028097
155	0xbeaec788	-0.34136605
156	0xbd88bfef	-0.066772334
157	0x3eb48654	0.35258734
158	0xbe2ccdc1	-0.16875364
159	0x3d881e15	0.06646363
160	0xbe30342c	-0.17207402
161	0xbd8c06e9	-0.068372555
162	0xbe1a7fe9	-0.15087856
163	0xbec6f98c	-0.38862264
164	0x3e458dfc	0.19292444
165	0x3e2117f5	0.15731795
166	0x3d321fb8	0.04348728
167	0xbe962e40	-0.2933216
168	0x3e2542a1	0.16138698
169	0xbcc01ef9	-0.023452269
170	0x3d5f6605	0.054540653
171	0xbc12db41	-0.008963407
172	0x3c881f53	0.016616499
173	0xbe37c5be	-0.17946526
174	0xbdc94363	-0.09827306
175	0x3e46f7a6	0.19430408
176	0x3c5a59ac	0.0133270435
177	0xbdbc72fc	-0.09201619
178	0x3d8913ba	0.06693216
179	0xbcbc2526	-0.022966933
180	0x3df2362a	0.11826737
181	0xbce45d25	-0.027876446
182	0xbd8f158d	-0.06986532
183	0xbccbc5f3	-0.024874663
184	0xbeaba83b	-0.33526787
185	0xbd903928	-0.07042152
186	0xbdf133c2	-0.1177745
187	0x3e77b48e	0.2418997
188	0x3e2af9c0	0.16696835
189	0xbe698862	-0.22805932
190	0x3dc9ec80	0.09859562
191	0xbc2e2c75	-0.010630717
192	0x3a82369f	0.0009934491
193	0xbe802bb5	-0.25033346
194	0x3e42717e	0.18988606
195	0x3de60b57	0.11232632
196	0x3e9268cb	0.28595576
197	0x3d21f5ed	0.039541174
198	0xba9b78e4	-0.001186159
199	0x3eb7fb88	0.3593409
200	0x3ed3bc73	0.41354713
201	0x3dc8b181	0.09799481
202	0xbcd06d7f	-0.025442837
203	0xbe8f3b6b	-0.2797502
204	0xbe761533	-0.24031524
205	0xbec9b1eb	-0.39393553
206	0x3c2b8873	0.010469544
207	0x3dd55e09	0.104183264
208	0xbe65740d	-0.22407551
209	0xbddf7f58	-0.10912961
210	0x3d7d37d4	0.06182082
211	0xbebf38a5	-0.37347904
212	0xbd4dc2b9	-0.05023453
213	0x3e141179	0.1445979
214	0xbe809c9c	-0.25119483
215	0xbdc8e034	-0.09808388
216	0xbc0ba530	-0.0085232705
217	0x3e0a44a3	0.13502745
218	0x3dbf8039	0.093506284
219	0xbe6f5085	-0.2337056
220	0xbd97aaf4	-0.074056536
221	0x3f3c0db0	0.73458385
222	0xbdfa36b1	-0.12217463
223	0x3d7115c0	0.058858633
224	0x3eb835cf	0.35978553
225	0x3d973c7f	0.073845856
226	0xbd5b0bc1	-0.053478006
227	0xbd34c6ce	-0.044134907
228	0xbc547a96	-0.01296868
229	0x3c94111e	0.018074568
230	0x3eef2b0a	0.46712524
231	0x3e0cb56c	0.13741082
232	0xbde22404	-0.11042026
233	0x3e905d52	0.28196198
234	0xbe8e093b	-0.27741417
235	0xbd767864	-0.060173407
236	0x3e4a55eb	0.19759338
237	0xbe9e5c15	-0.30929628
238	0x3f1c6f73	0.6110756
239	0x3e96c289	0.29445294
240	0x3de380a3	0.1110852
241	0x39eb62d5	0.00044896328
242	0x3d25468a	0.040350474
243	0x3c8cd36f	0.017190663
244	0xbc32065a	-0.010865772
245	0xbe48345c	-0.19551224
246	0x3eb7470f	0.357964
247	0x3de4da39	0.11174435
248	0x3cd329f2	0.025776837
249	0xbe412137	-0.18860327
250	0xbe6b007d	-0.22949405
251	0x3e9cc013	0.3061529
252	0xbe82bc0f	-0.25534102
253	0x3e5def0c	0.2167322
254	0xbef4b8b0	-0.47797155
255	0x3d5421e2	0.051790126

bias f4 [150]
0	0xbf0e703c	-0.55640006
1	0xbe18be35	-0.14916308
2	0xbde68073	-0.112549685
3	0x3e4dc2ed	0.2009389
4	0x3e4ecf8d	0.20196362
5	0xbcb3e94a	-0.021961827
6	0x3cedfb11	0.029050382
7	0x3e6f4394	0.23365623
8	0x3c9d7ca6	0.019224476
9	0x3eb01e35	0.34398046
10	0x3e0ee2ab	0.13953654
11	0xbe7d1f47	-0.24718963
12	0x3d20eb6c	0.039287016
13	0xbe3032ce	-0.1720688
14	0xbe215d04	-0.15758139
15	0x3edda89d	0.43292704
16	0x3e9104dc	0.2832402
17	0x3e1d72f6	0.15375885
18	0xbe1d2bd0	-0.15348744
19	0x3ea4f751	0.32219937
20	0xbea8a722	-0.32940012
21	0xbe546b31	-0.20744015
22	0xbde78396	-0.11304395
23	0xbd916d55	-0.071009316
24	0x3ea3771b	0.31926808
25	0x3c5b559e	0.013387112
26	0xbeeece77	-0.46641895
27	0xbe531138	-0.20612037
28	0x3dd177b4	0.1022791
29	0x3e196f46	0.14983854
30	0xbe2bd7c8	-0.16781533
31	0xbc60faf5	-0.013731708
32	0xbe7cc9d3	-0.24686365
33	0x3e0eb853	0.13937502
34	0xbdb90c46	-0.09035544
35	0x3d7aaf3f	0.061202284
36	0xbd053bd7	-0.03252777
37	0x3e05c148	0.13062012
38	0xbea3b1db	-0.3197163
39	0xbde1140a	-0.1099015
40	0xbe40cec4	-0.18828875
41	0x3e7b851a	0.24562493
42	0xbe90bd17	-0.28269264
43	0xbdce3d86	-0.100703284
44	0x3e32f1c1	0.17475034
45	0x3e10f577	0.14156137
46	0x3c949022	0.018135134
47	0xbeb7347c	-0.3578223
48	0xbde61c8a	-0.11235912
49	0x3d3c1418	0.0459176
50	0x3ea0b8cd	0.31390992
51	0x3d776251	0.060396496
52	0x3d2f81d7	0.042848434
53	0xbe70ab98	-0.23502958
54	0xbd8e0720	-0.06934953
55	0xbe04203e	-0.12902924
56	0x3e275e1b	0.16344492
57	0x3bc26ea5	0.0059336
58	0x3e6173aa	0.22016779
59	0x3d38fd6f	0.045163568
60	0x3daf3aba	0.08556123
61	0xbe17ecf1	-0.1483648
62	0x3e8c04c2	0.2734738
63	0x3dd00993	0.10158076
64	0xbb25747e	-0.0025246437
65	0x3d039398	0.03212318
66	0x3ea813df	0.3282766
67	0x3d3127a6	0.043250702
68	0xbe014d47	-0.12627135
69	0x3e17020d	0.14746876
70	0xbe108f8b	-0.14117257
71	0x3cf23412	0.029565845
72	0xbb7c807c	-0.003852873
73	0xbea36ee5	-0.31920543
74	0x3e421b25	0.18955667
75	0x3d46ac24	0.04850401
76	0x3e0df4e7	0.13862954
77	0x3e1918ef	0.14950918
78	0xbec8e577	-0.39237568
79	0x3b084d24	0.0020797933
80	0x3bbdb7d0	0.0057897344
81	0x3e1c4aad	0.15262862
82	0x3e0204b1	0.12697102
83	0xbd0f0ad1	-0.034922425
84	0x3c8cd672	0.0171921
85	0x3a6f1bfd	0.0009121297
86	0xbe90e0c4	-0.28296483
87	0x3d3b3cf7	0.045712437
88	0x3e0644d7	0.13112198
89	0x3e129750	0.14315534
90	0xbdd2adec	-0.10287079
91	0xbd32d587	-0.043660667
92	0xbdcba156	-0.09942882
93	0xbdc3d297	-0.09561651
94	0xbcc43f1a	-0.02395587
95	0xbe02adf3	-0.12761669
96	0x3e6a773b	0.22897045
97	0xbd34651b	-0.044041734
98	0x3c380571	0.011231766
99	0xbc4cd7a4	-0.012502585
100	0x3ee95b87	0.45577642
101	0xbe3c6db4	-0.18401223
102	0xbbcf372f	-0.006323717
103	0xbe135d32	-0.1439102
104	0xbe03187c	-0.12802309
105	0x3c642794	0.013925452
106	0x3e5f1640	0.21785831
107	0xbd896632	-0.06708945
108	0xbca7d5f8	-0.02048777
109	0xbd4f3ef3	-0.050597142
110	0xbd97a748	-0.07404953
111	0xbcdd9fa3	-0.02705366
112	0xbdce35fe	-0.10068892
113	0xbcdf8d38	-0.027289018
114	0x3ded1878	0.11576933
115	0x3de2d124	0.11075047
116	0xbf07792f	-0.52919286
117	0xbe4f56c5	-0.20247944
118	0x3c89192e	0.01673564
119	0x3e298c54	0.16557437
120	0xbd7a4a39	-0.06110594
121	0x3c94da4a	0.018170495
122	0xbe255903	-0.16147237
123	0xbe691bd1	-0.22764517
124	0x3e1d35cc	0.15352553
125	0xbde4c1b7	-0.11169761
126	0xbe5ada8f	-0.21372436
127	0xbe82f58d	-0.25577965
128	0x3e073880	0.13205147
129	0x3d4c017a	0.049806096
130	0x3ca06265	0.019578168
131	0xbe52fc80	-0.20604134
132	0x3e3b556a	0.18294302
133	0x3efde616	0.49589604
134	0xbd2d6e66	-0.042341612
135	0xbda1b9cc	-0.07896766
136	0x3e0d50d3	0.13800363
137	0x3c593f82	0.01325977
138	0xbe3b4b72	-0.18290499
139	0xbbd3c0ff	-0.006462216
140	0x3d2ac8ca	0.041695394
141	0x3db56489	0.08857066
142	0x3ccce45b	0.025011232
143	0xbeb5526f	-0.35414454
144	0x3ebfa612	0.3743139
145	0xbe3178e6	-0.17331275
146	0x3e2a02b4	0.16602594
147	0x3c6062fe	0.013695477
148	0x3d0367fd	0.032081593
149	0x3d80f372	0.062964335

weight f4 [64, 4]
0	0x3ed763f0	0.42068434
1	0xbc83e4d6	-0.016100328
2	0x3e2591ec	0.16168946
3	0x3dcb8b87	0.09938722
4	0x3e81731a	0.25283128
5	0x3eb0704e	0.34460682
6	0xbe4afb21	-0.1982236
7	0xbe94e1e6	-0.29078597
8	0x3e788d87	0.24272738
9	0x3d7b86ef	0.06140798
10	0xbe1220f6	-0.14270386
11	0xbea44c83	-0.32089624
12	0xbe8b5e43	-0.27220353
13	0xbe92da76	-0.28682297
14	0x3d819f99	0.06329269
15	0x3e8d5911	0.27607015
16	0xbebc3f94	-0.36767256
17	0xbf0d09cb	-0.5509307
18	0x3e1025ba	0.14076892
19	0x3efd7bc5	0.4950849
20	0x3e5222a1	0.20521022
21	0x3dd3a4f1	0.103341945
22	0x3f1d1cef	0.61372274
23	0xbe941c2b	-0.2892774
24	0xbe9f6a4a	-0.3113578
25	0x3ec6bc2f	0.38815448
26	0xbe2ce127	-0.16882764
27	0xbe1b1576	-0.15144905
28	0x3d9d4bc0	0.07680464
29	0xbdf31f37	-0.11871188
30	0x3dfc2871	0.12312401
31	0xbede53b4	-0.43423235
32	0x3e1cad29	0.1530043
33	0x3e2e6026	0.17028865
34	0xbe6262ee	-0.22108051
35	0x3e947f3f	0.2900333
36	0xbddb099a	-0.10695191
37	0x3e72d280	0.23713112
38	0x3e522673	0.2052248
39	0xbdf3c28c	-0.11902341
40	0x3dbc22b3	0.09186306
41	0xbdc837dc	-0.09776279
42	0xbdd2be95	-0.10290257
43	0xbebebdfa	-0.37254316
44	0x3e370189	0.1787168
45	0x3ebbfb01	0.36714938
46	0x3e6bdf4a	0.23034397
47	0x3d80a3a7	0.06281214
48	0x3e43eff7	0.19134508
49	0xbdec8388	-0.11548525
50	0xbc9c6e4a	-0.019095559
51	0x3f138fb7	0.57641166
52	0xbd01e5ce	-0.0317133
53	0xbe343a72	-0.1760042
54	0x3d49a3bb	0.04922841
55	0x3e3797af	0.17928956
56	0x3ed411c8	0.41419816
57	0x3e561435	0.20906146
58	0x3d976306	0.07391934
59	0xbd805d45	-0.0626779
60	0xbe9dbd44	-0.3080846
61	0xbf148b19	-0.58024746
62	0xbe652495	-0.22377236
63	0x3e95dcb0	0.29269934
64	0x3f014cfb	0.5050809
65	0xbeacde09	-0.3376315
66	0xbe10efd7	-0.14153992
67	0x3e05095f	0.12991856
68	0xbe92f8bc	-0.28705394
69	0x3ebbd9cd	0.36689606
70	0xbe8ff98e	-0.28120083
71	0xbe9d18b0	-0.30682898
72	0xbe896d46	-0.26841182
73	0x3d8cb723	0.06870868
74	0x3edd561d	0.43229762
75	0xbe3d264b	-0.18471639
76	0xbeae221c	-0.34010398
77	0xbcd974f0	-0.026545018
78	0xbeb529e8	-0.35383534
79	0x3eccdc1e	0.40011686
80	0x3de661ca	0.112491205
81	0xbe6fb2a0	-0.23407984
82	0x3e33c272	0.17554644
83	0xbded7254	-0.11594072
84	0x3e28a561	0.16469337
85	0x3ea3871e	0.31939024
86	0x3d8a9f71	0.06768692
87	0xbe40cc32	-0.18827894
88	0x3dca2c11	0.09871686
89	0xbe248891	-0.16067721
90	0x3eb96b37	0.3621461
91	0x3d8d06a2	0.06886031
92	0x3e54a9b2	0.20767859
93	0x3ea4a727	0.32158777
94	0x3e9059c8	0.28193498
95	0xbe910f57	-0.28332016
96	0x3e5f920a	0.21833053
97	0xbe7f556c	-0.2493493
98	0x3ca89e2d	0.020583237
99	0x3e1c5ab6	0.15268978
100	0xbe58fded	-0.21190615
101	0xbe3409db	-0.17581885
102	0xbe720409	-0.23634352
103	0x3edfd09f	0.43713853
104	0xbec2f995	-0.3808104
105	0xbcc8d136	-0.024513822
106	0xbe29cc5e	-0.16581866
107	0x3dc07690	0.09397614
108	0x3d718ea4	0.058973923
109	0x3d26e681	0.04074717
110	0x3e37abda	0.1793665
111	0xbd6e49a5	-0.0581757
112	0xbf457873	-0.77136916
113	0x3dcca03a	0.09991498
114	0x3d943748	0.072371066
115	0x3dec4465	0.11536483
116	0xbe2bf7e7	-0.16793786
117	0x3f1e258b	0.61776036
118	0xbd031791	-0.032004897
119	0x3d839f0b	0.064268194
120	0x3dea87e2	0.11451699
121	0x3e0d84da	0.1382021
122	0xbea3fa92	-0.32027107
123	0xbf246535	-0.6421693
124	0xbf02edf2	-0.51144326
125	0xbe4f75b6	-0.20259747
126	0xbdb972e4	-0.09055117
127	0xbe0dadee	-0.1383588
128	0x3e14f78e	0.1454756
129	0x3ea2130a	0.3165515
130	0x3e928b6c	0.28621995
131	0xbd3e9290	-0.04652649
132	0x3dc31d3c	0.095270604
133	0x3e832078	0.2561071
134	0x3d975f39	0.07391209
135	0xbe703b49	-0.23460115
136	0x3d5ef58a	0.054433383
137	0xbe99de78	-0.30052543
138	0x3ee283cb	0.44241175
139	0xbda5b1c5	-0.080905475
140	0x3e622a09	0.22086348
141	0xbd8a926f	-0.06766211
142	0x3d603839	0.054741118
143	0x3e96bbab	0.29440054
144	0xbf3db488	-0.74103594
145	0x3da97d59	0.08275861
146	0xbe18518a	-0.14874855
147	0x3d5882d5	0.052859146
148	0x3eb8281e	0.35968107
149	0xbed59333	-0.41713867
150	0x3d95b94a	0.07310732
151	0xbef11c8f	-0.470921
152	0x3d73f188	0.059556514
153	0xbe46309d	-0.19354482
154	0x3f232c58	0.6373954
155	0xbe48c621	-0.1960683
156	0xbc511795	-0.01276197
157	0xbe056a21	-0.13028766
158	0x3e5f86fd	0.21828838
159	0x3f09f477	0.5388865
160	0xbf2ecb98	-0.6827941
161	0x3f080812	0.53137314
162	0x3d5a5d47	0.053311612
163	0xbe8fc500	-0.28079987
164	0xbeafdc51	-0.34347776
165	0x3e7418a5	0.23837526
166	0xbe5150d9	-0.20440997
167	0xbdda6a34	-0.10664788
168	0xbe79eead	-0.24407454
169	0x3d902a03	0.07039263
170	0xbee20bba	-0.44149572
171	0xbe04bf0d	-0.12963505
172	0x3e84fee9	0.2597573
173	0xbee4b8cf	-0.44672248
174	0xbd95fa93	-0.07323184
175	0x3a12fae9	0.00056068465
176	0xbf101f70	-0.5629797
177	0xbe340269	-0.17579044
178	0xbd89dc99	-0.06731529
179	0x3e86e5b2	0.2634712
180	0x3e9f5ec1	0.3112698
181	0x3ea3cd06	0.31992358
182	0xbe690d06	-0.22758874
183	0x3d867ec5	0.06567148
184	0x3ed4f00b	0.41589388
185	0xbda9b703	-0.0828686
186	0xbedf3160	-0.43592358
187	0xbe93161c	-0.28727806
188	0x3cf1ea1b	0.029530575
189	0xbe1fbbfb	-0.15599053
190	0x3eefcd02	0.46836096
191	0x3e79ab00	0.24381638
192	0xbd903a3e	-0.07042359
193	0x3ecc74b2	0.3993278
194	0x3ec1c7d0	0.37847757
195	0xbe9351cb	-0.2877334
196	0x3deb3420	0.114845514
197	0xbe92f551	-0.28702787
198	0x3e511dcf	0.20421527
199	0x3ea3a7ee	0.31964058
200	0x3e26a4f6	0.16273865
201	0xbed1a7e1	-0.40948394
202	0x3e65e313	0.22449903
203	0xbed4eee9	-0.41588524
204	0xbeb340d2	-0.3501039
205	0x3e316983	0.17325406
206	0x3ecd7af6	0.40132874
207	0x3e8746c7	0.26421186
208	0x3e7e014d	0.24805184
209	0x3e53c2c0	0.2067976
210	0xbe931830	-0.2872939
211	0xbe7409dc	-0.23831886
212	0xbd9f02d4	-0.07764211
213	0xbd78fd98	-0.06078872
214	0xbe8cc233	-0.27491912
215	0x3ee9602f	0.45581195
216	0x3e9a74fa	0.3016737
217	0xbda2ae57	-0.07943409
218	0x3e775d33	0.24156646
219	0xbe7e1699	-0.24813308
220	0xbc95a914	-0.0182691
221	0x3e182829	0.1485907
222	0x3de2c374	0.11072436
223	0xbeba2a6f	-0.363605
224	0xbe81aa88	-0.25325418
225	0x3e4be185	0.19910248
226	0x3eb2e001	0.34936526
227	0xbe8bf24d	-0.27333298
228	0x3e9648cd	0.29352418
229	0x3eaaddf0	0.3337245
230	0x3e918682	0.28422934
231	0x3e84502a	0.2584241
232	0x3e92b4f6	0.28653687
233	0xbe7c71f8	-0.2465285
234	0x3e6ed9dc	0.23325294
235	0x3dce50b6	0.10073988
236	0xbd87155f	-0.06595873
237	0xb952fec6	-0.00020122071
238	0x3d956a70	0.07295692
239	0xbe835972	-0.2565418
240	0xbea6b107	-0.32556936
241	0x3e2ffb85	0.17185791
242	0xbec40937	-0.3828828
243	0xbe1c7f36	-0.15282902
244	0xbdb152da	-0.08658381
245	0x3dfb2542	0.12262966
246	0x3eb0b7f2	0.3451534
247	0x3e4022b2	0.18763235
248	0x3df4cce2	0.11953141
249	0xbe7e58a3	-0.248385
250	0x3e19b0ff	0.15008925
251	0x3e6d8240	0.23194218
252	0xbec4f71d	-0.38469782
253	0x3dc291bb	0.09500452
254	0x3ec8a3ca	0.3918746
255	0xbe047f93	-0.1293929

bias f4 [64]
0	0xbd945c96	-0.07244222
1	0x3cdeb7be	0.027187224
2	0x3d87f388	0.06638247
3	0xbcb95eac	-0.02262815
4	0xbd923070	-0.07138145
5	0xbdf53f36	-0.11974947
6	0x3d45efc9	0.04832438
7	0xbccac8d7	-0.024753971
8	0x3d21d9fb	0.039514523
9	0xbd506af5	-0.050883252
10	0x3c287cc1	0.01028365
11	0xbd06107b	-0.03273056
12	0xbb8a63a2	-0.004223303
13	0xbca83306	-0.020532142
14	0x3c1809e7	0.009279705
15	0x3d6c6f5a	0.05772338
16	0x3d0324a3	0.03201736
17	0x3d22cfe5	0.039749045
18	0xbda28aea	-0.07936652
19	0x3d131283	0.035906326
20	0xbd44809c	-0.047974214
21	0xbce8ce77	-0.028418763
22	0xbda72724	-0.08161762
23	0xbd05d174	-0.032670453
24	0xbcba47a6	-0.022739243
25	0x3c39acd2	0.0113327075
26	0x3cccf791	0.025020393
27	0xbd5ca9c0	-0.053872824
28	0xbcc705b0	-0.024294704
29	0x3d0ff019	0.035141084
30	0x3dbcffa7	0.09228449
31	0xbd442141	-0.047883276
32	0xbcd217b6	-0.025646072
33	0x3c0781e3	0.0082707135
34	0xbd7cfa3d	-0.061762083
35	0xbc792b32	-0.0152080525
36	0xbc1ddde3	-0.009635421
37	0x3bd4da7d	0.0064957724
38	0xbda5194f	-0.08061468
39	0xbc43626e	-0.011925323
40	0xbcbf7ad9	-0.023374008
41	0x3d4e7541	0.05040479
42	0x3d4b060a	0.049566306
43	0xbd42f617	-0.04759797
44	0xbc255097	-0.010090015
45	0x3d1b48bb	0.037911158
46	0x3dd47f15	0.103758015
47	0xbd91ef49	-0.07125718
48	0xbd83f915	-0.06443993
49	0xbd9a6a93	-0.07539859
50	0xbd702c71	-0.058636133
51	0xbd88f221	-0.066868074
52	0x3d5f05f0	0.05444902
53	0x3c5f44e9	0.013627269
54	0xbc941508	-0.018076435
55	0x3caa0607	0.020754827
56	0xbd76596b	-0.06014387
57	0xbbb94652	-0.005654135
58	0xbd5da3cc	-0.054111287
59	0xbcc22946	-0.023701321
60	0x3dc47c3a	0.09594007
61	0xbdb4d744	-0.08830121
62	0xbd5fd683	-0.054647934
63	0xbd8c6672	-0.068554774

weight f4 [64, 214]
0	0x3c0baeb3	0.008525538
1	0x3e2da6ce	0.16958162
2	0x3db437ab	0.0879968
3	0xbd8af0ea	-0.06784232
4	0x3c0eb82b	0.008710901
5	0xbc68337e	-0.014172433
6	0x3d476eae	0.048689537
7	0x3d635b60	0.055507064
8	0x3dc7151a	0.09720822
9	0x3daf3258	0.08554524
10	0xbbe37a15	-0.0069420435
11	0xbddb9a80	-0.10722828
12	0x3e0dcfbc	0.13848776
13	0xbd47c7e6	-0.048774622
14	0xbd1b2bdb	-0.03788362
15	0x3dc92004	0.098205596
16	0xbe46adff	-0.19402312
17	0xbe827f92	-0.25487953
18	0x3dfc0f04	0.123075515
19	0xbe1f5aec	-0.15562028
20	0x3d80bf6e	0.06286512
21	0x3cc9545b	0.024576357
22	0xbe2c06b9	-0.1679944
23	0x3d06012f	0.032715973
24	0xbe1b795e	-0.15183017
25	0x3e5e07a5	0.21682604
26	0xbd611fe0	-0.05496204
27	0xbd6e85ac	-0.05823295
28	0x3e22118c	0.15827006
29	0x3e1d9768	0.15389788
30	0xbc40ed29	-0.011775293
31	0xbe8173dc	-0.25283706
32	0xbdca111f	-0.09866547
33	0x3d58cdfc	0.052930817
34	0x3e199f0b	0.15002076
35	0xbd88acea	-0.06673606
36	0xbd8b0a7f	-0.06789111
37	0xbe2cbdaa	-0.16869226
38	0x3cc49852	0.023998413
39	0x3db1ac84	0.08675483
40	0xbd1b091d	-0.037850488
41	0xbcb59687	-0.022166504
42	0xbdaef346	-0.085424945
43	0xbc14f257	-0.009090981
44	0xbe2b9427	-0.16755734
45	0x3dc3c51c	0.0955908
46	0xbc89558a	-0.016764421
47	0x3dc19feb	0.0945433
48	0x3d874f0e	0.06606875
49	0xbd953d2d	-0.07287059
50	0xbd853803	-0.06504824
51	0xbc3fe844	-0.011713091
52	0x3d15ec56	0.03660234
53	0xbd8e0554	-0.0693461
54	0x3d828580	0.06373119
55	0xbccbc972	-0.02487633
56	0x3e128e4b	0.14312093
57	0x3c4dfeee	0.012572987
58	0xbd99ca2c	-0.07509264
59	0xbd663af1	-0.056208555
60	0xbd8b5794	-0.068038136
61	0xbca064bd	-0.019579286
62	0xbd439f42	-0.047759302
63	0xbd826648	-0.06367165
64	0xbe571919	-0.21005668
65	0xbd516dec	-0.05113022
66	0x3c9db5df	0.019251762
67	0xbe32ab06	-0.17448053
68	0x3e1f6374	0.15565282
69	0xbe144ed1	-0.14483191
70	0xbd83ddf9	-0.06438822
71	0x3e14c14a	0.14526859
72	0xbdb09074	-0.08621302
73	0xbc3caace	-0.011515332
74	0xbd9ddf72	-0.077086344
75	0xbe838631	-0.25688317
76	0xbd6f851c	-0.058476552
77	0x3c8489e1	0.016179027
78	0x3d08446f	0.03326839
79	0xbd656af2	-0.056010194
80	0x3df40938	0.11915821
81	0x3dbd1e5e	0.09234308
82	0xbca182fa	-0.019715775
83	0x3d9d6e9c	0.07687113
84	0x3d85a862	0.06526257
85	0x3c11ce90	0.008899346
86	0x3e325cef	0.17418264
87	0xbda060f6	-0.07830994
88	0x3cdd98ad	0.02705034
89	0x3e232fe0	0.15936232
90	0x3deb527c	0.11490342
91	0xbcb27773	-0.021785473
92	0xbdc06fa0	-0.09396291
93	0xbd38b8ee	-0.045098238
94	0x3e698211	0.22803523
95	0xbd3ef80d	-0.04662328
96	0xbe41bd96	-0.18919978
97	0xbc8b344f	-0.016992716
98	0x3e821a0c	0.25410497
99	0xbd943d2e	-0.072382316
100	0x3d821f89	0.06353671
101	0x3e5940cf	0.21216129
102	0xbde3546e	-0.11100088
103	0xbd59731a	-0.053088285
104	0x3dc9cd5a	0.09853621
105	0xbe1ff92e	-0.15622398
106	0xbdf24aa1	-0.118306406
107	0xbe18c5ce	-0.14919207
108	0x3e01c5c5	0.126731
109	0x3dc3b2a0	0.095555544
110	0xbe322c3c	-0.17399687
111	0xbd9a9802	-0.075485244
112	0x3d4db6c5	0.05022313
113	0xbd950efc	-0.07278249
114	0x3e8866dc	0.26640975
115	0xbde9c65c	-0.11414787
116	0x3d338d3d	0.043835867
117	0x3ded539a	0.11588211
118	0x3dfc8dfa	0.123317674
119	0x3daa59f7	0.08317941
120	0xbe5fc76b	-0.21853416
121	0xbdc34ba4	-0.09535912
122	0xbdcef846	-0.10105948
123	0xbe4862c4	-0.19568926
124	0x3b03aabd	0.0020090782
125	0xbe0dd40f	-0.13850425
126	0xbdd00ef7	-0.10159104
127	0xbe091115	-0.13385423
128	0x3c8612d3	0.016366398
129	0xbd6e7db6	-0.058225356
130	0x3d8536e4	0.0650461
131	0x3d955a37	0.07292598
132	0x3d363cef	0.044491705
133	0xbccfab48	-0.025350228
134	0x3d7e83cd	0.062137414
135	0x3d9becde	0.07613538
136	0xbe2ea082	-0.17053416
137	0x3d4aac77	0.04948088
138	0x3e3c9e6f	0.18419813
139	0xbe504e82	-0.20342448
140	0xbc32621b	-0.010887648
141	0xbb2231ec	-0.0024748994
142	0xbd068828	-0.032844692
143	0x3c801b22	0.015637938
144	0xbe515991	-0.20444323
145	0xbcdaeb2e	-0.02672347
146	0xbe550a40	-0.20804691
147	0x3e2950f6	0.1653479
148	0x3e276075	0.16345389
149	0xbd1752d6	-0.036944233
150	0xbe0dc64f	-0.1384518
151	0x3e046562	0.129293
152	0x3e42cae4	0.19022709
153	0xbd13ebce	-0.036113553
154	0xbe041167	-0.12897263
155	0xbe026c68	-0.12736666
156	0x3d52754b	0.05138139
157	0xbe16bc97	-0.14720379
158	0x3ca2456c	0.019808494
159	0xbd91d282	-0.07120229
160	0x3ba1db5a	0.004939479
161	0xbd9e74c5	-0.07737116
162	0xbc9ae637	-0.018908603
163	0x3cfaebd4	0.03063003
164	0x3d7f7e1a	0.06237612
165	0x3e559629	0.20858063
166	0x3d982e4b	0.07430705
167	0x3cb25963	0.021771139
168	0xbe35f457	-0.1776899
169	0x3e600164	0.2187553
170	0xbe0cc567	-0.13747178
171	0xbd836dad	-0.06417403
172	0xbe8fc8e2	-0.2808295
173	0x3d85139c	0.06497881
174	0xbe1c8d5e	-0.15288302
175	0x3e61f88c	0.2206747
176	0x3e10aac9	0.1412765
177	0xbe57b1fe	-0.21063992
178	0xbc66a8be	-0.014078317
179	0xbd464cef	-0.048413213
180	0xbdb0df2a	-0.08636315
181	0x3dc55e54	0.09637132
182	0xbdf85eee	-0.121274814
183	0xbce60e5f	-0.028083025
184	0xbe5f1c3e	-0.21788117
185	0x3c0f803a	0.008758599
186	0x3c9147d7	0.017734451
187	0xbe4c19b6	-0.19931683
188	0xbdc23898	-0.09483451
189	0x3e0fa305	0.14027031
190	0x3dc37681	0.09544087
191	0x3dc886fe	0.09791373
192	0x3e033138	0.12811744
193	0x3d4cb282	0.049974926
194	0x3e57dd59	0.21080531
195	0x3e4ae402	0.1981354
196	0x3e1c6e88	0.1527654
197	0xbe09d79c	-0.13461155
198	0xbe61d71f	-0.22054718
199	0xbe13c788	-0.14431584
200	0xbe58bc5b	-0.21165602
201	0xbe5a329a	-0.21308365
202	0x3dc2ebc2	0.095176235
203	0x3db8ce68	0.09023744
204	0xbebca305	-0.36843124
205	0xbcd64d9a	-0.02616005
206	0xbdef774c	-0.11692676
207	0x3df0291e	0.117265925
208	0xbe228dd5	-0.15874417
209	0xbe13ccf1	-0.14433648
210	0x3dfb9b17	0.122854404
211	0xbd655efd	-0.05599879
212	0xbe7611d7	-0.24030243
213	0xbe013824	-0.12619072
214	0x3e685eba	0.22692385
215	0xbc346b3a	-0.011011893
216	0xbda8cf4e	-0.08242665
217	0xbcb7cec5	-0.022437463
218	0x3d68f7a5	0.056876797
219	0xbe297bba	-0.16551104
220	0x3b8b89e8	0.004258383
221	0x3d8029bd	0.06257961
222	0xbe090486	-0.13380632
223	0xbe9823bd	-0.29714766
224	0x3e1b7b9e	0.15183875
225	0xbd471abf	-0.04860949
226	0x3d9eb0fb	0.077486
227	0x3de55e20	0.111995935
228	0x3e4de862	0.20108178
229	0xbd7ba96a	-0.061440863
230	0xbd6720d6	-0.0564278
231	0x3dabcfc1	0.08389235
232	0x3e3d7938	0.18503273
233	0xbdce9def	-0.10088717
234	0xbdde7f86	-0.10864167
235	0xbe6372b3	-0.22211723
236	0xbe232d17	-0.15935169
237	0x3d94df06	0.07269101
238	0xbe04bd09	-0.12962736
239	0x3d956404	0.07294467
240	0x3da1b2f6	0.07895462
241	0x3c19a809	0.009378442
242	0xbe175083	-0.14776807
243	0xbd90444c	-0.070442766
244	0x3dd1b957	0.10240429
245	0x3d8601a0	0.06543279
246	0x3db4696e	0.088091716
247	0xbd4a3669	-0.049368296
248	0xbbe8d01c	-0.0071048867
249	0xbdde380f	-0.10850536
250	0xbe09128c	-0.13385981
251	0x3db7e9bc	0.08980128
252	0x3ab97178	0.0014148196
253	0x3dcd9fb3	0.10040226
254	0xbdfd3784	-0.123641044
255	0x3d922134	0.07135239

bias f4 [64]
0	0x3d2e61d2	0.042573757
1	0xbc817310	-0.015801936
2	0x3c165375	0.009175171
3	0xbd30b891	-0.043144766
4	0xbcf2be86	-0.029631864
5	0x3c44b124	0.012005124
6	0xbd79d2b6	-0.060991965
7	0x3d9b5a2b	0.075855576
8	0xbd0083c7	-0.031375673
9	0x3c291593	0.010320085
10	0xbd93c809	-0.07215888
11	0xbd7d2f74	-0.061812833
12	0x3a78b372	0.00094871887
13	0xbc561e5b	-0.013068761
14	0x3d57590c	0.052575156
15	0xbd333028	-0.043747097
16	0x3c2fdaa9	0.010733285
17	0xbd2ee1f3	-0.04269595
18	0x3c5b2821	0.013376267
19	0x3d402ff0	0.046920717
20	0x3d0ee7fb	0.034889203
21	0x3d385092	0.044998713
22	0xbd83e3ef	-0.06439959
23	0x3d9625f6	0.07331459
24	0x3db356ea	0.08756812
25	0xbdacfc7c	-0.08446595
26	0xbd5f2c13	-0.05448539
27	0xbd3bdd66	-0.04586544
28	0x3d576248	0.052583963
29	0x3d5ad206	0.05342295
30	0x3d4355d8	0.04768929
31	0x3d4e21a1	0.05032504
32	0x3d24cb17	0.040232744
33	0x3abce6be	0.0014412028
34	0x3d2645ff	0.040594097
35	0xbc84c557	-0.01620738
36	0xba967962	-0.0011480267
37	0xbda62d1d	-0.081140734
38	0x3b295188	0.002583595
39	0xbc47548a	-0.012166152
40	0xbc14deb8	-0.009086303
41	0x3d11f3a7	0.035632756
42	0xbd0777bd	-0.033073176
43	0xbe104bde	-0.14091441
44	0x3d165e6b	0.036711138
45	0x3c1039bf	0.00880283
46	0xbc851c1c	-0.016248755
47	0x3d1363bd	0.03598379
48	0x3b96f4af	0.0046068053
49	0x3bd997a7	0.006640393
50	0x3db0a6a5	0.08625535
51	0xbc640cf6	-0.013919106
52	0x3d85e2d5	0.065374054
53	0x3dc414f0	0.09574306
54	0xbdb72bf0	-0.08943927
55	0xbdd34475	-0.103157915
56	0xbc27320a	-0.010204801
57	0x3bd684a3	0.0065465732
58	0xbc494ae1	-0.012285919
59	0xbd6ddd96	-0.05807265
60	0xbc9edfdf	-0.01939386
61	0x3d2fdec8	0.04293707
62	0x3bed04b5	0.007233227
63	0x3b455ef3	0.0030116409

weight f4 [150, 22]
0	0xbd06eb58	-0.032939285
1	0xbd6df6a0	-0.058096528
2	0x3e1a252b	0.15053241
3	0xbd6748ca	-0.0564659
4	0x3d2f8d38	0.042859286
5	0xbdc89c8b	-0.09795483
6	0x3d01ea81	0.03171778
7	0x3d2026dd	0.039099563
8	0x3c5998c6	0.013281053
9	0x3d83f8b1	0.064439185
10	0x3ca7443e	0.020418283
11	0x3e21952a	0.15779558
12	0xbcc8a975	-0.024494866
13	0xbb39f524	-0.0028374875
14	0x3e010569	0.1259972
15	0x3d34117c	0.043961987
16	0x3d265d88	0.040616542
17	0xbb68e07b	-0.0035534191
18	0xbd9202a8	-0.07129413
19	0x3b9419b6	0.0045196665
20	0xbc7809e8	-0.015139081
21	0x3cd73013	0.02626804
22	0xbe864bb7	-0.2622964
23	0xbe666853	-0.22500734
24	0xbe3699a2	-0.17832044
25	0xbbe90f47	-0.007112417
26	0xbe3057e9	-0.17221035
27	0xbe07fec9	-0.13280787
28	0x3ccc4721	0.02493626
29	0xbd95154c	-0.07279453
30	0xbe3daa2f	-0.18521951
31	0x3db38d0b	0.08767136
32	0x3df5f94c	0.1201044
33	0xbdfa7ab3	-0.12230434
34	0xbe925c0b	-0.28585848
35	0xbe25d9bb	-0.16196339
36	0xbeb5db1a	-0.35518724
37	0x3e9cd1be	0.3062877
38	0x3c193991	0.009352104
39	0x3ee887a5	0.4541599
40	0x3d8622ee	0.06549631
41	0x3de04204	0.109500915
42	0xbe9a78bc	-0.30170238
43	0x3d34626b	0.04403917
44	0xbd439d76	-0.04775759
45	0xbd98bf17	-0.074583225
46	0x3ea88021	0.32910255
47	0xbbd02958	-0.006352585
48	0xbd05b348	-0.03264168
49	0x3d767487	0.060169723
50	0xbc858564	-0.016298957
51	0x3dd00f46	0.10159163
52	0x3dc671a3	0.09689643
53	0xbde13642	-0.10996677
54	0x3d90e813	0.07075515
55	0x3d8a83b5	0.067634024
56	0x3d50afd7	0.050948944
57	0xbdbd0ca3	-0.09230926
58	0xbd759a7b	-0.059961777
59	0x3a1575e6	0.0005701467
60	0xbd08100f	-0.03321844
61	0xbdda2f0a	-0.10653503
62	0x3d7650fd	0.06013583
63	0x3d6f96da	0.058493473
64	0xbd9a5de4	-0.075374395
65	0x3d76a85c	0.060219154
66	0x3d975055	0.07388369
67	0x3d9fe8aa	0.07808049
68	0xbd11f4b2	-0.03563375
69	0xbdc83ad6	-0.09776847
70	0xbd818b96	-0.06325452
71	0x3da9ca29	0.08290512
72	0xbe80b327	-0.25136682
73	0xbd4d64b9	-0.050144885
74	0xbda779f4	-0.081775576
75	0x3cdadfaf	0.026717989
76	0xbdcfa080	-0.10138035
77	0xbd82eded	-0.06393037
78	0x3e1f0a51	0.15531279
79	0x3df3c28a	0.1190234
80	0x3c26fc09	0.010191926
81	0xbd038897	-0.032112684
82	0xbdd76495	-0.105172314
83	0xbe8ed690	-0.27898073
84	0x3dd57d6b	0.10424312
85	0xbd6597dc	-0.056053028
86	0x3e006793	0.1253951
87	0xbd7326c6	-0.05936315
88	0x3c06bb20	0.008223325
89	0x3d81c256	0.06335895
90	0x3b143ccd	0.0022619248
91	0xbcf99013	-0.030464208
92	0x37cea454	2.4633635e-05
93	0xbd591fe9	-0.053008948
94	0x3e02d0b0	0.1277492
95	0xbd5a37eb	-0.053275984
96	0x3c0198d0	0.0079099685
97	0xbd22a49c	-0.039707765
98	0xbd12c6e1	-0.035834197
99	0xbc149f15	-0.009071131
100	0x3ca26493	0.019823348
101	0x3d53f2e4	0.05174531
102	0xbd84446a	-0.064583614
103	0xbe05a6e0	-0.13051939
104	0x3db4d4c0	0.08829641
105	0xbda93518	-0.0826208
106	0x3b01204e	0.0019703093
107	0x3d3d299d	0.046182264
108	0xbcac3249	-0.021020072
109	0x3d537ba1	0.051631574
110	0xbd302bbf	-0.04301047
111	0x3d4a2ca3	0.049358975
112	0xbe48fd24	-0.19627815
113	0x3d5fb889	0.054619346
114	0xbc4ebba8	-0.012617983
115	0xbd82dabc	-0.063893765
116	0x3ca3f959	0.02001636
117	0xbd47db64	-0.04879321
118	0xbd1c4412	-0.038150854
119	0xbd2765af	-0.040868457
120	0xbc8a392d	-0.016872967
121	0xbdb42b6f	-0.08797347
122	0xbd87b1c4	-0.06625703
123	0x3bb2c15e	0.00545518
124	0xbd9cd93d	-0.076586224
125	0xbd21a029	-0.03945938
126	0xbbac4fa3	-0.005258517
127	0x3d2ce99b	0.04221497
128	0x3d890679	0.06690688
129	0xbd508bfa	-0.050914742
130	0xbd3426ba	-0.043982245
131	0xbcde875d	-0.027164156
132	0x3d799e3c	0.06094192
133	0x3b651ef2	0.0034961072
134	0x3c74919f	0.014927297
135	0xbc706f1e	-0.01467493
136	0x3cffe6b0	0.03123793
137	0xbd63d1a3	-0.055619847
138	0x3db3ef5e	0.0878589
139	0xbcaf5437	-0.021402461
140	0xbc8711a4	-0.016487904
141	0xbcf8e1bf	-0.030381082
142	0xbc03acbd	-0.0080367895
143	0x3dfc464b	0.12318095
144	0x3d568a59	0.052378032
145	0x3d87a7ab	0.06623777
146	0xbd09fe8e	-0.033690028
147	0xbd2074df	-0.039173957
148	0x3d3cf186	0.046128772
149	0xbd869b1a	-0.06572552
150	0x3d0cea42	0.034403093
151	0xbd92a382	-0.07160093
152	0x3d540cc7	0.051769998
153	0x3d097d3c	0.0335667
154	0x3dd90b5c	0.1059787
155	0x3db9dae0	0.0907495
156	0xbd688c34	-0.056774333
157	0x3d315281	0.043291572
158	0xbd9cac94	-0.07650104
159	0x3dc1076d	0.094252445
160	0x3b53a775	0.0032295857
161	0xbdaec847	-0.085342936
162	0xbd6eb5ab	-0.05827872
163	0xbcc7811e	-0.02435356
164	0xbd74bca1	-0.059750203
165	0xbe03889a	-0.12845078
166	0x3da26e41	0.079311855
167	0x3d66e1c0	0.056367636
168	0xbe9180f9	-0.2841871
169	0xbd8951c4	-0.06705049
170	0x3cef3f85	0.029205093
171	0xbda78b6a	-0.08180888
172	0xbd2a197d	-0.041528214
173	0x3d32263c	0.043493494
174	0xbc1a1b86	-0.009405976
175	0xbc681f3b	-0.014167602
176	0xbd353b52	-0.044246025
177	0xbdfbd269	-0.12295992
178	0xbc705075	-0.01466762
179	0xbc8fca0f	-0.017552404
180	0x3d0ff107	0.03514197
181	0xbe11fd7d	-0.14256854
182	0x3e0f9029	0.14019836
183	0xbd1a0ea0	-0.037611604
184	0x3cdb1e01	0.026747705
185	0x3dbf3f65	0.093382634
186	0xbd7f1bf5	-0.06228252
187	0x3d8c8c37	0.06862681
188	0x3c2c9f3c	0.010536011
189	0xbd85c2e6	-0.065313146
190	0x3a10df2c	0.0005526419
191	0x3dd3fda3	0.10351112
192	0xbd554d52	-0.05207569
193	0xbda194ed	-0.078897335
194	0xbe2a9a3d	-0.166604
195	0x3dd4bb68	0.103873074
196	0xbd2ab0c5	-0.041672487
197	0xbcac962b	-0.0210677
198	0xbe338576	-0.1753138
199	0x3c9aa44b	0.01887717
200	0xbd06a7ed	-0.03287499
201	0xbb749cec	-0.0037324978
202	0x3d8ed670	0.069744945
203	0xbdbb7270	-0.091526866
204	0x3e062103	0.1309853
205	0x39e358eb	0.00043363063
206	0xbc524557	-0.012833915
207	0xbc145666	-0.009053802
208	0xbcf54b17	-0.029943032
209	0xbdc0a177	-0.09405797
210	0xbe2da792	-0.16958454
211	0xbd1e76c6	-0.03868749
212	0x3d33d4e7	0.04390421
213	0x3d2b2750	0.04178554
214	0xba13e82a	-0.00056422
215	0x3d21c445	0.039493818
216	0xbc5fc482	-0.013657691
217	0xbdc10af2	-0.09425916
218	0xbb37638d	-0.002798292
219	0xbcfaf60a	-0.030634899
220	0x3cf34f21	0.029700818
221	0xbbb01513	-0.005373606
222	0xbd877d7b	-0.066157304
223	0x3be9493e	0.007119327
224	0xbc5ac3d5	-0.013352354
225	0xbdd5a33e	-0.104315266
226	0xbcf40f9c	-0.0297926
227	0x3a9b8d12	0.0011867604
228	0xbda01835	-0.07817117
229	0x3c358704	0.0110795535
230	0x3d0a5385	0.033771057
231	0xbdb968b6	-0.09053175
232	0xbc017672	-0.007901775
233	0x3b9d50cc	0.0048008915
234	0xbe0e5c79	-0.13902463
235	0x3c521658	0.01282271
236	0xbd68b0b2	-0.056809135
237	0xbc51de8a	-0.012809405
238	0x3b92ce2f	0.0044801454
239	0xbd3816a4	-0.044943467
240	0x3cdc3050	0.026878506
241	0xbca15891	-0.019695552
242	0xbe148683	-0.14504437
243	0x3d966bfe	0.073448166
244	0xbd7dd281	-0.06196833
245	0xbda56c63	-0.08077314
246	0xbcd477c6	-0.025936019
247	0xbdda1631	-0.10648764
248	0xbdc5ba1d	-0.09654639
249	0x3e201534	0.15633088
250	0x3d940cfe	0.072290406
251	0xbd439a3f	-0.047754522
252	0xbdf911ec	-0.121616215
253	0x3d2527b4	0.040321067
254	0xbe949974	-0.29023325
255	0x3daf72f2	0.08566846

bias f4 [150]
0	0x3dfe0bd5	0.124046005
1	0xbefd482f	-0.49469134
2	0x3e6541c8	0.22388375
3	0xbe993281	-0.29921344
4	0x3ddacce5	0.10683612
5	0xbe5138af	-0.2043178
6	0xbe3f4fec	-0.18682832
7	0xbe39726c	-0.18110055
8	0xbd016472	-0.031589933
9	0xbe935f64	-0.28783715
10	0x3f36e248	0.7143903
11	0x3f08c70f	0.5342874
12	0xbeef1c36	-0.4670121
13	0xbe698c38	-0.22807395
14	0x3f0df6da	0.5545479
15	0x3d53ad89	0.051679168
16	0xbe94f4c1	-0.29092982
17	0x3ef2ec55	0.47445932
18	0xbebdd221	-0.37074378
19	0xbe7f3f52	-0.24926499
20	0x3e590a1d	0.21195264
21	0xbe1cba4f	-0.15305446
22	0x3d9784aa	0.073983505
23	0x3d4d9c70	0.05019802
24	0x3ea676ac	0.32512414
25	0xbde1f80f	-0.110336415
26	0x3ec602e4	0.3867408
27	0xbe15c646	-0.14626417
28	0xbe8a0eed	-0.26964512
29	0xbedcc583	-0.4311944
30	0xbf0e79b2	-0.5565444
31	0x3dcefea5	0.10107163
32	0xbea5c080	-0.32373428
33	0xbef9ed86	-0.48814029
34	0x3e6c24e7	0.23060952
35	0x3f1a8317	0.6035628
36	0x3e8bb24e	0.27284473
37	0x3f3b1811	0.730836
38	0xbe9ac243	-0.30226335
39	0xbc3f2e57	-0.011668763
40	0x3dfd87e8	0.12379438
41	0xbe45f064	-0.19329983
42	0x3f005552	0.5013019
43	0x3e86bc46	0.26315516
44	0xbdeeba69	-0.11656649
45	0x3dd460c3	0.10370018
46	0x3e3f6d82	0.18694118
47	0xbd7e6919	-0.062111948
48	0xbeca7354	-0.39541113
49	0xbe256af9	-0.16154088
50	0xbe04ce73	-0.12969379
51	0xbdc041e8	-0.093875706
52	0x3e916d75	0.28403822
53	0x3e907a3e	0.28218263
54	0x3e547232	0.20746687
55	0x3e541bec	0.20713776
56	0x3ec8755b	0.39152035
57	0x3e3b8ce9	0.18315472
58	0x3dd067a5	0.101760186
59	0x3e72201e	0.23645064
60	0xbd920d21	-0.071314104
61	0x3e73fa6f	0.23826002
62	0xbeee4145	-0.46534172
63	0x3eea817f	0.45801923
64	0x3cc93096	0.0245593
65	0x3e7782a4	0.24170929
66	0xbdb5df7b	-0.08880516
67	0xbcf54984	-0.029942282
68	0xbeb4335a	-0.35195428
69	0xbc207938	-0.009794526
70	0x3ecbb711	0.39788106
71	0x3e9d93ab	0.30776724
72	0xbe0cbd57	-0.13744102
73	0x3e5f9d73	0.21837406
74	0x3efdc66a	0.4956544
75	0x3f0a5ab8	0.54044676
76	0xbda40186	-0.08008103
77	0xbcac1c9b	-0.021009734
78	0xbf2dd45c	-0.6790216
79	0x3e095983	0.13413052
80	0xbebfa30e	-0.37429088
81	0x3ea4dc99	0.32199553
82	0xbe9d266e	-0.30693382
83	0xbe681d4a	-0.22667423
84	0xbe2019df	-0.15634869
85	0xbe0cad78	-0.13738048
86	0x3e6866f6	0.22695526
87	0x3e2427ca	0.16030803
88	0xbe6eef15	-0.2333339
89	0x3ecd20f7	0.40064213
90	0x3ee5b95a	0.44867975
91	0x3ee2e692	0.44316536
92	0x3dac7fdd	0.084228255
93	0x3ec94652	0.39311463
94	0xbe740317	-0.23829304
95	0xbd52421b	-0.051332574
96	0xbe9793d1	-0.29604962
97	0xbd879c52	-0.066216126
98	0x3e95ec47	0.29281828
99	0xbe018ced	-0.12651415
100	0x3e4909cc	0.19632643
101	0xbe827572	-0.2548023
102	0x3dcec34f	0.10095846
103	0xbeb08740	-0.34478188
104	0xbe18e8d0	-0.14932561
105	0xbd903c46	-0.07042746
106	0xbe8e135f	-0.27749154
107	0xbe2330c1	-0.15936567
108	0xbe9bce94	-0.30431044
109	0xbe6285fd	-0.22121425
110	0xbea1b379	-0.3158224
111	0x3e8ec62e	0.27885574
112	0xbe34899e	-0.17630622
113	0xbd9c4fd8	-0.076324165
114	0xbef00cd5	-0.4688479
115	0x3e63b49a	0.22236863
116	0xb9f55070	-0.00046789972
117	0x3cafaac6	0.021443736
118	0xbe13ddce	-0.1444008
119	0xbe87a42c	-0.2649244
120	0x3e86a754	0.26299536
121	0xbed48555	-0.41507974
122	0x3ecff934	0.40619814
123	0xbd4e1d82	-0.05032111
124	0xbd8926ce	-0.066968545
125	0xbd43405f	-0.04766881
126	0xbe8c29a9	-0.27375534
127	0x3c47f977	0.012205473
128	0x3e35a78e	0.17739698
129	0xbd854a3d	-0.065083005
130	0xbd223378	-0.039599866
131	0x3e97e507	0.29666921
132	0x3e01a4b2	0.12660483
133	0xbe80a239	-0.25123766
134	0x3e438998	0.19095457
135	0x3f0f48a2	0.55970204
136	0xbf05817c	-0.521507
137	0x3d161496	0.036640726
138	0x3ef3b6af	0.47600314
139	0x3e402d9f	0.18767403
140	0xbca602a7	-0.020264937
141	0xbf066817	-0.5250258
142	0x3c9096b6	0.01764999
143	0xbdd7ec38	-0.10543102
144	0xbebbb48c	-0.36661184
145	0xbdd7cb71	-0.1053685
146	0xbe332bb7	-0.17497145
147	0x3e54e909	0.20792021
148	0x3daf9442	0.085732
149	0xbe5d3674	-0.21602803
