examples/rl/experiments_from_paper/experiments_data/trained_models/TiltrotorPlus8DofHoverEnv/DevelopmentalTiltrotorPlus8DofHoverEnv-3/ppo/TiltrotorPlus8DofHoverEnv-v0.pt (torch, 279745 bytes, 16 tensors)

weight f4 [150, 18]
0	0xbd1975af	-0.037465747
1	0x3dade016	0.084900066
2	0x3e221bdf	0.15830944
3	0x3d8455d6	0.064616844
4	0x3d06728a	0.032824077
5	0x3d81007a	0.06298919
6	0x3e286bdb	0.16447394
7	0xbdd2a30c	-0.10285005
8	0xbdb1f83d	-0.08689926
9	0xbdc58345	-0.09644178
10	0xbdd91486	-0.10599618
11	0xbe068f64	-0.13140637
12	0x3def948c	0.11698255
13	0x3d2cde8f	0.042204436
14	0xbe72f2d3	-0.23725443
15	0xbe3a8871	-0.18216111
16	0xbebee4b7	-0.3728387
17	0x3ebd523f	0.3697681
18	0xbdea2ab2	-0.11433925
19	0xbe472fef	-0.19451879
20	0x3b9bdd42	0.0047566006
21	0xbd8bc1f6	-0.068241045
22	0xbce3a798	-0.027789876
23	0xbe879ca0	-0.26486683
24	0xbdbe2be2	-0.09285714
25	0x3df8c4a5	0.12146882
26	0x3e01d799	0.126799
27	0xbddcc0b0	-0.1077894
28	0x3e98b066	0.2982208
29	0xbe38e4a2	-0.18055966
30	0x3e1e2796	0.15444788
31	0xbc7d1e20	-0.015449077
32	0x3e4f61a5	0.20252092
33	0xbe893746	-0.26799983
34	0xbd271bee	-0.04079812
35	0x3db8d307	0.09024625
36	0xbe1b454a	-0.1516315
37	0xbe13feb8	-0.14452636
38	0xbdc66860	-0.09687877
39	0xbd91a516	-0.07111566
40	0x3e862472	0.2619968
41	0x3d9df51b	0.07712766
42	0x3e54a6ca	0.2076675
43	0xbdf5cca6	-0.12001924
44	0xbe20ac84	-0.1569081
45	0x3e870a15	0.2637488
46	0x3e80d676	0.2516362
47	0x3e92beda	0.28661233
48	0x3e153fcd	0.1457512
49	0xbd945346	-0.07242446
50	0xbdb0fcb7	-0.086419515
51	0x3e1a2e1a	0.15056649
52	0x3e2b8e6d	0.1675355
53	0x3bb2ba82	0.0054543624
54	0xbc7e358c	-0.015515696
55	0xbe062e77	-0.13103662
56	0xbcc102b6	-0.023560863
57	0x39d53be9	0.00040671162
58	0x3e14e07f	0.14538763
59	0x3e4068b6	0.18789944
60	0xbe0b019c	-0.13574833
61	0x3e3fc68f	0.18728088
62	0xbd730caa	-0.05933825
63	0xbd7fe912	-0.062478133
64	0x3e5e63e9	0.217178
65	0x3c9afbdd	0.018918926
66	0xbd762ab5	-0.060099322
67	0x3dbbbd60	0.0916698
68	0x3e55cd4d	0.20879097
69	0x3ea631be	0.32459825
70	0x3e36edd6	0.17864165
71	0x3ec83f8c	0.39110982
72	0x3ddc3c9b	0.10753747
73	0xbc1e65e2	-0.009667845
74	0x3da3cc5c	0.07997963
75	0xbd24aa38	-0.040201396
76	0xbe35945b	-0.17732374
77	0x3e38875e	0.18020388
78	0x3c92d160	0.017922103
79	0x3d95875d	0.07301209
80	0x3d7bc43f	0.06146645
81	0x3e206791	0.15664507
82	0xbdb2ba19	-0.087269016
83	0xbdc3b5b0	-0.095561385
84	0x3ddecec4	0.10879281
85	0x3cc8922e	0.024483766
86	0x3e39ac59	0.18132152
87	0xbe230ba1	-0.15922405
88	0x3d9ad748	0.07560593
89	0xbcae4c97	-0.021276755
90	0xbce5db8b	-0.028058788
91	0xbe77a76e	-0.24184963
92	0xbde9a36c	-0.114081234
93	0x3dedc547	0.11609893
94	0xbd225d13	-0.039639544
95	0x3dde153d	0.10843895
96	0x3c5b97a6	0.013402855
97	0x3e17e81c	0.14834636
98	0x3e6939d9	0.22775973
99	0xbe3f6755	-0.18691762
100	0x3ea05f01	0.31322482
101	0x3c964ef1	0.01834819
102	0x3d9731ff	0.07382583
103	0xbe42bd49	-0.19017519
104	0xbe02ebe3	-0.12785296
105	0xbe57fafa	-0.21091834
106	0xbe0320f6	-0.12805542
107	0x3e88140a	0.2657779
108	0x3c529d4c	0.012854885
109	0xbd1e8e35	-0.038709838
110	0x3ead4e2f	0.33848712
111	0x3ea39e7c	0.3195685
112	0xbca9c381	-0.020723106
113	0xbd56ba6f	-0.05242389
114	0x3e7c8997	0.24661861
115	0x3dc51e0f	0.09624874
116	0xbce2ee1a	-0.027701426
117	0x3e248100	0.16064835
118	0x3e1c78bd	0.15280433
119	0x3ed1e26a	0.40993053
120	0xbf10d6a3	-0.5657751
121	0x3df021da	0.11725207
122	0x3e4b77dd	0.19869943
123	0xbc86274e	-0.016376164
124	0xbe1723b2	-0.1475971
125	0xbd6db167	-0.058030512
126	0x3e42c1c4	0.19019228
127	0x3e9c9fda	0.30590707
128	0x3e9a0898	0.30084682
129	0x3dbf64f9	0.09345431
130	0x3e8d985f	0.27655312
131	0x3dab4c73	0.08364191
132	0xbda92ee7	-0.08260899
133	0x3c4390ef	0.01193641
134	0x3e86f282	0.26356894
135	0xbdf434a3	-0.11924102
136	0xbead501a	-0.33850175
137	0xbe2fccc1	-0.17167951
138	0x3e4672b0	0.19379687
139	0xbe8026a8	-0.25029492
140	0x3dfb7d12	0.12279715
141	0xbe94f46c	-0.2909273
142	0x3ea13f6a	0.31493694
143	0xbe45d2b9	-0.19318666
144	0xbccfc62f	-0.025363056
145	0xbd02ca58	-0.03193125
146	0xbd52e5f0	-0.051488817
147	0xbe8ffc8a	-0.2812236
148	0x3e668044	0.22509867
149	0xbd6b44da	-0.05743871
150	0x3cd0dbbb	0.0254954
151	0xbcbcb1fc	-0.023034088
152	0x3e31cc4c	0.1736309
153	0x3de5b834	0.112167746
154	0x3e79343a	0.24336329
155	0xbe823bdf	-0.25436303
156	0xbd57784b	-0.052604955
157	0xbd8f6399	-0.070014186
158	0xbf035eea	-0.513167
159	0x3e8b2083	0.27173242
160	0x3e4a94a6	0.19783267
161	0x3d6afc19	0.057369325
162	0x3e62ee90	0.22161317
163	0x3e106b3e	0.1410341
164	0x3dd83e35	0.1055874
165	0xbd7bf66d	-0.061514307
166	0xbeab593b	-0.33466515
167	0x3e28060c	0.16408557
168	0xbb4a4108	-0.0030861516
169	0x3d0b60a2	0.034027703
170	0xbcc5d341	-0.024148585
171	0x3dc766cf	0.09736406
172	0xbe094317	-0.13404499
173	0x3e867433	0.26260528
174	0x3d670060	0.056396842
175	0x3d6d8758	0.057990402
176	0xbe1728f3	-0.14761715
177	0xbe05a02f	-0.13049386
178	0x3d0a62b9	0.033785556
179	0x3d882e1e	0.06649421
180	0x3eb95ecc	0.36205137
181	0x3ec3d61f	0.382493
182	0x3ef2be17	0.47410652
183	0xbea5bdc2	-0.32371336
184	0x3d2a5ea6	0.04159417
185	0xb9031561	-0.00012501098
186	0xbe0a81ba	-0.1352605
187	0x3ec8c2f4	0.39211237
188	0x3d685080	0.056717396
189	0xbe664d75	-0.22490485
190	0xbcf673e6	-0.030084562
191	0x3d810355	0.06299464
192	0x3ef14da6	0.47129554
193	0x3e81bb06	0.25338
194	0xbc5d9da3	-0.013526353
195	0x3e6e8de6	0.23296317
196	0x3d9f0907	0.07765394
197	0xbf032b77	-0.512382
198	0x3f792572	0.9732276
199	0x3e980742	0.29693037
200	0xbdf31886	-0.11869912
201	0x3d218c2e	0.039440326
202	0x3e1fd097	0.15606914
203	0x3dcd57de	0.10026525
204	0x3e13ab63	0.14420848
205	0x3e485d7d	0.19566913
206	0xbe36422d	-0.17798682
207	0x3e51f54e	0.20503733
208	0x3e3be574	0.18349248
209	0xbe807499	-0.25088957
210	0x3e58119b	0.21100466
211	0xbd8c2a4b	-0.06844004
212	0xbe959237	-0.29213116
213	0xbdd4d6d5	-0.103925385
214	0x3d5ed26f	0.054399904
215	0x3d548b3d	0.0518906
216	0x3e83e771	0.25762513
217	0x3c4abc1f	0.012373953
218	0x3c2e9b1c	0.010657098
219	0xbd33e0f8	-0.04391572
220	0x3d5f81cb	0.05456714
221	0x3e1b39fe	0.15158841
222	0x3d57db36	0.05269929
223	0xbba998e6	-0.0051756976
224	0xbad918d3	-0.0016563184
225	0x3db65139	0.08902211
226	0x3c8eda6e	0.01743814
227	0x3e042bdd	0.12907358
228	0x3f075d47	0.52876705
229	0xbceca304	-0.028886326
230	0xbda083e0	-0.07837653
231	0xbefa30c5	-0.48865333
232	0xbda7a105	-0.08185009
233	0xbdba0afd	-0.09084127
234	0xbd80bd07	-0.06286054
235	0xbf2494ff	-0.6428985
236	0x3f594abe	0.8487967
237	0x3cc350db	0.023842266
238	0xbbf5ef6a	-0.007505347
239	0x3d13bb7b	0.036067467
240	0xbddefbb2	-0.10887851
241	0x3e166c1a	0.14689675
242	0xbe3ec202	-0.18628696
243	0xbeb88971	-0.3604236
244	0x3c8f9566	0.017527293
245	0x3e10a34c	0.14124793
246	0xbe3995af	-0.18123506
247	0xbe664837	-0.22488485
248	0x3e1e8663	0.15480952
249	0xbe75dea2	-0.24010709
250	0xbde72eaa	-0.11288197
251	0x3ed2e378	0.4118917
252	0x3e37c4af	0.17946123
253	0xbe9a936a	-0.30190593
254	0x3d517f16	0.05114659
255	0xbe23fa8d	-0.16013546

bias f4 [150]
0	0xbf20dca6	-0.6283668
1	0x3bdfa059	0.006824535
2	0x3aa5fec7	0.001266443
3	0x3d847d0f	0.064691655
4	0x3d586831	0.05283374
5	0xbeaafd67	-0.33396456
6	0x3e7615ab	0.24031703
7	0x3c4d3bc9	0.012526461
8	0xbd23e18d	-0.040010024
9	0x3e48b4ad	0.19600172
10	0xbb907737	-0.0044087428
11	0xbd8e70ef	-0.06955134
12	0x3e8f7978	0.2802236
13	0x3d9ddeff	0.07708549
14	0x3daa6f34	0.083219916
15	0xbd52a4a3	-0.05142654
16	0x3e269934	0.1626938
17	0x3c9fe943	0.019520408
18	0xbe6c7c72	-0.23094347
19	0xbe0541eb	-0.13013427
20	0xbf0433a6	-0.5164131
21	0x3dbc3a0c	0.09190759
22	0xbe9c6874	-0.3054844
23	0x3e3cd5c5	0.18440922
24	0x3e1a1429	0.15046753
25	0xbb3b39a2	-0.0028568287
26	0xbdf48b0b	-0.11940583
27	0x3e6b4b03	0.22977833
28	0xbe818c69	-0.25302437
29	0xbeca5140	-0.39515114
30	0x3e1072b8	0.14106262
31	0x3da79e0e	0.081844434
32	0xbed17cc9	-0.40915516
33	0xbbe35522	-0.006937639
34	0xbded9ad9	-0.116018005
35	0xbbe1137a	-0.006868777
36	0xbca0e465	-0.019640157
37	0x3c5206a4	0.012818966
38	0xbd207371	-0.039172594
39	0xbc230194	-0.009949107
40	0x3c563a66	0.013075447
41	0xbddd5bc8	-0.108085215
42	0x3e05cd54	0.13066608
43	0x3a976b5f	0.0011552385
44	0x3e51818c	0.20459574
45	0xbe9a3826	-0.30120963
46	0xbcb47c80	-0.022032022
47	0xbeac4129	-0.33643463
48	0xbd4ae968	-0.049539
49	0x3c808648	0.01568903
50	0xbd881de9	-0.0664633
51	0xbe205b20	-0.15659761
52	0xbe6085d5	-0.21926053
53	0x3ddc7e0e	0.107662305
54	0xbda20ddd	-0.079128005
55	0x3de40772	0.111342326
56	0xbea7c591	-0.3276792
57	0xbdbbbc21	-0.09166742
58	0xbd722707	-0.05911925
59	0xbe8652d9	-0.26235083
60	0x3e0a4435	0.13502581
61	0x3d3bbe28	0.045835644
62	0xbdb4b3c1	-0.08823348
63	0x3f159c61	0.5844174
64	0x3bd31545	0.0064417445
65	0xbd11858e	-0.03552776
66	0xbd315e85	-0.04330303
67	0xbebf2be8	-0.37338185
68	0x3ed8def6	0.42357606
69	0xbdb4eabf	-0.08833837
70	0xbd2a4828	-0.04157272
71	0x3c495ba6	0.012289917
72	0x3eb16321	0.34645942
73	0xbdb9e35b	-0.09076568
74	0x3e214eab	0.15752666
75	0x3e4a3f4b	0.19750707
76	0x3e8c4777	0.27398273
77	0xbd415906	-0.04720404
78	0xbbda7a96	-0.0066674454
79	0x3d930636	0.07178919
80	0x3e7732fc	0.24140543
81	0xbdfd9a10	-0.12382901
82	0xbe1a22a8	-0.15052283
83	0x3d23ec86	0.04002049
84	0x3da87cec	0.08226952
85	0x3ea6372d	0.3246397
86	0x3d3ab053	0.045578312
87	0x3e28e537	0.16493689
88	0x3d18e543	0.037328016
89	0xbcd453e8	-0.025918916
90	0x3e0e578c	0.13900584
91	0x3d270090	0.04077202
92	0xbe83fd07	-0.25778982
93	0xbe267a9a	-0.16257706
94	0xbd9933c0	-0.07480574
95	0x3e2ea40a	0.17054763
96	0xbd34b0dc	-0.04411398
97	0x3bb7e949	0.0056125266
98	0xbe31339f	-0.17304848
99	0xbe72feb1	-0.2372997
100	0x3e4fb81a	0.20285073
101	0x3e586dd0	0.2113564
102	0x3d8b1f1e	0.067930445
103	0xbd54cca1	-0.05195296
104	0x3e9bd26f	0.30433986
105	0xbece508b	-0.40295824
106	0xbe520e47	-0.20513259
107	0xbd2ee8f9	-0.04270265
108	0x3da2fbed	0.07958207
109	0x3d2bae70	0.041914403
110	0x3e4a7cf6	0.19774231
111	0xbdf855a3	-0.12125709
112	0xbd166253	-0.036714863
113	0xbe16ac79	-0.1471423
114	0xbd4ce97f	-0.050027367
115	0xbf2f2384	-0.6841357
116	0x3dc0dc33	0.09417
117	0xbe39a5d0	-0.18129659
118	0xbe60531c	-0.21906704
119	0x3e44ca91	0.19217898
120	0x3da8a1e9	0.08234007
121	0xbe19e2d7	-0.15027939
122	0xbc819660	-0.015818775
123	0xbe0bd77e	-0.13656422
124	0x3e0910e1	0.13385345
125	0x3cc3cf80	0.023902655
126	0x3e0f21e3	0.1397777
127	0xbe301758	-0.17196405
128	0x3c8d00e6	0.017212342
129	0xbe079860	-0.1324172
130	0xbd3523a5	-0.044223446
131	0x3e1f4fd6	0.15557799
132	0x3dcc1460	0.09964824
133	0xbe74d484	-0.23909193
134	0xbd721f82	-0.05911208
135	0xbe6cccb1	-0.23124959
136	0x3d37d188	0.04487756
137	0x3e1f5dbb	0.15563099
138	0xbd96709b	-0.073456965
139	0x3ea1ea9c	0.31624305
140	0x3daf40e2	0.08557297
141	0xbe51c161	-0.20483924
142	0x3e7cc96e	0.24686214
143	0xbd06161d	-0.032735933
144	0x3d5d8fbb	0.05409215
145	0x3edb0b9c	0.42782295
146	0xbe6099f1	-0.21933724
147	0xbd13c334	-0.036074832
148	0xbe404bb7	-0.18778883
149	0xbdc5fbf9	-0.096672006

weight f4 [150, 150]
0	0x3f1073b2	0.5642654
1	0x3d39b3cc	0.045337483
2	0xbe8cc782	-0.27495962
3	0xbd216de8	-0.039411455
4	0xbc745b79	-0.014914387
5	0x3bc2bcbb	0.0059429086
6	0xbe1f4e1a	-0.15557137
7	0x3dbadaf2	0.09123792
8	0x3e098809	0.134308
9	0x3ac82ebc	0.0015272717
10	0xbd116ef3	-0.0355062
11	0x3ed11f62	0.40844256
12	0xbe02b408	-0.12763989
13	0xbd94866e	-0.07252203
14	0x3d3f93d0	0.046771824
15	0xbeb5b7ff	-0.3549194
16	0xbe737a3d	-0.23777099
17	0xbe89ba4b	-0.26899943
18	0x3d8c2b6e	0.06844221
19	0x3dd64f1b	0.10464307
20	0x3e341714	0.17586929
21	0xbe5509fd	-0.20804591
22	0x3e389ff0	0.18029761
23	0x3ec8d113	0.3922201
24	0xbc995c96	-0.018720906
25	0xbe13fc9e	-0.14451835
26	0xbd89afc4	-0.06722978
27	0xbea7fa70	-0.32808256
28	0x3dab3473	0.08359613
29	0x3eae0c30	0.33993673
30	0xbdf2e56d	-0.11860166
31	0xbdfb80b2	-0.12280406
32	0xbe506f2b	-0.20354907
33	0x3db92813	0.09040847
34	0xbdca238b	-0.098700605
35	0xbdace02f	-0.08441197
36	0xbd8033b6	-0.06259863
37	0x3e7999ee	0.24375126
38	0xbe1bf86a	-0.15231481
39	0xbd8f660c	-0.07001886
40	0xbe1f6b09	-0.15568174
41	0xbdb0786e	-0.0861672
42	0xbdb5e13b	-0.0888085
43	0x3cdc67f3	0.026905036
44	0xbd4069a6	-0.046975754
45	0x3daefa83	0.08543875
46	0x3e1f552d	0.15559836
47	0x3ec3f172	0.38270146
48	0x3d7c4f60	0.061599135
49	0xbdf0c84c	-0.117569536
50	0x3b723159	0.0036955683
51	0xbc847ce1	-0.016172828
52	0x3ee6010d	0.44922677
53	0x3ccd54ec	0.025064908
54	0x3d04ef15	0.03245457
55	0x3d0f4df2	0.034986444
56	0x3e3f9352	0.18708542
57	0x3e8664e5	0.2624885
58	0x3ef4b648	0.4779532
59	0x3e62d432	0.22151259
60	0xbe11f460	-0.14253378
61	0x3d9755c9	0.07389409
62	0x38f3ea39	0.0001163077
63	0xbe967255	-0.29384103
64	0xbedf128e	-0.43568844
65	0xbd5e5616	-0.054281317
66	0xbe31e022	-0.17370656
67	0x3d7b507a	0.061356045
68	0xbf205809	-0.6263433
69	0x3d99afed	0.07504258
70	0xbd582fad	-0.052779842
71	0xbd370830	-0.044685543
72	0x3dfbf365	0.12302283
73	0xbd8b5531	-0.06803358
74	0xbb7ba828	-0.003839979
75	0xbe1aaaaa	-0.15104166
76	0xbdbc0555	-0.091807045
77	0xbe81006c	-0.25195634
78	0xbdbf912e	-0.09353863
79	0xbe0f8601	-0.14015962
80	0xbe1962bc	-0.1497907
81	0xbe50097f	-0.20316122
82	0x3cc491c1	0.023995282
83	0x3cda549a	0.02665167
84	0x3e514320	0.20435762
85	0x3e4a902f	0.19781564
86	0xbe76495c	-0.24051422
87	0xbdc96ca7	-0.09835177
88	0xbdfebbf8	-0.12438196
89	0xbd8008ce	-0.06251679
90	0xbd86f4be	-0.065896496
91	0xbdcfa100	-0.1013813
92	0x3e7ac187	0.24487887
93	0xbc867026	-0.016410898
94	0xbdf6fd4b	-0.120600305
95	0xbdd9c4fa	-0.106332734
96	0xbe2f6ebe	-0.17132089
97	0xbc85c69b	-0.016330054
98	0x3e0f03f8	0.13966358
99	0xbe51761b	-0.2045521
100	0xbe460d77	-0.19341074
101	0xbe28d4f0	-0.16487479
102	0xbc33236a	-0.010933736
103	0xbd42f108	-0.047593147
104	0xbea51613	-0.32243404
105	0x3f03e5b1	0.51522356
106	0xbe849754	-0.25896704
107	0x3ec03dd5	0.37547174
108	0xba0c668c	-0.0005355857
109	0xbf2233b7	-0.6336016
110	0x3ea8d020	0.32971287
111	0xbdb6a80d	-0.08918772
112	0x3dbc09e7	0.09181576
113	0xbe0932fd	-0.13398357
114	0x3da4f3c4	0.08054307
115	0x3dcac666	0.09901123
116	0x3e4f32b9	0.20234193
117	0xbe6f9b03	-0.23398976
118	0xbbd84a17	-0.006600629
119	0xbdd60b59	-0.10451383
120	0x3d9fd111	0.07803548
121	0xbe8d62e4	-0.2761451
122	0x3e6200dc	0.2207064
123	0xbdd94835	-0.106094755
124	0xbe9ac182	-0.3022576
125	0x3e326851	0.17422606
126	0xbe12b4db	-0.14326803
127	0x3d80e3d5	0.062934555
128	0xbd00fd05	-0.0314913
129	0x3e24edca	0.16106334
130	0xbdbc3691	-0.09190095
131	0x3e3a349b	0.1818413
132	0xbe8f3459	-0.27969626
133	0x3e36cc80	0.17851448
134	0x3de1314d	0.109957315
135	0x3e25eccd	0.16203614
136	0x3f007a21	0.50186354
137	0x3b6165d8	0.003439298
138	0xbd41bf28	-0.04730144
139	0xbe5d26e7	-0.21596871
140	0xbe3d2c8d	-0.18474026
141	0xbd746fe0	-0.059677005
142	0xbe034692	-0.12819889
143	0x3daf76ed	0.08567605
144	0xbe3ba06a	-0.18322912
145	0xbf210e8f	-0.6291284
146	0x3e4741f1	0.19458748
147	0xbf108fb1	-0.56469256
148	0xbe85720d	-0.26063576
149	0xbc88e324	-0.016709872
150	0x3c2c0693	0.010499614
151	0x3defc1de	0.11706899
152	0xbda081a8	-0.0783723
153	0xbdb714bd	-0.089395024
154	0xbe82ace0	-0.25522518
155	0x3d044add	0.032297958
156	0x3d2dfbc1	0.04247642
157	0x3ed3554e	0.4127602
158	0x3a667bf4	0.0008792274
159	0xbb6909a3	-0.0035558722
160	0x3e67f9c4	0.22653872
161	0x3cf9e6b1	0.03050551
162	0x3e57ad32	0.21062163
163	0x3b9937d5	0.004675845
164	0x3e4edda6	0.2020174
165	0x3df45f96	0.11932294
166	0x3e0e1e35	0.1387871
167	0xbc0ae538	-0.008477502
168	0x3ea87160	0.32898998
169	0xbe3eef2c	-0.18645924
170	0xbe6a1d00	-0.22862625
171	0xbd909425	-0.07059506
172	0xbcda629e	-0.026658352
173	0xbdd10507	-0.10206037
174	0x3d84183e	0.06449936
175	0xbddebab5	-0.10875455
176	0x3e2fb98e	0.17160627
177	0x3e59d498	0.21272504
178	0x3bdc6764	0.0067261923
179	0x3e1ce215	0.15320618
180	0xbd5ebfd4	-0.05438216
181	0xbdd008ba	-0.101579145
182	0xbd2dd0b3	-0.04243536
183	0x3eb2c267	0.34913942
184	0xbd751642	-0.05983568
185	0x3ea423f3	0.32058677
186	0x39211928	0.00015363528
187	0x3cf742e6	0.030183267
188	0xbd958b15	-0.073019184
189	0xbd7620dc	-0.06008993
190	0xbda75846	-0.08171134
191	0x3df28da2	0.118434206
192	0xbd215976	-0.039391957
193	0xbdd096b1	-0.10184992
194	0x3db64361	0.0889957
195	0xbe19f768	-0.15035784
196	0x3e35cff3	0.17755108
197	0x3ea00b69	0.31258705
198	0x3eb91fba	0.36157018
199	0xbe0438b9	-0.12912263
200	0x3eaf5e34	0.3425156
201	0xba920bce	-0.0011142434
202	0x3d094d2c	0.033520862
203	0xbda2d5e4	-0.07950953
204	0xbe7599c1	-0.23984434
205	0xbe338966	-0.17532882
206	0x3e0a3d40	0.13499928
207	0xbda539a2	-0.08067633
208	0x3e0c394c	0.13693732
209	0x3da3598b	0.07976063
210	0xbde68a5b	-0.11256858
211	0xbd509f0c	-0.05093293
212	0x3d715eec	0.058928415
213	0x3d8cad15	0.0686895
214	0xbe7ebc46	-0.24876508
215	0xbd12dc75	-0.035854775
216	0x3e3c91f7	0.18415056
217	0x3cfa84f2	0.030580971
218	0xbd96d875	-0.07365505
219	0x3d25c4cf	0.040470894
220	0xbebdb574	-0.370525
221	0x3d5bac5d	0.053631175
222	0xbe477696	-0.1947883
223	0x3e4b4971	0.19852234
224	0x3a99e787	0.0011741974
225	0x3e546372	0.2074106
226	0x3d9a086b	0.07521137
227	0x3e78eeef	0.24309896
228	0x3de0672e	0.1095718
229	0x3dd10609	0.10206229
230	0x3e482f81	0.19549371
231	0xbdea7b2a	-0.11449273
232	0x3db10cfe	0.08645056
233	0xbe19e09c	-0.15027088
234	0xbe133970	-0.1437738
235	0xbdcd51c7	-0.100253634
236	0x3de5c6c3	0.112195514
237	0x3d335713	0.043784212
238	0xbe1d4345	-0.15357693
239	0xbe2242d5	-0.15845807
240	0x3e057530	0.13032985
241	0x3d8c79a1	0.068591364
242	0xbe02c332	-0.12769774
243	0xbc9afb88	-0.018918768
244	0x3d15d588	0.036580592
245	0x3e678006	0.22607431
246	0x3dd0c113	0.10193076
247	0xbf081677	-0.5315928
248	0x3e83d5d1	0.25749066
249	0x3e12177a	0.14266768
250	0xbddf59e9	-0.10905821
251	0x3a60e82a	0.0008579517
252	0x3ca4b2ef	0.020104853
253	0x3e9656c0	0.2936306
254	0xbe3bed4a	-0.18352237
255	0xbdb500d4	-0.088380486

bias f4 [150]
0	0xbeb7c680	-0.3589363
1	0xbd2f3706	-0.042777084
2	0xbe3c05f5	-0.18361647
3	0xbef25a63	-0.47334585
4	0xbe82f9d1	-0.2558122
5	0x3d80ee4c	0.062954515
6	0xbe351f1a	-0.17687646
7	0x3e6e09b2	0.23245886
8	0x3de6d39b	0.11270829
9	0xbd9d99d6	-0.076953575
10	0x3df25639	0.11832852
11	0x3de8711a	0.113496974
12	0x3e2861fb	0.16443627
13	0xbd98ba82	-0.074574485
14	0xbf03e300	-0.5151825
15	0x39f13155	0.00046003857
16	0xbe9d4489	-0.3071635
17	0x3e7cbc19	0.24681129
18	0x3e90e9d2	0.2830339
19	0xbe2750e7	-0.16339456
20	0xbe24fc87	-0.16111957
21	0xbe50bded	-0.20384951
22	0x3e17c4ab	0.14821117
23	0x3e979482	0.2960549
24	0x3d9c3d3f	0.07628869
25	0xbdcca993	-0.09993281
26	0xbe9c3f49	-0.30517033
27	0x3e88882c	0.2666639
28	0x3d3c95a5	0.04604115
29	0xbedee182	-0.43531424
30	0xbe1e9cd4	-0.15489513
31	0x3e4b90db	0.19879477
32	0xbe785eec	-0.2425496
33	0xbea24ce4	-0.31699288
34	0xbda53b24	-0.08067921
35	0x3e8c0742	0.27349287
36	0xbef84e18	-0.4849708
37	0xbe1e0ca1	-0.15434505
38	0xbd24004f	-0.040039357
39	0xbd894206	-0.06702046
40	0xbe3505d3	-0.17678003
41	0xbe570415	-0.20997651
42	0xbe8627f4	-0.26202357
43	0xbdbd92e0	-0.0925653
44	0x3df34f62	0.118803754
45	0x3e38c899	0.18045272
46	0x3e0d6b95	0.1381057
47	0x3eb33802	0.35003668
48	0xbe2db33c	-0.16962904
49	0xbe3802c5	-0.17969806
50	0xbe387492	-0.18013218
51	0x3c9d5203	0.019204145
52	0xbf0f1db6	-0.5590471
53	0x3ad59fa5	0.0016298188
54	0xbe771cc4	-0.24132067
55	0x3e31b090	0.1735251
56	0x3e052a13	0.13004331
57	0xbda21f32	-0.07916106
58	0x3e1bd1c8	0.15216744
59	0xbc5ac287	-0.013352043
60	0xbe5d1167	-0.2158867
61	0xbe713a4a	-0.23557392
62	0xbbf9abbc	-0.0076193493
63	0xbcf2d5ca	-0.029642958
64	0x3d950f3c	0.07278296
65	0xbda21c19	-0.079155155
66	0x3ea1bad0	0.3158784
67	0x3d17d80e	0.03707128
68	0x3dac9f09	0.08428771
69	0x3e185312	0.14875439
70	0xbd89065c	-0.06690666
71	0x3d28bdd1	0.041196648
72	0xbeb801aa	-0.3593877
73	0x3d2468b4	0.040138915
74	0x3d04d5f7	0.032430615
75	0xbe33c80d	-0.17556782
76	0x3df1ab12	0.11800207
77	0x3d9c8376	0.07642262
78	0xbe2cb1c9	-0.16864695
79	0xbd867f19	-0.06567211
80	0xbe9b40bb	-0.30322823
81	0xbba930c1	-0.0051632826
82	0xbcbb4e3e	-0.022864457
83	0x3c909d7b	0.017653218
84	0x3e389fa1	0.18029644
85	0xbe376d4d	-0.17912789
86	0xbd27553f	-0.04085278
87	0xbe161535	-0.14656527
88	0xbe84b009	-0.25915554
89	0x3d33c2ca	0.043886937
90	0x3d604e05	0.054761905
91	0x3db4cc51	0.08828033
92	0x3daf72d8	0.085668266
93	0x3e6ef768	0.23336565
94	0x3e907ac5	0.28218666
95	0xbe8137ef	-0.25237986
96	0xbe290ee4	-0.16509587
97	0xbe0d983d	-0.13827606
98	0x3d2ccbde	0.04218661
99	0x3e409ddf	0.18810223
100	0x3e36fdbb	0.17870228
101	0x3edf692f	0.43634936
102	0x3e3eec15	0.18644746
103	0xbe667fda	-0.22509709
104	0x3daf7c67	0.0856865
105	0xbe10c411	-0.14137293
106	0x3bf3e0ef	0.0074425857
107	0x3d90f146	0.07077269
108	0xbe3f2eeb	-0.18670242
109	0xbeaff7ce	-0.34368747
110	0xbcc59651	-0.024119528
111	0x3d9d1ee0	0.076719046
112	0x3d8aabd6	0.06771056
113	0x3cedee7e	0.029044386
114	0x3e1446d2	0.14480141
115	0x3ccb6c8f	0.024832038
116	0xbc033ef0	-0.008010611
117	0xbef255a5	-0.47330967
118	0xbd21e71f	-0.039527055
119	0xbe23e260	-0.16004324
120	0xbdf8926c	-0.12137303
121	0xbd9b8128	-0.07592994
122	0x3bce616f	0.006298236
123	0xbe0ad053	-0.13556032
124	0x3d71f5d7	0.05907234
125	0x3de9ea2d	0.114216186
126	0xbdacca45	-0.08437017
127	0x3e10f346	0.14155301
128	0x3c85336e	0.016259875
129	0x3de3f9ae	0.11131607
130	0xbdf6f0ef	-0.12057673
131	0x3c80cca7	0.015722586
132	0x3bae172f	0.0053128223
133	0x3e85997e	0.26093668
134	0x3d42f37e	0.047595493
135	0x3e0c5631	0.13704754
136	0xbe0cda40	-0.13755131
137	0xbe01c56f	-0.12672971
138	0xbe2b2224	-0.16712242
139	0x3e6f75b0	0.23384738
140	0x3e180538	0.14845741
141	0xbe02e368	-0.12782061
142	0xbe0321e3	-0.12805896
143	0x3e251945	0.16122921
144	0x3ba0c4c1	0.0049062674
145	0xbd0f802f	-0.035034355
146	0xbdfc1366	-0.123083875
147	0x3e145c1f	0.14488266
148	0x3e053bd4	0.13011104
149	0xbd199642	-0.037496813

weight f4 [64, 4]
0	0x3db65e34	0.089046866
1	0x3e6c2ea6	0.2306467
2	0xbea8430b	-0.3286365
3	0x3e9403c5	0.28909126
4	0x3c6245df	0.013810604
5	0xbdd1d459	-0.1024558
6	0xbe5f4c3b	-0.21806423
7	0x3e3e85d9	0.18605746
8	0xbd601b62	-0.054713614
9	0xbdd95e61	-0.106137045
10	0xbee44638	-0.44584823
11	0xbdffb5cc	-0.12485847
12	0xbe56af3f	-0.20965289
13	0xbe3b1af2	-0.18271998
14	0x3e275d22	0.16344121
15	0x3eb79efa	0.35863477
16	0xbe91e1fa	-0.2849272
17	0x3d83680f	0.06416332
18	0x3e86782e	0.26263565
19	0x3e95384d	0.29144517
20	0xbdc5d8dc	-0.09660503
21	0xbe29f18d	-0.1659605
22	0x3d297cc8	0.041378766
23	0x3f02c01f	0.51074404
24	0x3e06fa82	0.13181499
25	0xbdebe09d	-0.11517451
26	0xbecc99f9	-0.39961222
27	0xbe94ef9a	-0.2908905
28	0xbefcf1dc	-0.49403274
29	0x3e728d3b	0.23686688
30	0xbeee047a	-0.4648779
31	0xbe29efca	-0.16595379
32	0x3d1dd595	0.038533766
33	0xbd86e945	-0.065874614
34	0xbe8141dc	-0.2524556
35	0xbd18cec0	-0.037306547
36	0x3e7b456e	0.24538204
37	0xbd02deae	-0.031950645
38	0x3e521cf5	0.20518859
39	0x3c4503fd	0.012024877
40	0xbdd849b9	-0.105609365
41	0xbe85d6fa	-0.26140577
42	0x3d6ee83f	0.058326956
43	0x3f07774f	0.52916425
44	0x3c5e896e	0.0135825705
45	0x3d063cfd	0.032773007
46	0xbec398d7	-0.38202545
47	0xbe9703d6	-0.29495114
48	0x3e5178f2	0.20456293
49	0xbe84107f	-0.25793836
50	0x3dcc885a	0.099869445
51	0x3eab414a	0.3344825
52	0xbe880feb	-0.26574644
53	0x3e1c07c4	0.15237337
54	0x3ec03708	0.37541986
55	0xbd93afd8	-0.07211274
56	0xbdfaddcd	-0.122493364
57	0xbd17622a	-0.03695885
58	0xbe7ecca8	-0.24882758
59	0x3e486125	0.19568308
60	0xbd8b6c4b	-0.068077646
61	0xbe3b0d48	-0.18266785
62	0xbe983e52	-0.29735047
63	0x3ecb0f36	0.39660043
64	0xbe996f95	-0.29967943
65	0x3e92aa86	0.28645724
66	0x3eabe217	0.3357093
67	0x3e18a70f	0.14907478
68	0xbeac870b	-0.3369678
69	0x3e5990b5	0.21246608
70	0xbc528c8d	-0.012850893
71	0xbef1e066	-0.47241515
72	0x3ea5ee16	0.32408208
73	0xbef392bd	-0.4757289
74	0x3e0964ba	0.1341733
75	0x3ec2e5b4	0.38065875
76	0x3ea35a93	0.3190504
77	0x3d5b963b	0.053610068
78	0xbe210b84	-0.15727049
79	0xbea16fc5	-0.31530586
80	0xbedcb952	-0.43110138
81	0xbe026f1d	-0.12737699
82	0x3e297430	0.16548228
83	0x3e6da246	0.23206434
84	0x3eb0cade	0.34529775
85	0xbe8134a8	-0.25235486
86	0xbdfdb318	-0.12387675
87	0x3dae05d6	0.08497207
88	0xbf173ec5	-0.59080154
89	0xbc9eabc1	-0.019369008
90	0xbeb05664	-0.3444091
91	0x3dd431d2	0.10361065
92	0xbdbb740f	-0.09152996
93	0xbd0489ea	-0.032358088
94	0x3e9d882c	0.30767953
95	0x3e0f4e5a	0.13994732
96	0xbeb1da34	-0.34736788
97	0xbdc7bdef	-0.09753024
98	0xbeb37454	-0.3504969
99	0x3e8148f0	0.2525096
100	0xbcfb76e1	-0.030696334
101	0x3db75051	0.08950866
102	0x3e9c8e5d	0.30577365
103	0xbf005c33	-0.50140685
104	0x3ef7bfcd	0.4838852
105	0xbed78e4c	-0.4210075
106	0x3bb91151	0.005647816
107	0x3cc862e4	0.024461217
108	0xbebb66a8	-0.36601758
109	0xbf017737	-0.5057253
110	0xbd4eddef	-0.05050462
111	0x3e380f51	0.17974593
112	0x3e4408fb	0.19144051
113	0xbe957687	-0.29191992
114	0xbe926540	-0.28592873
115	0x3dffe238	0.1249432
116	0x3eac8c24	0.3370067
117	0x3e10179a	0.14071503
118	0xbe101599	-0.14070739
119	0xbe85f8db	-0.26166424
120	0x3e8f00ea	0.27930385
121	0x3e548494	0.207537
122	0xbd8721c1	-0.06598235
123	0xbef127c7	-0.4710066
124	0xbdfaf187	-0.12253099
125	0xbd9f013c	-0.07763907
126	0xbdc355b7	-0.09537833
127	0x3ecd8869	0.40143135
128	0x3ed69dc8	0.41917253
129	0xbd8fba66	-0.070179746
130	0x3e8af677	0.27141163
131	0xbe84ce37	-0.2593858
132	0xbf0d9a25	-0.5531333
133	0x3d1ff42b	0.039051216
134	0x3e067041	0.13128759
135	0xbdb3d689	-0.08781154
136	0x3efb3fc1	0.49072078
137	0x3e6e397d	0.23264118
138	0xbe981086	-0.29700106
139	0xbd97206f	-0.07379233
140	0x3eb9f666	0.363208
141	0xbcf13126	-0.029442381
142	0xbe4d4e11	-0.20049311
143	0x3ed02acc	0.4065765
144	0xbe90f85f	-0.28314492
145	0x3e8536c5	0.26018348
146	0xbf011de2	-0.5043622
147	0xbe040019	-0.12890662
148	0xbf6573fe	-0.89630115
149	0x3d5a148b	0.053242248
150	0x3e08c07c	0.13354677
151	0xbdb434b8	-0.08799118
152	0xbe91115d	-0.2833356
153	0xbcdf82b7	-0.02728401
154	0x3f14f10e	0.5818032
155	0x3d59d666	0.053182982
156	0x3ea91d10	0.33029985
157	0xbf0bf5ab	-0.54671735
158	0xbe24e3e4	-0.16102558
159	0x3e24bfb2	0.16088751
160	0x3ebf30a1	0.37341788
161	0x3d96d59a	0.0736496
162	0x3eaa29db	0.33235058
163	0x3d7fa9fc	0.06241797
164	0x3f29fd90	0.6640253
165	0xbeb4757b	-0.3524588
166	0x3ee956d9	0.45574072
167	0xbe0fe5da	-0.14052525
168	0xbd858fbf	-0.06521558
169	0xbe6c0224	-0.23047692
170	0xbe40a797	-0.1881393
171	0x3f09418b	0.53615636
172	0x3d9b76ac	0.07590994
173	0x3e664eab	0.22490947
174	0xbe760ce7	-0.2402836
175	0x3e29a151	0.16565444
176	0xbf035f78	-0.5131755
177	0x3d11cb17	0.035594072
178	0x3e207cfa	0.15672675
179	0xbe346693	-0.17617254
180	0xbf12f20b	-0.5740058
181	0xbe1cba69	-0.15305485
182	0x3ea60738	0.32427382
183	0x3e54e025	0.2078863
184	0xbea38e5e	-0.31944555
185	0x3e8923c5	0.26785102
186	0xbed64dc7	-0.41856214
187	0x3e650e8b	0.22368829
188	0xbe3ab241	-0.18232061
189	0x3f12cb32	0.573413
190	0x3cfef14a	0.031120915
191	0xbe596a59	-0.21231975
192	0x3e5ad489	0.21370138
193	0x3e876f72	0.26452214
194	0x3dfc8272	0.12329568
195	0xbed75598	-0.4205749
196	0xbf08246b	-0.5318057
197	0x3e8e442f	0.27786395
198	0xbe5bb089	-0.21454062
199	0x3ce442d1	0.027863892
200	0xbc66a1d3	-0.014076668
201	0x3ebb8584	0.36625302
202	0x3ea6a585	0.32548156
203	0xbf127ee4	-0.5722487
204	0x3e8bd33e	0.27309602
205	0xbf00d087	-0.5031819
206	0x3dff4cab	0.12465795
207	0xbcafda6f	-0.021466462
208	0xbc234e73	-0.009967434
209	0x3e810a12	0.25202996
210	0xbed8eb8e	-0.42367214
211	0x3d541026	0.051773213
212	0x3ec1223b	0.37721428
213	0x3e9dde4a	0.30833656
214	0x3d327496	0.043568216
215	0xbe4625a8	-0.19350302
216	0x3d55a785	0.052161712
217	0xbebca747	-0.36846372
218	0x3ecdd383	0.40200433
219	0x3e70a12b	0.2349898
220	0xbdd06f38	-0.10177463
221	0x3ca8ed3b	0.020620933
222	0xbeaad011	-0.33361867
223	0xbecfa88b	-0.40558276
224	0xbef6b950	-0.48188257
225	0xbf222cc3	-0.6334955
226	0x3bdcb4d8	0.0067354254
227	0x3e4c65ab	0.19960658
228	0xbe031d88	-0.12804234
229	0x3e728af1	0.23685814
230	0x3f0614a8	0.5237527
231	0xbe9257b5	-0.2858254
232	0x3ebd3c17	0.36959907
233	0x3ddc4db9	0.10757012
234	0xbe559500	-0.2085762
235	0x3eb1d006	0.34729022
236	0x3ecac55e	0.39603704
237	0x3de01a19	0.10942478
238	0x3e8966f6	0.26836365
239	0x3d77db7b	0.060512047
240	0xbe7fbed4	-0.24975139
241	0x3e5ab156	0.21356711
242	0x3e859714	0.26091826
243	0x3e5eb422	0.21748403
244	0xbd66fcd5	-0.056393463
245	0x3f49cbff	0.788269
246	0x3d6affe2	0.057372935
247	0x3eba28d9	0.3635929
248	0x3d8bf413	0.06833663
249	0x3eb72471	0.3576999
250	0x3ecbec46	0.398287
251	0xbe1267f1	-0.14297463
252	0xbbd3fa7a	-0.006469068
253	0x3e8a03c8	0.2695601
254	0x3e6647eb	0.22488372
255	0x3d0bd183	0.034135353

bias f4 [64]
0	0x3d9fa33b	0.077948056
1	0x3d7fdb9f	0.062465306
2	0x3da7039c	0.08154985
3	0x3c8f1643	0.01746667
4	0xbc977f8f	-0.018493442
5	0xbc903163	-0.017601674
6	0x3daf2407	0.085517935
7	0x3dc387ab	0.09547361
8	0x3d59108b	0.052994292
9	0xbdafa609	-0.085765906
10	0x3aef19eb	0.0018241977
11	0x3dce0849	0.10060174
12	0xbd64648b	-0.055759948
13	0xbde28811	-0.11061109
14	0x3d8842fb	0.066534005
15	0x3cedd5ab	0.029032549
16	0xbddddbc5	-0.10832933
17	0x3c8d23b5	0.01722894
18	0xbc42f606	-0.011899477
19	0x3d4e7891	0.05040795
20	0xbd85ec71	-0.06539238
21	0x3d098f71	0.033584062
22	0x3d26cb4c	0.040721223
23	0xbd9c783a	-0.07640119
24	0x3d4be889	0.04978231
25	0x3cb476d5	0.02202932
26	0x3b44a07d	0.0030002885
27	0x3d240488	0.040043384
28	0x3d665295	0.0562311
29	0x3d292f5e	0.04130494
30	0xbd13d25f	-0.036089297
31	0xbd58769e	-0.052847497
32	0xbd4cdec7	-0.050017145
33	0xbd803eb5	-0.062619604
34	0x3d82848f	0.0637294
35	0x3d52a009	0.051422153
36	0x3ddeedfd	0.108852364
37	0xbd22c7d1	-0.03974134
38	0xbdc8102a	-0.09768708
39	0x3dee0465	0.11621932
40	0xbdb8a83d	-0.09016464
41	0xbdd16e1f	-0.10226082
42	0x3d03376b	0.032035273
43	0x3d9d380f	0.07676708
44	0xbd6bb5d1	-0.05754644
45	0xbd9cce72	-0.07656564
46	0x3d5f19bd	0.054467905
47	0x3c9e1fe2	0.019302312
48	0xbcf7aeb1	-0.030234667
49	0x3d582fa4	0.05277981
50	0xbd8efc72	-0.06981744
51	0xbc9f502a	-0.019447405
52	0x3d39ec7c	0.045391545
53	0xbcc4220a	-0.023942012
54	0xbd9ea930	-0.07747114
55	0x3c6256ca	0.013814637
56	0x3d7e9731	0.062155906
57	0xbe05ba1a	-0.13059273
58	0x3d2edd6d	0.042691637
59	0xbd8e1e18	-0.06939334
60	0xbd0260bc	-0.031830534
61	0xbcca5567	-0.024698926
62	0xbddd5163	-0.10806539
63	0xbddaa7c7	-0.10676532

weight f4 [64, 214]
0	0x3e4d07b5	0.20022471
1	0x3d601d9f	0.05471575
2	0x3d8628b8	0.06550735
3	0x3de37232	0.111057654
4	0x3e32b943	0.17453484
5	0xba88ce1f	-0.0010437405
6	0x3d5cadc8	0.05387667
7	0xbd1756e4	-0.0369481
8	0x3b3f23e1	0.0029165673
9	0x3ca5d301	0.020242216
10	0xbd8f9ddd	-0.07012532
11	0x3c7290ad	0.014805001
12	0x3e33e790	0.17568803
13	0x3deaf6a4	0.11472824
14	0x3c6d542d	0.014485401
15	0x3d2a659d	0.041600812
16	0xbde425bf	-0.11140012
17	0x3d8993cc	0.06717643
18	0x3d589223	0.05287374
19	0xbd712753	-0.058875393
20	0x3bfda529	0.007740636
21	0xbd77875b	-0.06043182
22	0xbe60afe6	-0.219421
23	0xbda66f22	-0.08126666
24	0xbd99d8a6	-0.075120255
25	0x3e889392	0.26675087
26	0xbe31caaf	-0.17362474
27	0x3dda2cfd	0.10653112
28	0xbdd5ae17	-0.10433596
29	0xbcffd533	-0.031229591
30	0xbdb6d35a	-0.08927031
31	0x3b3e08ef	0.0028997024
32	0xbdeb4b4b	-0.1148897
33	0x3c91a665	0.017779538
34	0x3de41318	0.11136454
35	0x3e36ecb2	0.1786373
36	0xbe1273c2	-0.1430197
37	0xbe40932e	-0.18806145
38	0xbd9121b1	-0.07086504
39	0x3d9c42ce	0.076299295
40	0x3e1fe81f	0.15615891
41	0x3d879c57	0.06621616
42	0xbdf21923	-0.11821201
43	0x3de355f5	0.111003794
44	0x3cc7b012	0.024375949
45	0xbd765e80	-0.060148716
46	0x3d852720	0.06501603
47	0xbe1b7513	-0.15181379
48	0x3df5717a	0.119845346
49	0x3e6c9ca5	0.2310663
50	0xbd718f6c	-0.05897467
51	0x3e13fcd4	0.14451915
52	0x3e273a7b	0.16330902
53	0x3e849280	0.2589302
54	0x3dc00e6f	0.09377753
55	0xbd70cee8	-0.05879107
56	0xbd20f161	-0.039292697
57	0xbb8c0013	-0.00427247
58	0xbecfbd8d	-0.40574303
59	0x3dd51dfa	0.10406108
60	0x3dca38bb	0.09874102
61	0xbe02e25d	-0.12781663
62	0xbe30c8ac	-0.1726405
63	0xbe295f85	-0.16540344
64	0x3e12a7cf	0.14321826
65	0x3e5dd203	0.21662144
66	0x3de76568	0.112986386
67	0xbe8c27f0	-0.2737422
68	0x3ce13e75	0.027495602
69	0x3e279a0f	0.16367362
70	0xbe29b24b	-0.1657192
71	0x3c9cf988	0.019161955
72	0xbde6ab2c	-0.11263117
73	0xbda41edf	-0.08013701
74	0x3c8cd57d	0.017191643
75	0x3e1cd1c9	0.15314402
76	0xbd6b60cd	-0.057465363
77	0xbc558b54	-0.013033707
78	0x3da4ab94	0.080405384
79	0xbd0ab980	-0.033868313
80	0xbcefba27	-0.029263569
81	0xbdb852a4	-0.090001374
82	0xbd161aa3	-0.036646497
83	0xbe026b67	-0.12736283
84	0xbc57e108	-0.01317621
85	0x3e924ea1	0.28575614
86	0x3e59d374	0.21272069
87	0x3c788cba	0.015170271
88	0x3e2d9417	0.16951023
89	0xbd07ed4c	-0.03318529
90	0xbd063072	-0.032761045
91	0x3d6dd0c0	0.058060408
92	0x3d336037	0.04379293
93	0xbb69e376	-0.0035688556
94	0x3cabf57b	0.020991078
95	0x3e16a55e	0.1471152
96	0xbd9fe2d1	-0.07806934
97	0x3e7bb29c	0.24579853
98	0xbd34c660	-0.044134498
99	0x3de84bb8	0.11342567
100	0xbd9dda6b	-0.077076755
101	0xbdfe8c0a	-0.12429054
102	0x3ca3114c	0.019905709
103	0xbda9435a	-0.082647994
104	0xbe0dd0af	-0.13849138
105	0xbc430b5a	-0.011904562
106	0xbdfeb3fa	-0.124366716
107	0x3d4af6d1	0.04955179
108	0xbe1e0a7f	-0.15433691
109	0x3cd764a5	0.026293108
110	0xbacdb9a1	-0.001569558
111	0x3b6586de	0.0035023014
112	0xbe1a0fee	-0.15045139
113	0xbe1db149	-0.1539966
114	0xbd6224e6	-0.05521097
115	0x3e16c48d	0.14723416
116	0x3ddbdb72	0.10735215
117	0x3e004b3e	0.12528703
118	0xbd12949b	-0.035786252
119	0xbd82adeb	-0.063808285
120	0xbd9d0ca0	-0.07668424
121	0xbc65373a	-0.013990218
122	0x3e4ce814	0.20010406
123	0x3d360211	0.044435564
124	0x3b437107	0.0029822008
125	0x3e214c28	0.15751708
126	0xbc29ecfb	-0.010371442
127	0xbb590e8e	-0.0033120248
128	0x3da260b7	0.07928603
129	0xbcc3ba86	-0.023892652
130	0xbc1729b4	-0.009226251
131	0xbdce54ba	-0.10074754
132	0xbdf8cca8	-0.1214841
133	0xbbb8fea4	-0.00564559
134	0xbe0a621d	-0.1351399
135	0x3d389f19	0.045073602
136	0xbcbfc9ab	-0.023411592
137	0xbdaeea9c	-0.08540842
138	0xbcc9744b	-0.024591586
139	0xbd5dee27	-0.054182198
140	0xbd8a6ca9	-0.067590065
141	0x3e8ca046	0.2746603
142	0xbce8c51c	-0.028414302
143	0x3d1776e1	0.036978606
144	0x3e22a40b	0.1588289
145	0xbcb45d0c	-0.022017024
146	0x3da7c0e5	0.081910886
147	0xbdaae42f	-0.08344304
148	0x3d1a3211	0.037645403
149	0x3caaa180	0.020828962
150	0x3d90c851	0.07069457
151	0x3e128a82	0.14310649
152	0xbdd14add	-0.10219357
153	0x3e1be6ef	0.15224813
154	0x3e338ba8	0.17533743
155	0x3e4bf3ad	0.19917174
156	0xbdb5aae2	-0.08870484
157	0xbe63eb14	-0.22257644
158	0xbcbf715c	-0.023369484
159	0x3dcde5fb	0.10053631
160	0x3e27fc2d	0.16404791
161	0xbdbbe3a9	-0.09174282
162	0x3e6a1fb8	0.22863662
163	0xbdb1ee5e	-0.08688043
164	0xbd0da8a5	-0.03458466
165	0x3e7756d5	0.24154218
166	0xbe04fbbd	-0.12986656
167	0xbe779835	-0.24179156
168	0x3e7b7a5a	0.24558392
169	0x3d5eae00	0.054365158
170	0x3dd25596	0.102702305
171	0x3ea982ec	0.33107698
172	0x3e1bfc5b	0.15232985
173	0x3e44e427	0.19227658
174	0x3d8c26f9	0.06843371
175	0xbe4c164d	-0.19930382
176	0x3e971638	0.2950914
177	0x3dcfa995	0.10139767
178	0x3e33a5c1	0.17543699
179	0xba3dd685	-0.0007241744
180	0xbd325e3b	-0.043546896
181	0xbdb80155	-0.08984629
182	0xbd083421	-0.03325284
183	0xbdcce3c4	-0.1000438
184	0xbe41c10c	-0.18921298
185	0x3da540a8	0.08068973
186	0xbe9b6513	-0.3035055
187	0xbd65548a	-0.055988826
188	0x3dce751e	0.10080932
189	0x3cfa6b65	0.030568788
190	0x3d129f89	0.035796676
191	0x3dfcaf96	0.12338178
192	0x3db11b70	0.086478114
193	0xbd959223	-0.07303264
194	0x3cf0ca29	0.029393272
195	0x3dab7a66	0.08372955
196	0x3c3f286f	0.011667355
197	0xbe2c1fdb	-0.16809027
198	0xbd9be833	-0.07612648
199	0xbe26e9de	-0.16300151
200	0xbe1c5df4	-0.15270215
201	0x3d02879d	0.031867612
202	0xbe544a44	-0.20731455
203	0xbe3c5d75	-0.18395026
204	0x3e239a36	0.15976796
205	0xbe1e0e7f	-0.15435217
206	0x3dc9dd91	0.098567136
207	0xbe29eca4	-0.16594177
208	0x3d53dbd0	0.0517233
209	0x3d980754	0.07423273
210	0x3def3f97	0.11682051
211	0xbde21ee0	-0.11041045
212	0xbe37975f	-0.17928837
213	0xbca8faee	-0.020627465
214	0x3e0a076b	0.13479392
215	0xbdf69a08	-0.12041098
216	0xbd91e144	-0.07123044
217	0xbca38c23	-0.019964283
218	0x3e2c2770	0.16811919
219	0xbd718bb5	-0.058971126
220	0xbd48a56c	-0.048985884
221	0xbd2396dc	-0.039938793
222	0xbe437c88	-0.19090474
223	0x3e2e370e	0.17013189
224	0xbd846b65	-0.064657964
225	0xbe18f61e	-0.14937636
226	0xbc737f44	-0.014861885
227	0xbd88413f	-0.0665307
228	0x3c6767e6	0.014123892
229	0xbe829680	-0.25505447
230	0xbd8f352a	-0.06992562
231	0x3bc96fbd	0.0061473534
232	0x3d82eb57	0.06392544
233	0xbd5d78ab	-0.054070156
234	0xbe17ebc4	-0.14836031
235	0xbe13f937	-0.14450537
236	0x3da14dcd	0.078761674
237	0xbcf78f6d	-0.030219758
238	0xbdbaa887	-0.09114175
239	0xbd780d67	-0.060559656
240	0xbd9753b6	-0.073890135
241	0xbdb7c269	-0.08972628
242	0x3e73a0db	0.2379183
243	0xbd7b1e90	-0.061308444
244	0x3de168e2	0.11006333
245	0xbdd3c1a9	-0.10339672
246	0xbd6264e1	-0.055271987
247	0x3dcf09ec	0.10109314
248	0x3e88e07d	0.2673377
249	0x3e573339	0.21015634
250	0xbe8494a3	-0.2589465
251	0xbe2b6e27	-0.16741239
252	0x3e72c956	0.23709616
253	0x3cd348e4	0.025791593
254	0xbe9abb32	-0.30220944
255	0xbd4b5d11	-0.049649302

bias f4 [64]
0	0xbc77cacb	-0.015124033
1	0xbd89146d	-0.06693349
2	0x3cf160c6	0.02946509
3	0x3dc1fe56	0.09472339
4	0xbdc103f7	-0.09424584
5	0x3c1882c4	0.009308521
6	0xbdbe42d3	-0.092900895
7	0x3a6b7bb6	0.0008982973
8	0xbd6945be	-0.056951277
9	0x3d79fc45	0.0610316
10	0x3d50cb07	0.050974872
11	0x3c9ee154	0.019394554
12	0xbd2351d6	-0.039872967
13	0xbd66ffc7	-0.056396272
14	0x3bfab2ab	0.0076506934
15	0x3d85d5c6	0.06534915
16	0x3c543301	0.012951613
17	0x3d07bfcd	0.0331419
18	0x3cf1e73f	0.029529212
19	0x3cc5ede4	0.024161287
20	0xbdadb6de	-0.08482145
21	0x3d895197	0.06705015
22	0xbc957027	-0.018241955
23	0x3ca8d8a4	0.020611115
24	0x3cd05858	0.02543275
25	0xbd1f09e4	-0.03882779
26	0xbd1d5922	-0.03841508
27	0xbcee326d	-0.02907678
28	0x3d4b2b9b	0.049602132
29	0xbd8ef219	-0.0697977
30	0xbd86f310	-0.06589329
31	0x3dffc1c2	0.12488128
32	0xbcc2c1d6	-0.023774069
33	0x3c25c365	0.0101173865
34	0x3d516bc6	0.05112817
35	0xbd3454f0	-0.044026315
36	0x3c8ed102	0.017433647
37	0x3cf21b77	0.029554112
38	0xbd507ff1	-0.050903264
39	0xbd6d8879	-0.05799148
40	0x3d98cae7	0.074605756
41	0x3de238ce	0.11045991
42	0xbc0ad042	-0.008472504
43	0xbd88baf9	-0.06676287
44	0xbd936363	-0.07196691
45	0xbd7d328a	-0.061815776
46	0x3c997546	0.018732678
47	0xbd420c04	-0.04737474
48	0xbc87f8cc	-0.016598128
49	0xbd21c217	-0.03949174
50	0x3d5d1527	0.05397525
51	0xbdb30a0c	-0.08742151
52	0xbcd50428	-0.026002958
53	0xbdcfa7da	-0.10139437
54	0x3cd0a4de	0.02546924
55	0x3add368b	0.0016877217
56	0xbd1a2ad5	-0.037638504
57	0xbd8d7766	-0.06907539
58	0x3d3cbbff	0.046077725
59	0xbdb9ef09	-0.090787955
60	0x3d77b355	0.06047376
61	0x3d4cae5a	0.049970962
62	0xbd8fc3ed	-0.07019792
63	0x3d241aa4	0.04006447

weight f4 [150, 22]
0	0x3da14fb8	0.07876533
1	0xbc1684fe	-0.009186981
2	0x3dee7b10	0.11644566
3	0xbc5cc959	-0.013475739
4	0x3e0119dc	0.12607521
5	0x3d6a27c9	0.05716685
6	0xbd10f832	-0.035392947
7	0xbd1a3932	-0.037652202
8	0xbc6f9a86	-0.014624244
9	0xbcd67e8f	-0.026183395
10	0x3c98a7e1	0.018634738
11	0x3e1f4eb6	0.1555737
12	0x3da04e9f	0.07827496
13	0x3d5b4a51	0.05353767
14	0x3ee006ce	0.43755192
15	0xbd983e9f	-0.07433819
16	0x3daf2237	0.08551448
17	0xbe180906	-0.14847192
18	0x3d843ef7	0.06457322
19	0xbdb02ec0	-0.08602667
20	0x3da1a860	0.07893443
21	0xbdb2345a	-0.087013915
22	0xbeb6d255	-0.35707346
23	0xbe5e9932	-0.21738127
24	0x3de9e42f	0.11420476
25	0x3df04c31	0.11733282
26	0xbc703280	-0.014660478
27	0xbdabeebe	-0.08395146
28	0x3d3792e6	0.044817828
29	0x3c857497	0.016290946
30	0x3d5c908e	0.053848796
31	0xbcb7866a	-0.02240296
32	0x3d523d4b	0.051327985
33	0xbb7835a8	-0.0037873778
34	0xbe50f1f5	-0.204048
35	0xbe00684d	-0.12539788
36	0xbde6bafe	-0.11266135
37	0x3d9c4384	0.07630065
38	0xbde54437	-0.111946516
39	0x3c85b5d0	0.016322047
40	0x3cb41922	0.02198464
41	0x3cc73e45	0.024321685
42	0xbdd1ee6b	-0.10250553
43	0x3b2c1a6d	0.0026260868
44	0x3d9e7359	0.077368446
45	0x3db98d4a	0.09060152
46	0xbc1107db	-0.008851971
47	0xbdb146cf	-0.08656084
48	0xbdf9361f	-0.12168526
49	0xbc9ec952	-0.019383106
50	0xbdf97abc	-0.12181613
51	0x3d3194a6	0.043354653
52	0x3c19a83a	0.009378487
53	0x3dd5574b	0.104170404
54	0xbc773524	-0.015088353
55	0xbdba1248	-0.09085518
56	0x3dd19c76	0.10234921
57	0x3da3dac9	0.08000714
58	0x3e169f8b	0.14709298
59	0xbd04bd8c	-0.03240733
60	0xbd72c9d4	-0.05927451
61	0x3c605b16	0.013693592
62	0x377ac0e4	1.4946072e-05
63	0x3d037083	0.03208972
64	0x3bac9182	0.0052663693
65	0xbc946b84	-0.018117674
66	0x3e3a1135	0.18170626
67	0x3cf84444	0.03030599
68	0xbcebf15e	-0.028801616
69	0xbba0fbf2	-0.0049128467
70	0x3cdb3278	0.026757464
71	0x3da25d86	0.079279944
72	0xbda1139f	-0.078650706
73	0xbd43424f	-0.04767066
74	0x3e16ee92	0.14739445
75	0xbd931ff9	-0.07183833
76	0x3db272d7	0.0871331
77	0xbe8188f7	-0.25299808
78	0x3e275f3a	0.1634492
79	0x3da3a238	0.07989925
80	0xbe8d0c39	-0.27548388
81	0xbda9b36f	-0.08286177
82	0x3e41898b	0.18900125
83	0xbe6892a9	-0.22712196
84	0x3d8d347d	0.06894777
85	0xbdcfc093	-0.101441525
86	0x3e0ee409	0.13954176
87	0xbd80736e	-0.062720165
88	0x3c390923	0.011293682
89	0xbde5f6c7	-0.1122871
90	0x3d607773	0.054801416
91	0xbcb18e99	-0.021674441
92	0x3cff90c4	0.03119696
93	0xbd2aa688	-0.041662723
94	0x3de1fac2	0.110341564
95	0xbd4e536b	-0.050372522
96	0xbd326020	-0.043548703
97	0xbd1bc74c	-0.03803186
98	0xbc2c133f	-0.0105026355
99	0x3dce7584	0.10081008
100	0x3d895268	0.06705171
101	0xbc1853fa	-0.009297365
102	0x3e3363e6	0.17518577
103	0xbd593258	-0.053026527
104	0xbdb59617	-0.08866518
105	0xbd298af9	-0.0413923
106	0xba05e49f	-0.00051076146
107	0xbc7353fd	-0.014851567
108	0x3db4886d	0.08815084
109	0xbd3242eb	-0.04352085
110	0xbeadb2d2	-0.33925492
111	0xbe191e0c	-0.14952868
112	0x3e7841c4	0.24243838
113	0x3daca481	0.08429814
114	0xbd65b43d	-0.05608009
115	0xbdf9bed4	-0.12194601
116	0x3e0fb72a	0.14034715
117	0xbde04706	-0.10951047
118	0x3d69db5c	0.057093963
119	0x3dad745d	0.0846946
120	0x3d6ed731	0.05831069
121	0x3dcfccd4	0.1014649
122	0xbe415560	-0.18880224
123	0xbe229644	-0.15877634
124	0x3e64cba8	0.22343314
125	0xbda226ed	-0.07917581
126	0xbc5ee436	-0.013604214
127	0x3e4310bd	0.19049354
128	0xbe7dc2a1	-0.24781276
129	0x3d866754	0.06562677
130	0xbe0ad2f2	-0.13557032
131	0x3cd21a0a	0.025647182
132	0x3dc1e119	0.09466762
133	0xbde380b7	-0.11108535
134	0xbced6efe	-0.02898359
135	0x3c932581	0.01796222
136	0xbc8cae55	-0.017172972
137	0xbc15005a	-0.009094322
138	0xbccaf111	-0.024773153
139	0xbddb54dd	-0.10709546
140	0xbdaae91c	-0.08345243
141	0x3d23abf6	0.039958917
142	0xbd81484f	-0.0631262
143	0xbe6f50b2	-0.23370627
144	0xbc853240	-0.016259313
145	0xbd28d98e	-0.0412231
146	0xbe4f8c0a	-0.20268264
147	0xba7f1d9a	-0.0009731889
148	0x3c8f5c9c	0.017500214
149	0xbd093d00	-0.03350544
150	0xbcf57954	-0.02996508
151	0x3dd8d470	0.10587394
152	0x3d23f2b5	0.040026385
153	0x3d0f094a	0.034920968
154	0xbd4f9d6d	-0.050687242
155	0xbe0cc549	-0.13747133
156	0x3e3808e7	0.17972146
157	0x3df909b2	0.12160052
158	0x3cf42936	0.029804807
159	0xbd9db3b3	-0.077002905
160	0xbd6b1f5c	-0.057402954
161	0xbc973395	-0.018457213
162	0xbdaf7010	-0.08566296
163	0x3bb4e309	0.0055202288
164	0x3ddb85a6	0.10718851
165	0x3e95376f	0.29143855
166	0xbbd8afc1	-0.0066127484
167	0xbe3492bb	-0.17634098
168	0x3b3a3b96	0.0028416864
169	0x3d91556b	0.0709637
170	0xbd6bc014	-0.057556227
171	0x3e48da8e	0.19614622
172	0xbd294499	-0.041325185
173	0x3d6b1122	0.057389386
174	0xbd4cf9d4	-0.050042942
175	0x3b18bfca	0.0023307675
176	0x3e0bd18b	0.13654153
177	0x3df0edbc	0.11764094
178	0xbdbf44ee	-0.09339319
179	0xbdd7c2be	-0.10535191
180	0x3a6ac35a	0.0008955501
181	0x3e5bb423	0.21455435
182	0xbe0dd4d2	-0.13850716
183	0xbd95d898	-0.073167026
184	0x3caf2b8c	0.02138307
185	0xbd92841c	-0.07154104
186	0x3cc835b5	0.024439672
187	0xbe08af4e	-0.13348123
188	0x3e52a030	0.20568919
189	0x3e3a4e33	0.18193893
190	0xbe459827	-0.19296323
191	0x3e455a50	0.19272733
192	0x3e91b815	0.28460756
193	0xbeafbfdb	-0.34326062
194	0x3d374587	0.04474404
195	0xbe364577	-0.17799936
196	0x3e832933	0.2561737
197	0xbc11f0c4	-0.008907501
198	0xbd8ec2a2	-0.06970717
199	0x3dcd55bb	0.100261174
200	0x3d8672c5	0.06564859
201	0xbdafdfd2	-0.08587612
202	0xbd097ca9	-0.03356615
203	0xbdc4d889	-0.09611613
204	0x3cc653e1	0.024209918
205	0x3d37941b	0.04481898
206	0xbca66ec5	-0.02031649
207	0x3b2f2d36	0.0026729829
208	0x3bbf3ea3	0.0058363243
209	0x3e336285	0.17518051
210	0xbead156a	-0.338054
211	0x3eade1ff	0.33961484
212	0x3ce9c280	0.028535128
213	0xbcfdf86e	-0.03100225
214	0x3d0f4943	0.034981977
215	0x3b596a63	0.0033174984
216	0x3a020391	0.0004959638
217	0xbd3a5455	-0.04549058
218	0xbc91ae1f	-0.017783223
219	0xbc873b27	-0.016507698
220	0x3d1db90c	0.038506553
221	0x3d95e679	0.0731935
222	0xbd7a2432	-0.061069675
223	0xbd32df9f	-0.043670293
224	0xbdebab67	-0.11507302
225	0xbc5be96c	-0.013422351
226	0xbd2165aa	-0.039403595
227	0x3cc937f8	0.02456282
228	0xbd94a233	-0.072574995
229	0x3d00fda8	0.031491905
230	0x3cfcdbe1	0.030866565
231	0xbd91f018	-0.071258724
232	0x3c21b6df	0.00987026
233	0x3ca271b8	0.019829616
234	0x3dfc5a80	0.12321949
235	0x3c775ccc	0.015097808
236	0x3cc9aeaf	0.024619428
237	0xbc7dbb76	-0.015486589
238	0x3e90249a	0.28152925
239	0x3e38f66f	0.18062757
240	0xbd9b5ac9	-0.07585675
241	0x3d28f9fb	0.041254025
242	0xbcd2433b	-0.025666824
243	0xbda283ad	-0.079352714
244	0xbdbce78b	-0.09223851
245	0xbd4cbc41	-0.04998422
246	0xbdb37c0c	-0.087638944
247	0xbc9cda09	-0.019146936
248	0x3c855da8	0.01628001
249	0xbd4b9bec	-0.049709246
250	0xbba36134	-0.0049859527
251	0x3c2201d7	0.009888134
252	0x3d3b0096	0.045654856
253	0xbde35b7d	-0.111014344
254	0x3b59ee30	0.0033253543
255	0xbc843419	-0.016138123

bias f4 [150]
0	0xbdbf8558	-0.09351605
1	0xba2fbd87	-0.0006703962
2	0x3d979195	0.074008144
3	0xbcbcdfbd	-0.023055905
4	0xbd25f7f0	-0.040519655
5	0x3ed0499c	0.4068116
6	0x3d997ba3	0.07494285
7	0xbdd91dac	-0.106013626
8	0xbea7bed3	-0.32762775
9	0xbe7499b4	-0.23886758
10	0x3ecd0f7a	0.4005087
11	0xbe10569e	-0.14095542
12	0xbd93649e	-0.071969256
13	0xbed6ab6a	-0.41927654
14	0xbe0c9530	-0.13728786
15	0x3e2236f8	0.15841281
16	0x3e58bc30	0.21165538
17	0xbc809a32	-0.015698526
18	0x3de5a8d6	0.112138435
19	0x3d8d24c2	0.068917766
20	0x3ea8d1d9	0.329726
21	0xbd67384b	-0.05645017
22	0x3da68fce	0.08132897
23	0x3d811c29	0.06304199
24	0xbc0a8b83	-0.008456114
25	0xbd179c27	-0.037014153
26	0x3ec81a80	0.39082718
27	0x3df38476	0.11890499
28	0x3ee159cf	0.4401383
29	0xbd35833c	-0.044314608
30	0xbe9441eb	-0.2895654
31	0xbea0010d	-0.31250802
32	0x3d97f5ab	0.07419904
33	0x3d36cff9	0.044631932
34	0xbe1b53b6	-0.15168652
35	0x3d8d42db	0.06897517
36	0xbe779cf2	-0.24180964
37	0xbe54321d	-0.20722242
38	0x3ec015a9	0.37516525
39	0xbd7eba30	-0.06218928
40	0xbeb14aae	-0.3462729
41	0xbd41e00a	-0.0473328
42	0x3dfc61bb	0.12323328
43	0x3e24e79d	0.16103978
44	0x3e0fb22d	0.14032812
45	0x3d9683f3	0.07349386
46	0xbd2a3b2a	-0.04156033
47	0xbec49cba	-0.38400823
48	0x3e97be6e	0.29637474
49	0xbe1b1b0f	-0.15147041
50	0x3e4c1f8a	0.19933906
51	0xbd914d90	-0.07094872
52	0x3d26443a	0.04059241
53	0xbeccba87	-0.3998606
54	0x3d3f179b	0.04665337
55	0xbd810c1c	-0.06301138
56	0xbe13909d	-0.14410634
57	0xbd4e8cd1	-0.05042726
58	0xbeb67e66	-0.3564331
59	0x3d6349df	0.05549037
60	0xbec51c34	-0.3849808
61	0x3e882d17	0.265969
62	0x3d7ebf96	0.06219443
63	0x3eb84288	0.3598826
64	0xbd8f2be0	-0.0699079
65	0xbd7a184a	-0.06105832
66	0xbe9c0c26	-0.3047802
67	0x3e7f4503	0.2492867
68	0x3e4b796c	0.19870538
69	0xbe933d7e	-0.28757852
70	0xbf033eed	-0.5126789
71	0x3da4c268	0.080448925
72	0x3e9f55a7	0.31120035
73	0x3b27971a	0.0025572241
74	0x3e87aab1	0.26497415
75	0x3ed41913	0.4142538
76	0x3e9ab331	0.30214837
77	0x3ee65dd9	0.44993475
78	0x3e0597a8	0.13046134
79	0x3df235be	0.11826657
80	0x3e446a13	0.19181089
81	0x3e36b198	0.17841184
82	0x3f0ad197	0.5422606
83	0xbd4b8480	-0.04968691
84	0xbe14c5cb	-0.14528577
85	0xbd17af63	-0.037032496
86	0xbed47255	-0.41493478
87	0x3c5f6002	0.01363373
88	0x3d6ed5e7	0.058309462
89	0x3bb6293d	0.005559115
90	0xbc370764	-0.011171196
91	0x3ed81deb	0.42210326
92	0xbee93842	-0.45550734
93	0x3f045afc	0.5170133
94	0x3eabf53e	0.33585542
95	0xbdfc0057	-0.12304752
96	0x3d89b0e0	0.06723189
97	0xbe473a09	-0.19455732
98	0xbe52189d	-0.20517202
99	0x3eb4c968	0.3530991
100	0x3bc8bb6b	0.0061258576
101	0xbec49e05	-0.3840181
102	0xbeee833d	-0.46584502
103	0x3eb4e8d1	0.35333875
104	0xbe1e1ace	-0.15439913
105	0x3f05a489	0.52204186
106	0x3e01ab61	0.12663032
107	0x3e436cac	0.19084424
108	0x3ec51304	0.3849107
109	0xbd7b31b8	-0.061326712
110	0xbd436c4d	-0.047710706
111	0xbc20e767	-0.009820796
112	0xbf11bc7b	-0.56928223
113	0xbdf55cf6	-0.119806215
114	0xbf09ee7f	-0.5387954
115	0xbeeed61d	-0.4664773
116	0x3ec14edf	0.37755486
117	0xbe436e97	-0.19085155
118	0xbcca48d0	-0.024692923
119	0xbe5c2924	-0.21500069
120	0xbebf8c3a	-0.37411672
121	0x3e3587c0	0.17727566
122	0x3e5389e5	0.20658071
123	0x3d563207	0.052293804
124	0xbe9dd420	-0.308259
125	0xbea8b7ab	-0.32952628
126	0x3e7e58c9	0.24838556
127	0x3e2f3a39	0.17112054
128	0xbddbd387	-0.10733705
129	0x3e265193	0.16242056
130	0xbe80242b	-0.25027594
131	0xbd8a7c7f	-0.06762027
132	0xbe4a82cb	-0.19776456
133	0x3cd66e4b	0.026175639
134	0xbc945205	-0.018105516
135	0x3d961386	0.073279426
136	0x3f0a4730	0.54014874
137	0xbd2382b0	-0.039919555
138	0x3df8cbf9	0.1214828
139	0x3d3d5e25	0.04623236
140	0xbe2e23c1	-0.17005827
141	0xba1d8ba0	-0.00060098805
142	0x3b81bef5	0.0039595314
143	0x3ccd7c3b	0.025083652
144	0xbe68b3b0	-0.22724795
145	0xbeb4a33d	-0.3528079
146	0xbcf53fe8	-0.0299377
147	0xbdcad4b2	-0.0990385
148	0xbe0b72c3	-0.13617997
149	0x3e7a92e4	0.24470097
