examples/rl/experiments_from_paper/experiments_data/trained_models/TiltrotorPlus8DofHoverEnv/ConventionalTiltrotorPlus8DofHoverEnv-2/ppo/TiltrotorPlus8DofHoverEnv-v0.pt (torch, 279745 bytes, 16 tensors)

weight f4 [150, 18]
-0.22414955 0.009502641 0.13624059 0.10877619 0.12963961 -0.2386497 0.09720539 -0.11780738
0.09640496 0.20093565 0.093698345 0.16975656 -0.35195115 -0.0955183 -0.05487802 -0.045864258
0.19726227 -0.0842639 -0.05567678 0.052607596 0.4696649 0.14340271 -0.04437793 -0.065357156
-0.08344119 -0.04997626 0.094446 0.20903039 -0.14238024 0.17072098 0.014928151 0.14889619
0.030535918 -0.012340676 -0.24110828 -0.05026051 0.033652406 -0.22937977 0.15792526 -0.047282293
0.082468495 0.039751757 0.12430036 -0.04212438 -0.08744516 -0.07132093 0.21403788 -0.119851224
0.22774366 -0.048227396 -0.057449773 -0.16814554 0.011702579 0.10118085 -0.039762944 -0.20557815
0.31589994 -0.15975526 -0.008931775 0.083616346 -0.00964439 0.005677459 -0.044453084 -0.010991084
0.33758432 -0.2967973 0.11741232 0.12601626 -0.035187688 0.06523963 0.07945707 -0.18937692
0.116027184 0.3609172 0.07749012 -0.07876524 -0.06254014 0.15032275 0.01629852 -0.16785212
-0.031227192 -0.05574171 0.03601228 -0.04768721 0.0725208 -0.014787056 -0.17677172 0.031878352
-0.09129977 -0.16910762 0.30892488 -0.01380215 -0.1344664 -0.09204946 0.083008625 -0.12500557
0.105960205 -0.24210104 0.100394264 -0.018578444 -0.07391962 -0.40597293 -0.07084414 -0.25947785
0.07263684 0.100523435 0.19611529 -0.04944988 0.052711084 -0.17697497 -0.033524305 0.0007290906
0.0019976532 0.1464127 -0.018180514 -0.054144777 -0.18189456 -0.01773553 0.05950075 -0.017098408
0.05927435 0.14804982 -0.07242766 -0.051558174 0.13408822 -0.005836424 0.08254296 0.27309558
0.27199847 -0.16509308 0.01250705 -0.12591949 0.04521813 0.044414252 0.009221925 -0.10304415
0.1592277 0.12651771 0.054295063 -0.02802761 -0.08483382 -0.24112466 -0.20661837 0.09099705
0.06125867 -0.09613307 -0.031481482 -0.029936511 0.018812513 -0.028415738 -0.0031396167 -0.061070554
-0.06808295 -0.017473979 -0.06902388 -0.0061716754 -0.013831732 0.19908702 0.15490921 -0.03509588
0.33952454 -0.24025123 0.16960178 -0.2610219 -0.044260956 0.06405904 -0.11723486 0.050527837
-0.08598327 0.077039994 0.10010713 -0.13154717 0.14194715 0.18991086 0.075334065 -0.2032296
0.18092915 -0.106425636 0.019682521 -0.2707426 0.014167377 0.20314404 0.09376365 -0.054768603
0.068618156 0.08467542 -0.18680005 -0.015313049 0.08585847 -0.24515882 -0.034219526 -0.08023068
0.015261958 0.013845864 -0.09969676 -0.029277438 0.16018905 -0.19946182 0.03203984 0.22091958
-0.004290531 -0.3203789 0.01920582 -0.042953294 -0.17145771 0.30782223 0.17893584 0.01758975
-0.2511035 -0.119658805 -0.2108466 -0.14386049 0.113562465 -0.12416312 -0.07695121 -0.20570542
-0.0046491204 -0.3305344 -0.1342435 -0.11471154 0.08954364 0.04570566 -0.15595047 0.0940058
0.089545034 0.025885634 -0.08078018 -0.179977 0.22682661 -0.08386618 -0.0484575 -0.1536301
0.0662027 -0.06105475 -0.06131094 -0.16087171 -0.2608409 0.11254899 0.03339894 -0.082145035
-0.02651169 0.018156113 -0.18967588 -0.041155256 0.08172149 0.24710006 -0.13601409 -0.05024892
0.0033885695 -0.07146086 0.21773551 -0.005811799 0.21562591 -0.056176104 0.089798026 -0.0013374493
00000000: 7687 65be f7b0 1b3c a782 0b3e 0dc6 de3d
00000010: 3fc0 043e 9660 74be 9f13 c73d ff44 f1bd
00000020: f76f c53d 13c2 4d3e ebe4 bf3d aad4 2d3e
00000030: f132 b4be 199f c3bd c6c7 60bd 29dc 3bbd
00000040: 1fff 493e 8d92 acbd 560d 64bd 107b 573d
00000050: eb77 f03e 29d8 123e a2c5 35bd f9d9 85bd
00000060: 37e3 aabd e8b3 4cbd e86c c13d 100c 563e
00000070: 20cc 11be 7bd1 2e3e 3495 743c 3e78 183e
00000080: 7626 fa3c 8c30 4abc 17e5 76be f7dd 4dbd
00000090: 1bd7 093d 88e2 6abe 29b7 213e 14ab 41bd
000000a0: 3ee5 a83d bdd2 223d 3091 fe3d 9d8a 2cbd
000000b0: 7316 b3bd b510 92bd bf2c 5b3e 8f74 f5bd
000000c0: a235 693e 178a 45bd 7450 6bbd 582e 2cbe
000000d0: 2dbc 3f3c e837 cf3d 78de 22bd 1483 52be
000000e0: a3bd a13e e296 23be 9456 12bc 0c3f ab3d
000000f0: 8103 1ebc fa09 ba3b 7014 36bd f313 34bc
00000100: dad7 ac3e d1f5 97be df75 f03d 680a 013e
00000110: f720 10bd 5b9c 853d 63ba a23d 06ec 41be
00000120: a99f ed3d 24ca b83e 24b3 9e3d ac4f a1bd
00000130: 0b15 80bd 35ee 193e 7984 853c 6de1 2bbe
00000140: 2bd0 ffbc 6b51 64bd 9d81 133d aa53 43bd
00000150: c985 943d 6845 72bc a503 35be e092 023d
00000160: 60fb babd 8c2a 2dbe 672b 9e3e 6a22 62bc
00000170: 8fb1 09be 6d84 bcbd 6d00 aa3d 7601 00be
00000180: aa01 d93d 56e9 77be 829b cd3d d231 98bc
00000190: 2b63 97bd afdb cfbe bc16 91bd 48da 84be
000001a0: a0c2 943d 3bdf cd3d 72d2 483e f58b 4abd
000001b0: 94e7 573d ed38 35be c850 09bd 7120 3f3a
000001c0: 0feb 023b 36ed 153e 4def 94bc eac6 5dbd
000001d0: 9142 3abe 1a4a 91bc 0fb7 733d f611 8cbc
000001e0: a9c9 723d 5f9a 173e f454 94bd aa2e 53bd
000001f0: 6c4e 093e 793f bfbb 490c a93d 2fd3 8b3e
00000200: 6243 8b3e 290e 29be 5fea 4c3c 0af1 00be
00000210: a536 393d b8eb 353d 8f17 173c d008 d3bd
00000220: 960c 233e dc8d 013e 8064 5e3d 299a e5bc
00000230: 5bbd adbd 62e9 76be c493 53be a95c ba3d
00000240: 5fea 7a3d 6ae1 c4bd baf2 00bd 6a3d f5bc
00000250: b31c 9a3c 1fc8 e8bc 07c2 4dbb 1e25 7abd
00000260: 136f 8bbd 9725 8fbc 645c 8dbd c43b cabb
00000270: 7d9e 62bc 78dd 4b3e 85a0 1e3e b3c0 0fbd
00000280: 29d6 ad3e 6b04 76be 17ac 2d3e aaa4 85be
00000290: fa4a 35bd 6331 833d d518 f0bd 47f6 4e3d
000002a0: ff17 b0bd 25c7 9d3d f804 cd3d 4db4 06be
000002b0: 985a 113e fe77 423e bf48 9a3d 6c1b 50be
000002c0: 7e45 393e aff5 d9bd 3d3d a13c c69e 8abe
000002d0: 491e 683c fe04 503e 2807 c03d 0b55 60bd
000002e0: ad87 8c3d 4e6a ad3d 8348 3fbe 95e3 7abc
000002f0: 91d6 af3d ea0a 7bbe c629 0cbd fc4f a4bd
00000300: 4b0d 7a3c c3d9 623c d12d ccbd 3dd7 efbc
00000310: 9908 243e b83f 4cbe 353c 033d be38 623e
00000320: 9597 8cbb b408 a4be 8655 9d3c cbef 2fbd
00000330: 9c92 2fbe e09a 9d3e f53a 373e 6118 903c
00000340: a390 80be ad0f f5bd 2ce8 57be 2a50 13be
00000350: 7093 e83d 3c49 febd 9998 9dbd 71a4 52be
00000360: a657 98bb ce3b a9be 2177 09be e2ed eabd
00000370: a862 b73d dc35 3b3d 7bb1 1fbe 1d86 c03d
00000380: 6363 b73d 1c0e d43c 1470 a5bd e44b 38be
00000390: 3c45 683e 08c2 abbd 5f7b 46bd 3551 1dbe
000003a0: 4895 873d 8c14 7abd 2e21 7bbd 8ebb 24be
000003b0: f08c 85be 1680 e63d 54cd 083d a83b a8bd
000003c0: 0b2f d9bc 21bc 943c 653a 42be 6a92 28bd
000003d0: 995d a73d cc07 7d3e 4747 0bbe d0d1 4dbd
000003e0: c312 5e3b 125a 92bd 0ff6 5e3e e770 bebb
000003f0: 0acd 5c3e ea18 66bd 07e8 b73d 5a4d afba

bias f4 [150]
0.028862538 -0.048438948 0.036194693 -0.01040888 0.003585267 -0.2768714 0.10170722 -0.06403191
-0.13354516 0.090419464 -0.023850711 -0.08161288 0.0026911558 0.0055061723 0.024783475 0.03414479
-0.0075998823 0.06924175 0.0955073 0.017105736 -0.0477534 -0.042497225 -0.053213783 -0.18292151
0.26616856 -0.020365264 -0.010153086 0.065568075 -0.08250681 -0.060926486 -0.047839608 0.014389874
0.019812046 0.10358827 0.016779521 0.00019458203 0.074102506 0.17337258 -0.026189232 0.05702598
-0.08643367 0.18380818 -0.064657174 0.11982491 -0.13540418 -0.04753529 -0.04306906 -0.07690229
0.08250886 -0.055154536 -0.11564068 0.035279613 0.10801826 -0.112754755 -0.010498555 -0.023894204
0.08672941 0.114376605 -0.025721667 0.07598886 0.096894786 0.13494016 0.01261284 -0.11525462
0.036492374 -0.051672768 0.08942779 -0.020796468 -0.05032421 0.04702473 -0.0026633674 -0.027779909
-0.09639778 -0.040633753 0.085219234 -0.04604062 0.008802608 -0.10912524 -0.06738404 -0.054204136
0.027893838 -0.09196208 -0.05611567 0.07980238 -0.090426944 0.024954123 0.06468587 0.0610725
0.01129668 -0.076779895 -0.0045831683 0.09075128 -0.062429234 0.12708537 -0.07410746 -0.07754228
-0.13428581 0.06589316 -0.017201645 -0.038961295 -0.082370065 -0.057982974 -0.09032718 0.09351583
-0.019866845 -0.12941754 0.061588924 -0.010086404 -0.0016890389 0.06480319 -0.002939268 0.014524504
-0.012133188 -0.0048834276 -0.0783077 -0.0022565608 0.09602821 0.14533144 0.028116543 0.0946387
-0.022444176 0.03443327 0.029759845 -0.03632116 0.11026152 0.10105513 -0.1160664 0.104530394
-0.12715799 -0.049244147 -0.2659805 -0.0031345892 -0.10756356 0.07376424 0.042469826 0.046668656
0.11692351 0.012334542 0.05191026 0.15750834 0.04114768 0.0946696 0.054534517 -0.03212316
-0.078487985 -0.054442823 -0.16555841 -0.083997786 0.049491834 0.026543329
00000000: 2171 ec3c eb67 46bd e340 143d 028a 2abc
00000010: cdf6 6a3b 17c2 8dbe e04b d03d 2923 83bd
00000020: 10c0 08be d72d b93d 9162 c3bc a724 a7bd
00000030: 1a5e 303b 1f6d b43b b706 cb3c 68db 0b3d
00000040: 6f08 f9bb 9ece 8d3d 5599 c33d 5421 8c3c
00000050: 1299 43bd 9211 2ebd b2f6 59bd c74f 3bbe
00000060: 3f47 883e 0ed5 a6bc 2159 26bc 8e48 863d
00000070: 55f9 a8bd 0d8e 79bd 77f3 43bd 82c3 6b3c
00000080: df4c a23c 1626 d43d 3575 893c b708 4c39
00000090: 0ec3 973d 9588 313e cd8a d6bc 1394 693d
000000a0: 2304 b1bd 3638 3c3e fb6a 84bd c366 f53d
000000b0: 65a7 0abe 5db4 42bd 2f69 30bd f37e 9dbd
000000c0: 68fa a83d b9e9 61bd 05d5 ecbd 5b81 103d
000000d0: ad38 dd3d f7eb e6bd 2202 2cbc c7bd c3bc
000000e0: 309f b13d 483e ea3d 3fb6 d2bc 0ca0 9b3d
000000f0: c670 c63d c12d 0a3e 16a6 4e3c 9d0a ecbd
00000100: 0779 153d d3a6 53bd eb25 b73d 5b5d aabc
00000110: c220 4ebd 019d 403d e48b 2ebb b192 e3bc
00000120: 336c c5bd 946f 26bd 6c87 ae3d 1795 3cbd
00000130: d038 103c 0e7d dfbd a500 8abd 2805 5ebd
00000140: 9e81 e43c 9d56 bcbd 8bd9 65bd 6e6f a33d
00000150: c331 b9bd 976c cc3c 077a 843d 2827 7a3d
00000160: b615 393c c73e 9dbd 672e 96bb cfdb b93d
00000170: ccb5 7fbd ab22 023e a7c5 97bd 7dce 9ebd
00000180: 3882 09be fef2 863d 77ea 8cbc e195 1fbd
00000190: a3b1 a8bd 8e7f 6dbd 75fd b8bd 3a85 bf3d
000001a0: cbbf a2bc 0886 04be ab44 7c3d 7241 25bc
000001b0: be62 ddba 89b7 843d bca0 40bb 2ff8 6d3c
000001c0: 47ca 46bc 2905 a0bb ca5f a0bd cfe2 13bb
000001d0: 70aa c43d c4d1 143e aa54 e63c efd1 c13d
000001e0: d9dc b7bc e709 0d3d ebca f33c 7fc5 14bd
000001f0: cbd0 e13d fef5 ce3d 39b4 edbd 0814 d63d
00000200: b435 02be 3bb4 49bd 992e 88be ae6d 4dbb
00000210: 494a dcbd b511 973d d7f4 2d3d a227 3f3d
00000220: 9875 ef3d d216 4a3c da9f 543d de49 213e
00000230: 788a 283d 23e2 c13d 965f 5f3d 9393 03bd
00000240: 4fbe a0bd 70ff 5ebd 2588 29be 0807 acbd
00000250: f3b7 4a3d 6571 d93c

weight f4 [150, 150]
0.071435 0.10875867 -0.07247286 -0.02734748 0.089943044 -0.22224763 -0.108695164 0.21052714
0.00014145463 -0.108274885 0.18697624 -0.13859282 -0.013706903 0.13611448 -0.03087936 0.16545479
-0.06143282 0.03808034 0.0031080525 0.024605466 -0.09267884 -0.03629293 -0.21959956 -0.01999169
-0.13155563 0.038584363 0.056320395 0.40377632 0.14516015 -0.00078727945 0.11521071 -0.0024001407
0.03980521 -0.06507622 0.009294006 0.46898094 0.006614735 0.112307 -0.07876398 0.15308884
0.11732782 -0.11217649 -0.08115216 0.1299709 0.06507643 0.103174485 0.0061442927 -0.11135134
0.00867617 0.051670086 0.09516579 -0.0043578073 -0.047086585 -0.14010215 0.02978429 0.1689268
-0.03166793 0.18100746 0.077698834 -0.19500521 -0.0186731 0.041076425 0.11089246 -0.09596121
0.016406804 -0.09892658 -0.0066440753 -0.066083476 -0.3169988 0.19770952 -0.017803907 -0.2014981
0.15447405 0.04392345 0.05258629 -0.039336737 -0.031964846 0.11658778 0.04789371 -0.0027791606
0.051650036 -0.017361855 0.18529253 -0.13203938 -0.043627992 0.114232786 0.05067987 0.09269331
-0.28760254 0.10778055 -0.2388158 -0.2746416 -0.037136078 0.09436014 -0.26739064 -0.0010600564
0.090462275 0.09351064 -0.06822009 0.13985932 -0.04919383 -0.17621534 0.17209877 -0.0037943828
0.25344673 0.23698018 0.13096856 0.09518636 -0.08725052 -0.15629263 -0.06327283 -0.061327178
0.20543373 -0.019053001 0.0010531709 -0.052118436 0.087577 -0.13652739 0.1237755 -0.09582504
-0.14687696 -0.066911645 0.057837706 0.13461517 -0.25406498 -0.06278085 0.050973043 0.20343813
-0.17642887 0.079772614 0.0063828933 0.074332364 -0.12343558 0.0034185944 0.06752892 0.051343393
-0.047264423 -0.020105243 -0.10714202 0.001597236 0.058274694 0.11857651 0.07692754 0.048455082
0.09750565 0.17207058 0.0005537837 -0.05892106 0.068583444 0.20976886 0.06315388 0.18979703
-0.06614991 0.06422625 0.0046159485 -0.21312982 0.0004450716 0.17955981 -0.034450505 0.069834985
0.0033378855 -0.05786573 0.013194721 -0.08363263 -0.044588976 0.109651454 0.04795663 -0.07427584
0.09703907 -0.11978965 -0.053007506 0.020979831 -0.068380654 -0.19667579 0.03872825 -0.025269883
0.08247275 -0.048028704 0.17145543 -0.055978607 -0.049654514 0.0641585 -0.17176975 -0.06526296
0.029439323 0.0056088036 -0.09614085 0.12848435 0.023932766 -0.018020628 0.12611422 -0.13847364
-0.097513005 -0.015773343 0.042103905 0.013119439 -0.014950634 0.013670184 0.05748444 0.18907925
0.20067456 0.0679248 0.021429768 -0.16715707 -0.07933062 -0.35265675 -0.12199149 0.09926534
-0.17544451 -0.055115696 0.03582728 -0.116328634 -0.12618615 0.057864353 -0.07183955 -0.05783455
0.14010926 0.044711336 0.059500486 -0.020771097 0.05813023 0.33875987 -0.20128867 -0.07525299
0.20486811 0.11574378 -0.055969905 0.11891127 0.044418193 -0.11236151 0.25278097 0.21413232
-0.026414054 0.18986364 -0.16917387 -0.065952584 0.065477595 0.030243602 0.03241424 0.11129663
-0.0076078507 -0.1336405 -0.002174793 0.07633819 -0.06862814 -0.0633716 0.27350333 0.10346722
-0.034571726 -0.1124017 -0.055137593 0.009639152 0.024414591 0.084328555 -0.21207719 0.084819615
00000000: 834c 923d debc de3d a76c 94bd d307 e0bc
00000010: 0f34 b83d e294 63be 929b debd 6d94 573e
00000020: 7053 1439 39bf ddbd b376 3f3e 47eb 0dbe
00000030: eb92 60bc 9861 0b3e b6f6 fcbc fb6c 293e
00000040: fba0 7bbd 21fa 1b3d 78b0 4b3b 6791 c93c
00000050: 67ce bdbd e5a7 14bd b5de 60be 9dc5 a3bc
00000060: 85b6 06be a30a 1e3d 37b0 663d c5bb ce3e
00000070: dda4 143e 6e61 4eba 98f3 eb3d ae4b 1dbb
00000080: ca0a 233d ae46 85bd e345 183c 451e f03e
00000090: 6bc0 d83b 3601 e63d 024f a1bd 52c3 1c3e
000000a0: 9149 f03d cabc e5bd 1b33 a6bd 1717 053e
000000b0: cb46 853d 254d d33d 1056 c93b 2c0c e4bd
000000c0: 7f26 0e3c 03a4 533d 48e6 c23d f0cb 8ebb
000000d0: dddd 40bd f076 0fbe 2ffe f33c 26fb 2c3e
000000e0: 3bb6 01bd 055a 393e 9120 9f3d 72af 47be
000000f0: 54f8 98bc c13f 283d 961b e33d 5087 c4bd
00000100: 9067 863c 059a cabd 8bb6 d9bb c656 87bd
00000110: ab4d a2be 5d74 4a3e 80d9 91bc 8555 4ebe
00000120: 722e 1e3e 13e9 333d b964 573d 8f1f 21bd
00000130: 92ed 02bd 93c5 ee3d 322c 443d 9422 36bb
00000140: fd8e 533d 733a 8ebc 53bd 3d3e 5535 07be
00000150: 44b3 32bd e1f2 e93d b295 4f3d fdd5 bd3d
00000160: a440 93be 0dbc dc3d 218c 74be d39d 8cbe
00000170: 001c 18bd e43f c13d 6de7 88be 97f1 8aba
00000180: 4944 b93d 8282 bf3d f9b6 8bbd 4837 0f3e
00000190: 787f 49bd cb71 34be a93a 303e 2eab 78bb
000001a0: c5c3 813e efaa 723e 9f1c 063e 11f1 c23d
000001b0: 67b0 b2bd 2d0b 20be 2f95 81bd 3532 7bbd
000001c0: 385d 523e 0a15 9cbc 8d0a 8a3a 247a 55bd
000001d0: 925b b33d d6cd 0bbe 027e fd3d eb3f c4bd
000001e0: ea66 16be f908 89bd 3be7 6c3d 8fd8 093e
000001f0: ce14 82be 3f93 80bd 1cc9 503d 1652 503e
00000200: c5a9 34be d35f a33d 9727 d13b 913b 983d
00000210: cbcb fcbd 7f0a 603b 9a4c 8a3d 734d 523d
00000220: 5798 41bd c0b3 a4bc 466d dbbd 595a d13a
00000230: 72b1 6e3d 3ed8 f23d 308c 9d3d d678 463d
00000240: 0bb1 c73d 4533 303e cc2b 113a 3657 71bd
00000250: 7a75 8c3d a6cd 563e d256 813d 275a 423e
00000260: 9b79 87bd 0d89 833d 6241 973b b43e 5abe
00000270: 8058 e939 87de 373e f91b 0dbd a505 8f3d
00000280: 6dc0 5a3b 9e04 6dbd ac2e 583c 9647 abbd
00000290: eea2 36bd f190 e03d 2c6e 443d ee1d 98bd
000002a0: 6cbc c63d 4754 f5bd 661e 59bd e5dd ab3c
000002b0: 280b 8cbd 6165 49be 83a1 1e3d c902 cfbc
000002c0: 79e7 a83d bfb9 44bd 0392 2f3e d349 65bd
000002d0: 8862 4bbd 8865 833d 69e4 2fbe 96a8 85bd
000002e0: bc2a f13c 0eca b73b 7ee5 c4bd 6791 033e
000002f0: a60e c43c ff9f 93bc 1624 013e 09cc 0dbe
00000300: e6b4 c7bd 1937 81bc 2575 2c3d eaf2 563c
00000310: 81f3 74bc e8f8 5f3c ce74 6b3d fe9d 413e
00000320: a27d 4d3e 281c 8b3d 7b8d af3c 392b 2bbe
00000330: 1878 a2bd 6d8f b4be add6 f9bd a04b cb3d
00000340: baa7 33be ffc0 61bd a0bf 123d b53d eebd
00000350: f136 01be 2c03 6d3d 9d20 93bd ece3 6cbd
00000360: cd78 0f3e 3c23 373d c8b6 733d 2628 aabc
00000370: f719 6e3d ef71 ad3e 9e1e 4ebe 3d1e 9abd
00000380: f2c8 513e 130b ed3d b340 65bd c087 f33d
00000390: daef 353d cb1d e6bd 826c 813e 8145 5b3e
000003a0: 4962 d8bc 9d6b 423e ea3b 2dbe 2612 87bd
000003b0: 1e19 863d 6ec1 f73c cbc4 043d 7def e33d
000003c0: 474b f9bb 0ed9 08be f986 0ebb 3257 9c3d
000003d0: e98c 8cbd f8c8 81bd a108 8c3e 9fe6 d33d
000003e0: 159b 0dbd dd32 e6bd f5d7 61bd 89ed 1d3c
000003f0: 1c01 c83c 73b4 ac3d c32a 59be e8b5 ad3d

bias f4 [150]
0.12320843 -0.023089593 0.026081707 -0.014219997 -0.06564374 0.052263994 0.0127533255 0.011912486
0.085688904 0.04743387 0.049399853 0.031443983 -0.005256292 -0.18470694 0.010235635 0.14304848
-0.026094208 -0.0228411 -0.04511756 -0.25362718 0.056126397 -0.07394078 -0.03941096 -0.044726897
-0.039894555 -0.032290325 0.01856232 -0.03329779 0.0007292903 -0.08360393 -0.07308187 0.0094521735
-0.20292984 0.038322374 -0.2539874 0.035467576 0.045112085 0.028915748 -0.08169435 -0.12241762
-0.11698065 0.10018276 0.014157286 0.05509761 -0.09398032 0.119084015 0.18647923 -0.07052083
-0.03304209 -0.11790512 0.07789154 0.0483074 -0.10728892 -0.023752766 -0.030797975 -0.06051385
-0.011385607 0.033802375 0.040716648 0.113086194 -0.007906878 0.1565804 0.2362285 0.050739802
0.034247544 0.03586843 -0.15416251 -0.053691763 0.033534408 0.06544135 0.045350138 0.25012404
0.07653353 0.036176797 0.1649066 0.21671471 -0.10233651 -0.027606554 -0.039865743 0.00014560462
-0.28974482 0.08858397 0.036235455 0.0758316 0.06667008 0.008245053 -0.2028845 0.117352724
0.043753993 -0.10125202 0.01844369 -0.095363215 -0.076776005 0.08671566 -0.08736592 0.08209363
-0.033465136 -0.088019505 0.07093617 0.0108069815 -0.025412684 -0.11316618 -0.015312593 0.058470976
-0.13148773 0.033349097 -0.09107012 -0.06064463 -0.09062329 0.085277535 -0.0043082293 -0.10134116
-0.0703027 -0.051491383 -0.07718273 -0.0350148 0.09271147 0.00608844 -0.07677978 -0.0014812633
0.04269591 0.011943333 0.03257875 0.0029430124 -0.0034864827 0.07403148 -0.045632858 -0.04080576
0.011804945 0.109285004 -0.109286785 -0.117301665 -0.07481661 -0.059973825 0.089578 0.11608439
-0.2596948 -0.04997948 -0.015743228 -0.009573553 -0.02448736 0.13406444 0.06002066 -0.13056277
0.049339656 -0.19518042 0.03667359 -0.085029036 0.06063368 0.07253511
00000000: b454 fc3d 6326 bdbc 4ea9 d53c fefa 68bc
00000010: 3a70 86bd c512 563d 53f3 503c 962c 433c
00000020: aa7d af3d 054a 423d 8057 4a3d 68cb 003d
00000030: f93c acbb d123 3dbe 5db3 273c 4d7b 123e
00000040: 85c3 d5bc 421d bbbc 31cd 38bd 6cdb 81be
00000050: cbe4 653d 436e 97bd 636d 21bd 8d33 37bd
00000060: 7968 23bd dc42 04bd 0210 983c 4363 08bd
00000070: d82d 3f3a 8a38 abbd f3ab 95bd 4add 1a3c
00000080: d7cc 4fbe ecf7 1c3d a30a 82be 7346 113d
00000090: 73c7 383d b8e0 ec3c 5e4f a7bd 17b6 fabd
000000a0: 8d93 efbd 9e2c cd3d f6f3 673c 08ae 613d
000000b0: c178 c0bd 52e2 f33d 69f4 3e3e 3a6d 90bd
000000c0: 2457 07bd 3d78 f1bd 9a85 9f3d fbdd 453d
000000d0: 4bba dbbd 2995 c2bc 094c fcbc 5fdd 77bd
000000e0: b28a 3abc 5c74 0a3d 80c6 263d bc99 e73d
000000f0: da8b 01bc 9d56 203e e2e5 713e 8ad4 4f3d
00000100: 2747 0c3d c6ea 123d c7dc 1dbe e5eb 5bbd
00000110: 605b 093d 1d06 863d 11c1 393d 4210 803e
00000120: 9dbd 9c3d 1f2e 143d 47dd 283e 76ea 5d3e
00000130: ce95 d1bd 2427 e2bc 434a 23bd 71ad 1839
00000140: 6f59 94be 836b b53d a16b 143d 994d 9b3d
00000150: 538a 883d 4216 073c f4c0 4fbe a056 f03d
00000160: 6337 333d 385d cfbd 3917 973c ca4d c3bd
00000170: bd3c 9dbd fb97 b13d e7ec b2bd b520 a83d
00000180: bd12 09bd 9243 b4bd fc46 913d c40f 313c
00000190: 432e d0bc acc3 e7bd ace1 7abc 437f 6f3d
000001a0: b8a4 06be 1099 083d f982 babd 8166 78bd
000001b0: b498 b9bd fda5 ae3d 0c2c 8dbb f48b cfbd
000001c0: ddfa 8fbd a1e8 52bd fb11 9ebd ae6b 0fbd
000001d0: 83df bd3d 8981 c73b b83e 9dbd f326 c2ba
000001e0: e8e1 2e3d f8ad 433c 4c71 053d 8edf 403b
000001f0: 797d 64bb d19d 973d 85e9 3abd f123 27bd
00000200: 8769 413c d1d0 df3d c0d1 dfbd db3b f0bd
00000210: 7339 99bd 1da7 75bd ac74 b73d a7bd ed3d
00000220: b8f6 84be 49b7 4cbd f1f7 80bc 64da 1cbc
00000230: b799 c8bc 3048 093e 39d8 753d 3fb2 05be
00000240: 6118 4a3d 60dd 47be 0c37 163d b423 aebd
00000250: 065b 783d 4a8d 943d

weight f4 [64, 4]
0.35082427 -0.069252744 0.12466166 0.19410568 0.30653283 0.38180515 -0.1311051 -0.23383625
0.16855474 0.13537668 -0.09767667 -0.28195998 -0.36438897 -0.33546406 0.1190115 0.24290118
-0.20618445 -0.67837805 0.087856196 0.5019067 0.14988318 0.18895857 0.60014015 -0.15072843
-0.28063047 0.22660033 -0.2081178 -0.028188571 -0.009660194 -0.0853691 0.17772831 -0.38933972
0.17673324 0.12910435 -0.22825478 0.43586743 -0.16427375 0.36113077 0.15873238 -0.076986924
0.017934054 -0.07781987 -0.09909821 -0.38241962 0.22325045 0.29354882 0.03234749 0.28800964
0.17873164 -0.020492109 -0.11948327 0.5709969 -0.30706635 -0.08442333 0.031425547 0.03764893
0.31372812 0.336235 0.013074154 0.032697603 -0.20313722 -0.68429095 -0.26247203 0.17957318
0.4620506 -0.27252537 -0.1474616 0.1312488 -0.20860904 0.29736137 -0.29222867 -0.3215309
-0.41598928 0.03223024 0.4135293 -0.17501196 -0.28904244 -0.08208254 -0.4175439 0.32794508
0.14566901 -0.22613285 -0.14423324 -0.15058537 0.38079986 0.29807445 -0.093646064 0.02859473
0.012004963 -0.11512319 0.35112172 0.10773742 0.073568076 0.32540718 0.29984486 -0.11392329
0.16291788 0.021079808 0.19893524 -0.057202745 -0.08683208 -0.37639883 -0.2681443 0.41175878
-0.27615136 -0.032514848 -0.26143578 0.0831424 0.1982665 -0.11787283 -0.094688006 0.15746306
-0.7064725 0.07328848 0.0036608656 -0.005197618 -0.1160881 0.42608806 -0.17085448 0.14499944
0.1202974 0.15348445 -0.22687954 -0.65438515 -0.4951184 -0.15029842 0.11338419 -0.19271447
-0.07855518 0.3589809 0.24085157 0.040747467 0.105039 0.36553645 -0.019306626 -0.22231896
0.038088452 -0.17750263 0.44614333 -0.26463273 0.27825332 0.018206235 0.05181509 0.32378843
-0.5812434 0.087234214 -0.23705916 0.06855563 0.3186188 -0.21813567 -0.12367137 -0.4535969
-0.08951562 -0.14345779 0.65120995 -0.1693585 -0.035451118 -0.21185191 0.11209595 0.5078468
-0.6562538 0.49443504 0.031503834 -0.2296956 -0.1982624 0.14555487 -0.27723613 -0.08269162
-0.21054259 -0.17666332 -0.510498 -0.07939931 0.4215856 -0.108027115 0.07963322 -0.09643643
-0.5156075 -0.4022526 0.06791774 0.18526804 0.30182135 0.2193705 -0.2876706 0.06660743
0.44250584 -0.11448339 -0.35849485 -0.29021606 0.13177605 0.0061242552 0.40043616 0.24891584
-0.20766923 0.22396538 0.40743452 -0.14048454 0.011020513 -0.26175103 0.22203605 0.3077829
0.09255246 -0.30343512 0.12958854 -0.3956363 -0.35793042 0.30040985 0.327268 0.23541203
0.29332286 0.17200345 -0.3169169 -0.043396775 -0.0035979738 -0.15871182 -0.3057566 0.40524974
0.20881736 -0.010970511 0.25729612 -0.26494965 -0.051238477 0.15308104 0.04097389 -0.40670013
-0.31829903 0.214203 0.3294665 -0.23764387 0.20185775 0.31809494 0.31169438 0.26456556
0.18125892 -0.13502598 0.2787511 0.005440595 -0.17854625 -0.01685176 0.06499274 -0.2954523
-0.2987744 0.14284238 -0.37317833 -0.07629744 -0.083740376 0.22725093 0.27189445 0.22693987
0.09105511 -0.25589806 0.08438079 0.2507171 -0.49160105 0.13148265 0.2645387 -0.1993974
00000000: 3d9f b33e 62d4 8dbd 9d4e ff3d a4c3 463e
00000010: dff1 9c3e f77b c33e 6a40 06be c572 6fbe
00000020: 9d99 2c3e 2fa0 0a3e b50a c8bd 0f5d 90be
00000030: 3191 babe f2c1 abbe 4dbc f33d 16bb 783e
00000040: 0422 53be 2faa 2dbf f3ed b33d f57c 003f
00000050: fa7a 193e 5b7e 413e c9a2 193f 8e58 1abe
00000060: ccae 8fbe eb09 683e d51c 55be b8eb e6bc
00000070: ca45 1ebc ffd5 aebd 69fe 353e 8957 c7be
00000080: 8ff9 343e ee33 043e 9fbb 69be 042a df3e
00000090: 6137 28be 22e6 b83e be8a 223e 52ab 9dbd
000000a0: 70ea 923c 0660 9fbd 01f4 cabd 81cc c3be
000000b0: c49b 643e 084c 963e cd7e 043d 0076 933e
000000c0: 6d05 373e 11df a7bc a5b3 f4bd da2c 123f
000000d0: cd37 9dbe 24e6 acbd 13b8 003d c435 1a3d
000000e0: f9a0 a03e fe26 ac3e fa34 563c eced 053d
000000f0: 3403 50be b12d 2fbf bc62 86be 08e2 373e
00000100: e591 ec3e 7288 8bbe 2c00 17be 1666 063e
00000110: 9c9d 55be c03f 983e ff9e 95be b39f a4be
00000120: 8cfc d4be db03 043d 1dba d33e 5636 33be
00000130: 5ffd 93be e41a a8bd 50c8 d5be 6be8 a73e
00000140: 422a 153e 5f8f 67be e1b1 13be 0d33 1abe
00000150: 33f8 c23e 379d 983e 82c9 bfbd 7f3f ea3c
00000160: 77b0 443c b5c5 ebbd 3ac6 b33e 70a5 dc3d
00000170: dcaa 963d c59b a63e 4485 993e 9d50 e9bd
00000180: f2d3 263e 90af ac3c aeb5 4b3e 6d4d 6abd
00000190: 04d5 b1bd 59b7 c0be 364a 89be 0cd2 d23e
000001a0: b663 8dbe 4a2e 05bd e9da 85be 9046 aa3d
000001b0: 6006 4b3e 4f67 f1bd c9eb c1bd ff3d 213e
000001c0: 62db 34bf 4518 963d 22eb 6f3b c850 aabb
000001d0: 99bf edbd 3728 da3e 7af4 2ebe bc7a 143e
000001e0: 7c5e f63d 072b 1d3e 1c53 68be c985 27bf
000001f0: 2980 fdbe d4e7 19be f835 e83d f156 45be
00000200: 8ae1 a0bd 58cc b73e cba1 763e d1e6 263d
00000210: b01e d73d 9827 bb3e ee28 9ebc 95a7 63be
00000220: a302 1c3d 40c3 35be e66c e43e f17d 87be
00000230: 3877 8e3e 3e25 953c 0f3c 543d 99c7 a53e
00000240: 5ecc 14bf daa7 b23d a3bf 72be e566 8c3d
00000250: 0122 a33e f55e 5fbe 6a47 fdbd da3d e8be
00000260: f753 b7bd 99e6 12be b2b5 263f 516c 2dbe
00000270: 3135 11bd b5ef 58be 9092 e53d 3f02 023f
00000280: 4000 28bf 9726 fd3e 2a0a 013d 5335 6bbe
00000290: 4c05 4bbe 560c 153e e5f1 8dbe 395a a9bd
000002a0: 7a98 57be 3be7 34be ffaf 02bf 1b9c a2bd
000002b0: 11da d73e 523d ddbd be16 a33d 7780 c5bd
000002c0: dafe 03bf 0ef4 cdbe 7518 8b3d e8b6 3d3e
000002d0: 5488 9a3e a9a2 603e 9049 93be 7a69 883d
000002e0: 2090 e23e 4476 eabd a38c b7be 3397 94be
000002f0: 4df0 063e faad c83b f805 cd3e cbe3 7e3e
00000300: 3ea7 54be 2e57 653e 429b d03e 2edb 0fbe
00000310: 628f 343c 3b04 86be 6b5d 633e b895 9d3e
00000320: 258c bd3d d95b 9bbe dcb2 043e d790 cabe
00000330: a842 b7be 52cf 993e ac8f a73e da0f 713e
00000340: 6a2e 963e ac21 303e ef42 a2be d1c0 31bd
00000350: fccb 6bbb 5a85 22be 218c 9cbe e57c cf3e
00000360: 38d4 553e a8bd 33bc 51bc 833e 7ba7 87be
00000370: 70df 51bd 47c1 1c3e 3dd4 273d 003b d0be
00000380: 17f8 a2be 0858 5b3e d5af a83e ea58 73be
00000390: ccb3 4e3e 57dd a23e 6896 9f3e 2375 873e
000003a0: f09b 393e 4044 0abe 77b8 8e3e 0547 b23b
000003b0: d4d4 36be b40c 8abc ea1a 853d 8645 97be
000003c0: f5f8 98be 4645 123e 3b11 bfbe d541 9cbd
000003d0: 1380 abbd 78b4 683e c035 8b3e ed62 683e
000003e0: 1a7b ba3d 1205 83be d6cf ac3d fe5d 803e
000003f0: 22b3 fbbe 63a3 063e 9e71 873e d52e 4cbe

bias f4 [64]
-0.0052138153 0.018474082 -0.18547961 -0.026916144 -0.021788612 -0.07733492 0.17335324 -0.08863532
-0.027356891 -0.12087537 -0.07244184 0.051684134 -0.12662818 -0.04733185 0.05922942 0.04374124
-0.030150356 0.04323783 -0.11379075 0.048232477 0.07889901 0.060510464 -0.19772229 -0.11928276
-0.14569202 -0.02253167 0.1297139 0.059287272 0.034982085 0.09375079 0.06799308 -0.093634665
-0.03284053 0.09982872 -0.08847992 0.0042397585 -0.11547069 -0.03610002 -0.07970716 -0.05639516
-0.06779632 0.12623468 -0.012526252 -0.048280597 0.010666082 -0.02521486 0.046390913 -0.0027225076
-0.010715449 -0.1036223 -0.10466691 0.013943102 -0.11393542 -0.05650135 -0.03393491 0.055369362
0.041814417 0.07092354 -0.117937446 -0.09709551 0.020401977 0.029335264 -0.06233066 -0.010363006
00000000: a7d8 aabb f556 973c 5eee 3dbe 3f7f dcbc
00000010: 087e b2bc c561 9ebd 8383 313e 6f86 b5bd
00000020: 8f1b e0bc 828d f7bd 635c 94bd beb2 533d
00000030: d1aa 01be 0bdf 41bd 8c9a 723d 042a 333d
00000040: e1fd f6bc 271a 313d 200b e9bd 6b8f 453d
00000050: ce95 a13d d2d9 773d b677 4abe 854a f4bd
00000060: 4a30 15be 5694 b8bc b8d3 043e 36d7 723d
00000070: 6049 0f3d 6a00 c03d f53f 8b3d 88c3 bfbd
00000080: cb83 06bd 0073 cc3d f634 b5bd aced 8a3b
00000090: e67b ecbd 9ddd 13bd 823d a3bd 9cfe 66bd
000000a0: ccd8 8abd aa43 013e e93a 4dbc e0c1 45bd
000000b0: cac0 2e3c 658f cebc 6604 3e3d 196c 32bb
000000c0: da8f 2fbc ee37 d4bd 9b5b d6bd 9c71 643c
000000d0: f956 e9bd f66d 67bd 55ff 0abd fcca 623d
000000e0: 9845 2b3d 5c40 913d 3089 f1bd 03da c6bd
000000f0: 0c22 a73c 8250 f03c 6f4e 7fbd 99c9 29bc

weight f4 [64, 214]
0.07838344 0.18103717 0.015068619 -0.098801024 0.0052875103 -0.03200379 0.057910323 0.025959248
0.04000638 0.062328562 -0.021064473 -0.12861027 0.047524597 -0.037814308 -0.046692614 0.12925754
-0.17564368 -0.22780992 0.15842491 -0.06778765 0.024238927 -0.0867089 -0.15795371 -0.006128622
-0.1116891 0.17320901 -0.06876689 -0.030910304 0.17683704 0.07763714 0.01915503 -0.25301582
-0.13936517 0.002422737 0.18978634 -0.07912125 -0.05418531 -0.10898974 0.050926253 0.028857492
-0.0398315 0.023646358 -0.091587976 0.02200487 -0.20800003 0.13597041 -0.04842711 -0.0007412175
0.055659506 -0.039597698 -0.082679234 -0.0043126917 0.041381676 -0.13511555 0.07022768 -0.065294
0.09298523 -0.014622351 -0.053038035 -0.038487203 -0.09413058 0.034435235 -0.06818495 -0.039059624
-0.23099972 -0.11207236 0.07849217 -0.10918235 0.13677527 -0.08275412 -0.042001918 0.17357081
-0.10417041 -0.04625746 -0.014603974 -0.21182026 -0.1280671 0.06327251 0.05964447 -0.14769349
0.11680675 0.101419434 -0.07156625 0.09515939 0.0049540997 0.00032760212 0.07515449 -0.086092606
0.014807232 0.13463332 0.13707677 0.000664197 -0.1145611 -0.06104386 0.16462535 -0.021528836
-0.20652002 0.08315864 0.19519408 -0.020892682 -0.009122716 0.18378793 -0.13133574 -0.02666079
0.15213428 -0.14108768 -0.11729466 -0.17457037 0.070204616 0.03717107 -0.27427042 -0.052261252
0.0172945 -0.11112309 0.2688456 -0.08584667 -0.048186913 0.16536087 0.07087098 0.06896036
-0.14109816 -0.08945514 -0.07432602 -0.17320585 0.035773356 -0.09491862 -0.11657318 -0.11257792
0.021190364 -0.024783198 0.0076908874 0.012161694 0.051305555 0.03144516 0.04701218 0.057661127
-0.2211894 0.02206234 0.15642846 -0.104773864 0.05442432 -0.0050756102 -0.081390575 -0.015278254
-0.23558636 0.023896474 -0.21290518 0.09101986 0.1839922 -0.056670364 -0.08386863 0.078252494
0.11540935 -0.016688926 -0.07084221 -0.027983747 0.069952264 -0.09794728 -0.091272764 -0.14604126
0.030565245 -0.059973884 -0.09200668 0.038261253 0.08994127 0.293068 0.08959014 -0.028323438
-0.14236172 0.15447083 0.17775333 -0.032476567 -0.40698767 -0.011045027 -0.36534894 0.15394627
0.2665374 0.020646624 -0.041491535 -0.13403715 -0.070693955 0.06792904 -0.1610937 0.038168598
-0.15527569 -0.034054987 -0.07177015 -0.069806695 -0.0011325341 0.10719799 -0.0019255588 0.15959816
0.07738094 0.058046736 0.18612382 0.10080925 0.13533999 -0.07134678 -0.13720097 -0.16052954
-0.06897507 -0.18386687 0.0035705986 -0.03119155 -0.29788917 0.061030164 -0.013975691 0.070822015
-0.17931642 -0.11612818 0.02970816 -0.005766065 -0.18582812 -0.06203319 0.17212544 -0.035258856
0.025389835 -0.06684429 0.025132196 -0.13781148 0.037528303 0.1276436 -0.21268788 -0.18440822
0.02379953 -0.05606752 0.08770438 0.0310827 0.2844959 -0.11681631 0.014403725 0.0072875745
0.24405086 -0.06465504 -0.15437107 -0.11518044 -0.2369547 0.048121408 -0.005341149 0.060437445
-0.015378078 -0.10308346 -0.07337466 -0.07385421 0.087241106 0.037689198 0.10825012 -0.015205184
-0.032659438 -0.11332232 -0.066544816 0.084090106 0.056058936 0.037747458 -0.1331945 0.123409994
00000000: 7f87 a03d cf61 393e 5ee2 763c 3158 cabd
00000010: da42 ad3b 6816 03bd 6033 6d3d 7da8 d43c
00000020: bbdd 233d 3c4c 7f3d 678f acbc 69b2 03be
00000030: 27a9 423d 2de3 1abd c140 3fbd 175c 043e
00000040: f0db 33be 0147 69be 243a 223e 40d4 8abd
00000050: b790 c63c 7094 b1bd 9ebe 21be 9cd2 c8bb
00000060: 41bd e4bd b45d 313e a8d5 8cbd 9b37 fdbc
00000070: c514 353e 3900 9f3d 02eb 9c3c 4a8b 81be
00000080: beb5 0ebe c8c6 1e3b 5a57 423e 520a a2bd
00000090: 6af1 5dbd 0336 dfbd 0c98 503d 8c66 ec3c
000000a0: 5b26 23bd 02b6 c13c 7a92 bbbd 8f43 b43c
000000b0: f6fd 54be d43b 0b3e 815b 46bd 444e 42ba
000000c0: 39fb 633d 3231 22bd bb53 a9bd 7b51 8dbb
000000d0: d57f 293d bb5b 0abe 88d3 8f3d dcb8 85bd
000000e0: 0a6f be3d 9692 6fbc 693e 59bd c2a4 1dbd
000000f0: 89c7 c0bd f60b 0d3d 8da4 8bbd fcfc 1fbd
00000100: 318b 6cbe 3286 e5bd 81c0 a03d ff9a dfbd
00000110: d10e 0c3e fe7a a9bd 340a 2cbd 8cbc 313e
00000120: 4c57 d5bd 7678 3dbd 8245 6fbc 69e7 58be
00000130: 0624 03be 0595 813d c34d 743d f63c 17be
00000140: 6138 ef3d feb4 cf3d 5391 92bd ede2 c23d
00000150: 0056 a23b 03c2 ab39 99ea 993d 5251 b0bd
00000160: 089a 723c 51dd 093e da5d 0c3e 821d 2e3a
00000170: 039f eabd 2009 7abd 8c93 283e 3e5d b0bc
00000180: fc79 53be 144f aa3d f5e0 473e 2127 abbc
00000190: 7277 15bc e732 3c3e e07c 06be bb67 dabc
000001a0: 17c9 1b3e 4a79 10be 2f38 f0bd 93c2 32be
000001b0: 70c7 8f3d b140 183d 2c6d 8cbe e50f 56bd
000001c0: 32ad 8d3c 8194 e3bd 21a6 893e 61d0 afbd
000001d0: a45f 45bd 5c54 293e ce24 913d 173b 8d3d
000001e0: 097c 10be 4234 b7bd 3e38 98bd e05c 31be
000001f0: 1587 123d b264 c2bd ebbd eebd 418f e6bd
00000200: 6a97 ad3c 2206 cbbc d703 fc3b d741 473c
00000210: c625 523d a4cc 003d d88f 403d 132e 6c3d
00000220: 797f 62be 15bc b43c c82e 203e ae93 d6bd
00000230: 09ec 5e3d 4e51 a6bb 1ab0 a6bd a451 7abc
00000240: 8d3d 71be 8ac2 c33c d103 5abe 9f68 ba3d
00000250: 7468 3c3e 2f1f 68bd 51c3 abbd d842 a03d
00000260: bd5b ec3d 37b7 88bc b815 91bd 2c3e e5bc
00000270: 2243 8f3d 9598 c8bd 37ed babd d78b 15be
00000280: f763 fa3c 2da7 75bd 006e bcbd d5b7 1c3d
00000290: 2133 b83d 020d 963e 097b b73d 8e06 e8bc
000002a0: 45c7 11be 9a2d 1e3e f804 363e 2606 05bd
000002b0: b060 d0be 33f6 34bc 040f bbbe 17a4 1d3e
000002c0: 9777 883e 1c23 a93c 07f3 29bd 0941 09be
000002d0: fec7 90bd 611e 8b3d bff5 24be ad56 1c3d
000002e0: 9700 1fbe 3e7d 0bbd 3afc 92bd d0f6 8ebd
000002f0: 8a71 94ba 9f8a db3d 0863 fcba b36d 233e
00000300: e679 9e3d 6ac2 6d3d 3e97 3e3e 1475 ce3d
00000310: 9196 0a3e 431e 92bd 697e 0cbe db61 24be
00000320: cd42 8dbd 9947 3cbe b400 6a3b 6c85 ffbc
00000330: ee84 98be c4fa 793d 4cfa 64bc 220b 913d
00000340: b99e 37be 9cd4 edbd 875e f33c 42f1 bcbb
00000350: ba49 3ebe 8416 7ebd a741 303e 976b 10bd
00000360: 58fe cf3c a9e5 88bd 09e2 cd3c 741e 0dbe
00000370: 47b7 193d 01b5 023e daca 59be 82d5 3cbe
00000380: 3bf7 c23c 0ea7 65bd 5b9e b33d 25a1 fe3c
00000390: 72a9 913e 643d efbd 9afd 6b3c 9bcc ee3b
000003a0: 78e8 793e dd69 84bd 7313 1ebe b9e3 ebbd
000003b0: 41a4 72be f41a 453d ce04 afbb 418d 773d
000003c0: 56f4 7bbc 6c1d d3bd 7445 96bd e040 97bd
000003d0: 77ab b23d fd5f 1a3d 3db2 dd3d 2a1f 79bc
000003e0: e7c5 05bd 8815 e8bd a648 88bd 6f37 ac3d
000003f0: 0e9e 653d 149d 1a3d 2464 08be 61be fc3d

bias f4 [64]
0.13790566 0.111335106 -0.20929775 0.03084518 0.13235691 0.16425778 -0.19071727 0.18611653
-0.16192122 -0.050863214 -0.12812212 -0.030715076 0.0944331 -0.057597827 -0.045523956 -0.065249965
0.019538974 -0.01845364 -0.24174789 0.23134889 0.07573858 0.023592956 0.11452453 0.05027738
0.11886345 -0.1626078 -0.15309091 0.05346389 0.14190291 0.15317321 0.26359951 -0.081439584
0.07650333 -0.103042975 0.11029182 0.04419158 -0.02455938 -0.08934134 -0.29110774 0.1443089
0.026472218 0.0066311685 -0.049732056 -0.23937646 0.013769108 0.045013115 -0.053079363 -0.07021662
-0.00903214 -0.045912962 -0.10590137 0.30533212 0.0017515274 0.0020756174 -0.1247136 0.0029495994
0.044113033 0.087557346 0.0010205891 0.020703033 0.058225214 0.10340775 0.1141348 0.03730844
00000000: 2437 0d3e a903 e43d 2652 56be 08af fc3c
00000010: 9288 073e 3133 283e 634b 43be 5595 3e3e
00000020: adce 25be f255 50bd 7232 03be 2f9e fbbc
00000030: 2466 c13d b3eb 6bbd 5477 3abd c6a1 85bd
00000040: 3310 a03c 172c 97bc c28c 77be b9e6 6c3e
00000050: d41c 9b3d 0446 c13c d68b ea3d a7ef 4d3d
00000060: ae6e f33d a982 26be ddc3 1cbe f4fc 5a3d
00000070: ff4e 113e 70d9 1c3e 84f6 863e ccc9 a6bd
00000080: c7ad 9c3d 3208 d3bd ade0 e13d 3b02 353d
00000090: c130 c9bc 98f8 b6bd 130c 95be b6c5 133e
000000a0: 44dc d83c 464a d93b d7b3 4bbd 1a1f 75be
000000b0: d397 613c ac5f 383d bf69 59bd bbcd 8fbd
000000c0: 8afb 13bc 3b0f 3cbd d1e2 d8bd 7e54 9c3e
000000d0: 8293 e53a 1507 083b d869 ffbd 114e 413b
000000e0: deaf 343d 4451 b33d 4ac5 853a 6899 a93c
000000f0: 907d 6e3d 71c7 d33d 82bf e93d bcd0 183d

weight f4 [150, 22]
0.13631462 -0.035063025 0.15116976 0.09802098 0.02044903 -0.013997149 0.13146877 0.06930874
0.08530897 -0.13627683 -0.15839335 0.16103104 0.06486063 -0.092306495 0.28962794 0.12754764
-0.053833585 -0.07049136 0.04956817 -0.028977457 0.040647175 -0.026315771 0.17795183 -0.15941814
-0.26698998 -0.015074755 -0.041317213 0.04739661 -0.09471162 -0.10203195 -0.15936902 0.018990736
0.019513391 -0.17612448 0.136414 -0.032282516 -0.2431934 0.21339189 -0.12618706 -0.14931594
0.104716904 -0.057093464 -0.32913598 0.032606073 -0.01672832 -0.1271708 0.12563564 0.06834273
0.040178955 0.04095523 -0.068603516 0.055138435 0.051465064 -0.1302078 0.06600126 0.2496472
0.12730871 -0.03158981 0.39044648 0.06869613 0.21255422 -0.028681085 0.11471067 -0.08616528
0.06930003 0.05454142 -0.04738802 -0.081546746 -0.21629223 -0.10006687 0.07603779 -0.09497805
-0.04123882 0.053621497 -0.11577156 0.13054524 -0.10172534 -0.30437043 -0.04336828 -0.05151472
-0.23536646 -0.062350415 -0.089144334 -0.0929439 0.09954383 0.014615797 0.08896528 -0.10139274
-0.00052273856 0.16772813 0.08037516 0.060875677 -0.04639589 -0.009680116 0.011150201 0.09346143
0.0063708113 0.16838099 -0.04961637 0.009845432 -0.10512043 0.068875566 0.34428656 -0.06371971
-0.031996574 0.033895466 -0.037591737 0.008140613 -0.14220327 -0.040908925 -0.024572738 0.2966768
0.03264098 -0.014651901 0.13646692 -0.01899241 0.073936336 0.017074985 0.06699524 0.04761724
-0.0009798921 0.16485922 -0.037443742 0.39999065 0.08693412 0.24556404 -0.000619573 -0.2449199
0.10158136 -0.09453763 -0.011954497 -0.0020197919 0.07913328 -0.024227552 0.19093025 -0.068448365
0.10313895 -0.037854224 -0.09758077 0.07114398 0.042292617 0.04663819 -0.008180886 0.3076167
0.033459704 0.10566895 0.18686488 -0.0980743 0.05325016 -0.0033629378 0.019933717 -0.054966863
0.035713274 -0.009715976 0.27041417 0.08060845 -0.04813503 0.1157002 0.029076288 0.077860765
-0.0838907 0.059477944 0.12307969 0.025934774 -0.12676373 0.13920449 0.122351654 0.0763933
0.29857272 -0.09654663 0.13684838 -0.083522715 0.03822396 -0.09405556 0.16275373 -0.06794764
-0.41284457 0.08511715 -0.056469474 0.07189737 0.08656406 -0.16329698 0.15742557 -0.041263502
-0.0129186595 0.029753305 -0.08340888 -0.15038188 -0.33986384 0.18736944 -0.008351284 0.07294906
-0.06706759 0.18988602 -0.085429884 0.09784895 -0.06391551 0.07528568 -0.03334718 0.05074152
0.020396119 -0.046460375 0.0064866887 -0.030180082 -0.08035402 -0.062140442 -0.06287224 -0.05193168
-0.0077815256 -0.08080662 0.035087727 -0.02268782 -0.036382176 -0.01684251 0.055518657 -0.02772989
0.0044127936 -0.032793924 0.018265838 -0.01297146 0.012857154 0.04561703 0.014279701 0.03739178
0.060015053 0.017378263 0.06037792 -0.0077057714 0.078043535 0.086437136 -0.010537948 0.10196243
0.114556745 0.05522134 0.2909813 -0.10934706 -0.25829014 0.12099969 0.17788625 -0.05252864
0.05600482 -0.03643743 0.014081668 -0.28835067 -0.22210813 0.040782236 0.025694443 0.062240876
0.052744668 0.012671268 -0.0769233 -0.032591224 -0.038196128 -0.005507985 0.058250718 -0.01518073
00000000: 0f96 0b3e 3f9e 0fbd 3fcc 1a3e 39bf c83d
00000010: b984 a73c 4c54 65bc c09f 063e bef1 8d3d
00000020: 78b6 ae3d 278c 0bbe de31 22be 52e5 243e
00000030: a6d5 843d 300b bdbd 1d4a 943e d99b 023e
00000040: 9b80 5cbd c65d 90bd fe07 4b3d 2262 edbc
00000050: a77d 263d 2c94 d7bc 0139 363e 823e 23be
00000060: e9b2 88be 1bfc 76bc 3d3c 29bd f322 423d
00000070: 2af8 c1bd 21f6 d0bd a231 23be 7692 9b3c
00000080: 8cda 9f3c fa59 34be 1db0 0b3e ac3a 04bd
00000090: b107 79be 6783 5a3e 2e37 01be 47e6 18be
000000a0: d175 d63d d6da 69bd 8384 a8be f28d 053d
000000b0: d409 89bc 1039 02be a1a6 003e 46f7 8b3d
000000c0: b092 243d acc0 273d 0080 8cbd d7d8 613d
000000d0: 08cd 523d 3255 05be ab2b 873d 84a3 7f3e
000000e0: 375d 023e 5164 01bd 9ae8 c73e 8eb0 8c3d
000000f0: d0a7 593e 98f4 eabc 6eed ea3d 6c77 b0bd
00000100: 2ded 8d3d d366 5f3d f119 42bd fb01 a7bd
00000110: b67b 5dbe dcef ccbd b3b9 9b3d da83 c2bd
00000120: 09ea 28bd 37a2 5b3d a419 edbd a7ad 053e
00000130: 6055 d0bd 71d6 9bbe f0a2 31bd 1901 53bd
00000140: e803 71be 2663 7fbd 4e91 b6bd 5f59 bebd
00000150: a3dd cb3d 1977 6f3c 6e33 b63d ffa6 cfbd
00000160: 6408 09ba ecc0 2b3e bb9b a43d c658 793d
00000170: 9e09 3ebd 5999 1ebc 55af 363c b568 bf3d
00000180: 3dc2 d03b 116c 2c3e 893a 4bbd bc4e 213c
00000190: 6149 d7bd a20e 8d3d 5446 b03e 7b7f 82bd
000001a0: d70e 03bd f9d5 0a3d cbf9 19bd 3560 053c
000001b0: bc9d 11be 1e90 27bd c44c c9bc 06e6 973e
000001c0: 8cb2 053d 870e 70bc fcbd 0b3e f895 9bbc
000001d0: ef6b 973d d7e0 8b3c cd34 893d 4c0a 433d
000001e0: b96f 80ba dbd0 283e 9c5e 19bd 93cb cc3e
000001f0: 840a b23d 2475 7b3e d76a 22ba 48cc 7abe
00000200: e309 d03d f29c c1bd cbdc 43bc 7c5e 04bb
00000210: a110 a23d dc78 c6bc 3883 433e a82e 8cbd
00000220: 843a d33d 080d 1bbd 6dd8 c7bd efb3 913d
00000230: 063b 2d3d b007 3f3d 1f09 06bc f07f 9d3e
00000240: 0b0d 093d f668 d83d 8259 3f3e 2edb c8bd
00000250: d71c 5a3d bc64 5cbb 094c a33c ef24 61bd
00000260: 1548 123d c22f 1fbc ba73 8a3e 0b16 a53d
00000270: 3d29 45bd 3af4 ec3d 6531 ee3c 7775 9f3d
00000280: e3ce abbd 259f 733d 3411 fc3d 2a75 d43c
00000290: 5ace 01be 9f8b 0e3e 8193 fa3d 1774 9c3d
000002a0: 86de 983e 3dba c5bd fb21 0c3e f50d abbd
000002b0: ba90 1c3d 34a0 c0bd eaa8 263e 2228 8bbd
000002c0: 5d60 d3be e651 ae3d 894c 67bd ee3e 933d
000002d0: 7f48 b13d 5337 27be 2b34 213e eb03 29bd
000002e0: c9a8 53bc 34bd f33c 46d2 aabd b5fd 19be
000002f0: a202 aebe c6dd 3f3e d3d3 08bc 5166 953d
00000300: bc5a 89bd 7b71 423e ddf5 aebd 0865 c83d
00000310: 23e6 82bd 612f 9a3d 0d97 08bd 57d6 4f3d
00000320: c315 a73c 3c4d 3ebd 4a8e d43b 383c f7bc
00000330: a690 a4bd fa86 7ebd 29c3 80bd 50b6 54bd
00000340: 2bfc febb f17d a5bd 26b8 0f3d cfdb b9bc
00000350: 7a05 15bd 4ef9 89bc 8867 633d cb29 e3bc
00000360: 3299 903b ec52 06bd 3da2 953c 3f86 54bc
00000370: d0a6 523c ecd8 3a3d 68f5 693c 2028 193d
00000380: 58d2 753d dc5c 8e3c d64e 773d b280 fcbb
00000390: 4ad5 9f3d f405 b13d 5ca7 2cbc aed1 d03d
000003a0: ba9c ea3d c62f 623d 80fb 943e 5af1 dfbd
000003b0: 9b3e 84be afce f73d d027 363e 4528 57bd
000003c0: 4f65 653d 6a3f 15bd ccb6 663c b3a2 93be
000003d0: 5070 63be 460b 273d 277d d23c 4af0 7e3d
000003e0: cb0a 583d 269b 4f3c f789 9dbd 607e 05bd
000003f0: 8b73 1cbd 547c b4bb 4e98 6e3d 99b8 78bc

bias f4 [150]
-0.40140787 -0.3894026 -0.107444145 0.2754701 -0.062200703 0.46413666 -0.44627878 -0.1367777
-0.35964495 0.1434662 -0.5891462 -0.27791426 -0.7355312 -0.12520254 -0.059434734 -0.08061216
-0.039534573 -0.364665 0.4837362 0.24114794 -0.072935246 0.3553698 0.045085147 0.013158792
-0.22000688 -0.23800734 -0.18126975 -0.046805177 -0.20467189 -0.041973054 -0.3038997 -0.22953752
-0.18335797 -0.37912825 -0.3153122 -0.19888069 -0.20079067 0.2751463 0.3443889 -0.5070174
-0.18769775 0.14494151 0.118117645 -0.0028833796 0.22832237 0.68056273 0.06198862 -0.22257094
-0.12592947 0.4345179 -0.38911924 -0.13775954 -0.3311387 -0.18898928 -0.19690001 -0.010318704
-0.3126928 -0.25447547 -0.22825484 0.17482369 -0.12680322 0.09274733 0.4952395 -0.2675629
-0.030664504 -0.059234522 0.13611677 -0.21333946 0.095271915 -0.48867923 0.42124772 0.0709988
0.26604757 -0.04885135 -0.08950675 -0.12268194 0.019650908 0.16945933 -0.1684625 -0.14649561
-0.013423958 0.15734163 0.10059629 -0.40871263 0.065894246 0.20190096 -0.22200872 0.10052947
0.59281546 -0.07531834 0.54904854 -0.15677759 -0.008923719 0.16523418 -0.43494186 0.18422514
0.18025632 0.32173583 0.54156667 -0.05785822 -0.06200055 0.4010428 -0.117208555 -0.51089185
0.14801224 0.098695 0.016366165 -0.3857934 -0.24124345 -0.11829542 0.43438292 0.015588623
-0.017566849 -0.17227502 0.4204798 -0.19334872 -0.44017282 0.06089097 0.25234088 0.16009504
0.17023535 0.10582298 0.50464064 -0.3115116 0.029645525 -0.07477124 -0.121867955 0.026690574
0.2721717 -0.43031836 -0.4930823 -0.25926596 -0.13319683 -0.33459926 0.406689 0.31492093
0.37431484 -0.01145936 0.04946046 0.009129157 -0.2340135 -0.16574141 0.16013683 -0.34913647
-0.11998369 -0.013205243 -0.2533903 0.10130454 0.28893617 -0.49115196
00000000: 5585 cdbe c75f c7be ad0b dcbd 6b0a 8d3e
00000010: 2ac6 7ebd 52a3 ed3e a77e e4be 740f 0cbe
00000020: 6223 b8be cee8 123e 49d2 16bf c74a 8ebe
00000030: c64b 3cbf 1835 00be d671 73bd fd17 a5bd
00000040: 01ef 21bd 5fb5 babe 45ac f73e 7cef 763e
00000050: 135f 95bd 08f3 b53e 34ab 383d f997 573c
00000060: 7c49 61be 32b8 73be c79e 39be c9b6 3fbd
00000070: 8295 51be f0eb 2bbd be98 9bbe e20b 6bbe
00000080: 31c2 3bbe 191d c2be 9a70 a1be 61a7 4bbe
00000090: 129c 4dbe fadf 8c3e be53 b03e e4cb 01bf
000000a0: d733 40be 8c6b 143e aae7 f13d 15f7 3cbb
000000b0: 57cd 693e 5c39 2e3f c7e7 7d3d a3e9 63be
000000c0: a8f3 00be 2179 de3e a33a c7be d610 0dbe
000000d0: 038b a9be 6886 41be 28a0 49be c80f 29bc
000000e0: 4519 a0be 9c4a 82be a3bb 69be fb04 333e
000000f0: b4d8 01be 50f2 bd3d 0890 fd3e 01fe 88be
00000100: 2034 fbbc e69f 72bd 3262 0b3e a975 5abe
00000110: ec1d c33d 2a34 fabe c8ad d73e d267 913d
00000120: 6337 883e 5a18 48bd 514f b7bd ab40 fbbd
00000130: f1fa a03c bf86 2d3e 6f81 2cbe f202 16be
00000140: 29f0 5bbc 2a1e 213e 6d05 ce3d c842 d1be
00000150: 90f3 863d 20bf 4e3e 4156 63be 65e2 cd3d
00000160: c1c2 173f 8040 9abd 728e 0c3f 4e8a 20be
00000170: ca34 12bc 2633 293e b3b0 debe 84a5 3c3e
00000180: 1d95 383e 8fba a43e 1da4 0a3f befc 6cbd
00000190: 4af4 7dbd 7b55 cd3e 0a0b f0bd cfc9 02bf
000001a0: 8590 173e 9b20 ca3d 5612 863c b686 c5be
000001b0: 8608 77be df44 f2bd 7067 de3e 6c67 7f3c
000001c0: 5ae8 8fbc dd68 30be 2149 d73e 35fd 45be
000001d0: 555e e1be cf68 793d d332 813e f4ef 233e
000001e0: 2d52 2e3e b8b9 d83d 2130 013f 737e 9fbe
000001f0: 2cdb f23c aa21 99bd e895 f9bd 31a6 da3c
00000200: 175a 8b3e b052 dcbe 4975 fcbe 82be 84be
00000210: c064 08be 9850 abbe 8a39 d03e 513d a13e
00000220: 32a6 bf3e 0ac0 3bbc 0d97 4a3d 7692 153c
00000230: 3ca1 6fbe 1eb8 29be e9fa 233e 04c2 b2be
00000240: 02ba f5bd ce5a 58bc 60bc 81be c178 cf3d
00000250: 71ef 933e 4578 fbbe
