examples/rl/experiments_from_paper/experiments_data/trained_models/TiltrotorPlus8DofHoverEnv/ConventionalTiltrotorPlus8DofHoverEnv-3/ppo/TiltrotorPlus8DofHoverEnv-v0.pt (torch, 279745 bytes, 16 tensors)

weight f4 [150, 18]
0.04781983 0.2033339 0.10919152 -0.071065664 -0.057183094 0.09585654 0.27275458 -0.19739956
0.013946962 -0.09653278 -0.15612158 -0.17828225 0.22933972 0.12336051 -0.22796959 -0.009159398
-0.2311279 0.24797742 -0.043271713 -0.12363412 0.06797066 -0.10190814 -0.07491269 -0.046009455
-0.06137145 0.047057357 0.016475732 -0.30292442 0.27547777 -0.1599688 0.101790935 -0.041027986
0.13573979 -0.080870144 -0.052257452 0.13931243 -0.30888498 -0.3266648 0.034953225 -0.16998467
0.20196128 0.12124649 0.21560949 -0.15322083 -0.043483257 0.19369085 0.07286431 0.18849306
0.08644183 0.1505693 0.0037697605 0.1570594 0.21756697 -0.07036744 -0.19238803 -0.17879395
-0.0402478 -0.0585806 0.16189589 0.27286774 -0.10782925 0.18665789 0.0081606945 -0.117512815
0.16369382 -0.0061174645 -0.1391757 -0.011129821 0.10913994 0.17295949 -0.03037015 0.39324108
0.21647479 -0.1831531 -0.0028107895 -0.0059635686 -0.1615823 0.13672304 0.03896968 0.029339079
-0.061524358 0.107980326 0.100093365 -0.17269216 0.04288685 -0.09477694 0.0536903 -0.055885844
-0.029529 0.10031011 0.11934043 -0.33181915 -0.33318177 0.023336787 0.034923896 0.051337007
-0.009384205 0.025733713 0.18873626 -0.1138822 0.2652158 -0.04079671 0.06384081 -0.03253726
-0.0065642074 -0.006621584 -0.09705638 0.0695013 -0.012965798 -0.079302184 0.088077985 0.16678332
0.107872956 -0.084062524 0.19664685 -0.046206996 -0.12017887 0.17471135 0.16186383 0.18360513
-0.38364765 0.045431145 0.1024274 -0.024770401 -0.121189155 -0.20341946 0.198525 0.28793284
0.22197136 0.035656016 0.21114928 -0.016736558 -0.05850131 -0.0678927 0.21239293 -0.09262158
-0.13766286 -0.14007974 0.1089276 -0.259486 0.0619518 -0.18063222 0.22865954 -0.101902224
0.094580345 -0.041387077 -0.12737884 -0.1807904 0.16180183 0.01581225 0.086535856 0.091850124
0.15609139 0.051086433 0.1439242 -0.08633045 -0.14253324 -0.028253965 -0.25724846 0.14059962
0.18100473 0.08688699 0.18772437 -0.028532756 0.1562137 -0.02722645 -0.24810462 0.0950286
0.0052904356 0.005834598 -0.13650216 0.06427762 -0.041608643 0.2782891 0.08010929 0.1081925
-0.045468904 -0.1644378 -0.02220518 0.05775334 0.12979385 0.37017268 0.21400334 -0.31319386
-0.063904785 -0.1363678 -0.05077015 0.28344345 0.121426955 -0.2032439 -0.0870346 -0.031255014
0.16276897 0.102239005 -0.13387929 0.1722943 0.050530586 -0.22276066 0.5484343 0.15006332
0.12426643 -0.032313354 0.18841115 -0.004345479 0.09463423 0.12708831 -0.073405154 0.22474822
0.05120131 -0.2221485 0.050670706 0.00073073443 -0.30985388 -0.106064476 0.09201974 0.074204415
0.20660052 -0.105250455 0.29920018 0.057536416 -0.12700278 0.039944883 0.1775632 0.08658863
0.0672724 0.13997914 -0.068813436 0.10311862 0.32511163 -0.15990536 0.00019816695 -0.22456218
-0.14513104 0.026177738 -0.06476865 -0.23442076 0.48297837 -0.023786517 -0.006579825 -0.1839406
-0.18937452 0.058027443 -0.07540585 -0.1337282 -0.04358868 -0.022230795 -0.22449408 -0.16355953
-0.11104764 -0.17094979 -0.031043291 0.2048296 0.17147915 -0.31606078 0.011256932 -0.13088429
00000000: bade 433d c336 503e ce9f df3d e08a 91bd
00000010: d238 6abd 6f50 c43d 7da6 8b3e 1c23 4abe
00000020: cc81 643c fab2 c5bd 56de 1fbe 9f8f 36be
00000030: 08d8 6a3e 6fa4 fc3d dc70 69be 4d11 16bc
00000040: cbac 6cbe cbed 7d3e ae3d 31bd e333 fdbd
00000050: 3434 8b3d 37b5 d0bd d36b 99bd 6974 3cbd
00000060: a160 7bbd 37bf 403d 1df8 863c e918 9bbe
00000070: 6c0b 8d3e dcce 23be c477 d03d f60c 28bd
00000080: 5fff 0a3e 3f9f a5bd e90b 56bd eba7 0e3e
00000090: 2c26 9ebe 9c40 a7be 1d2b 0f3d 7610 2ebe
000000a0: f0ce 4e3e 1450 f83d bcc8 5c3e ece5 1cbe
000000b0: 801b 32bd e556 463e e239 953d 5304 413e
000000c0: 6a08 b13d d72e 1a3e 160e 773b 2ed4 203e
000000d0: e0c9 5e3e ce1c 90bd 5e01 45be c315 37be
000000e0: e1da 24bd 36f2 6fbd 09c8 253e 52b5 8b3e
000000f0: 95d5 dcbd 3f23 3f3e 6fb4 053c 8faa f0bd
00000100: 5a9f 273e 0375 c8bb 1384 0ebe da59 36bc
00000110: c384 df3d 4b1c 313e d2ca f8bc e556 c93e
00000120: 91ab 5d3e 7c8c 3bbe 3935 38bb 0a6a c3bb
00000130: d575 25be 2001 0c3e ac9e 1f3d 8258 f03c
00000140: f700 7cbd ca24 dd3d c0fd cc3d 37d6 30be
00000150: 1faa 2f3d 6a1a c2bd 5cea 5b3d 8ee8 64bd
00000160: cde6 f1bc 636f cd3d c168 f43d 33e4 a9be
00000170: cd96 aabe ca2c bf3c 5c0c 0f3d c146 523d
00000180: 35c0 19bc 82cf d23c 1444 413e 123b e9bd
00000190: 5eca 873e 731a 27bd f8be 823d ca45 05bd
000001a0: 9018 d7bb dff9 d8bb 7fc5 c6bd b356 8e3d
000001b0: 806e 54bc 2f69 a2bd 3b62 b43d 3fc9 2a3e
000001c0: 7fec dc3d f928 acbd cb5d 493e 8c43 3dbd
000001d0: 5720 f6bd 88e7 323e a2bf 253e fc02 3c3e
000001e0: 776d c4be 0216 3a3d 75c5 d13d 4ceb cabc
000001f0: 0532 f8bd 314d 50be 234a 4b3e ef6b 933e
00000200: 764c 633e 0b0c 123d 8437 583e 1b1b 89bc
00000210: 129f 6fbd 540b 8bbd 887d 593e 62b0 bdbd
00000220: 7ef7 0cbe 1071 0fbe 6f15 df3d 59db 84be
00000230: 2cc1 7d3d a7f7 38be ba25 6a3e 1db2 d0bd
00000240: 57b3 c13d 7f85 29bd 996f 02be 1e21 39be
00000250: 61af 253e b188 813c b639 b13d eb1b bc3d
00000260: 6cd6 1f3e 0240 513d de60 133e 05ce b0bd
00000270: 3cf4 11be dc74 e7bc 12b6 83be 59f9 0f3e
00000280: 4e59 393e cef1 b13d d13a 403e 87bd e9bc
00000290: 7cf6 1f3e 010a dfbc 230f 7ebe 5b9e c23d
000002a0: 645b ad3b 2830 bf3b 39c7 0bbe fca3 833d
000002b0: d36d 2abd e97b 8e3e 5710 a43d 0894 dd3d
000002c0: 9a3d 3abd 6262 28be a3e7 b5bc c48e 6c3d
000002d0: aee8 043e 4687 bd3e b123 5b3e f25a a0be
000002e0: 83e0 82bd 00a4 0bbe 5cf4 4fbd 801f 913e
000002f0: b2ae f83d 2b1f 50be 323f b2bd 4205 00bd
00000300: e9ac 263e af62 d13d a717 09be eb6d 303e
00000310: 29f9 4e3d 5f1b 64be 3166 0c3f 33aa 193e
00000320: 667f fe3d 025b 04bd daee 403e 8564 8ebb
00000330: 97cf c13d 7023 023e 7155 96bd 6624 663e
00000340: 77b8 513d e57a 63be 168c 4f3d c28e 3f3a
00000350: 2ba5 9ebe 5538 d9bd d874 bc3d 7cf8 973d
00000360: 168f 533e 8d8d d7bd c430 993e 4eab 6b3d
00000370: 040d 02be 3f9d 233d 21d3 353e 6155 b13d
00000380: 1dc6 893d b156 0f3e 0fee 8cbd db2f d33d
00000390: 0875 a63e 3bbe 23be 09cb 4f39 a1f3 65be
000003a0: 3b9d 14be b272 d63c 6da5 84bd ff0b 70be
000003b0: f148 f73e f1db c2bc 939b d7bb ed5a 3cbe
000003c0: 65eb 41be 2fae 6d3d 626e 9abd 0cf0 08be
000003d0: 0b8a 32bd 5b1d b6bc c7e1 65be 267c 27be
000003e0: f26c e3bd 760d 2fbe 804e febc dabe 513e
000003f0: 3b98 2f3e b8d2 a1be ff6e 383c 8806 06be

bias f4 [150]
-0.0752209 0.019927494 -0.16306876 -0.053471774 0.034745865 0.026841758 0.07799743 0.14975765
0.005509558 0.00012037429 0.05261606 -0.022053637 -0.042179216 -0.014276153 -0.04182321 -0.035570428
-0.14358869 0.112120114 -0.12654783 -0.16936834 -0.21134962 0.037059586 -0.094028346 -0.2083639
-0.03733248 0.09180115 -0.17885226 0.1359732 0.15957054 0.0046653873 -0.076442786 -0.11330189
-0.051447924 0.0001830716 -0.10418995 -0.04730235 -0.052553546 0.03483452 -0.078040496 0.03792296
0.0551069 -0.015989799 -0.07380773 -0.24163471 -0.1321558 0.08145158 0.070705846 0.06838916
-0.053380735 0.036527522 -0.15651785 -0.13066041 -0.025127675 -0.038397495 -0.10047118 -0.00012787127
-0.07168805 -0.108575866 0.1737854 -0.16718394 -0.0076743397 -0.06067978 -0.19261286 -0.09368848
-0.05650237 -0.04858155 0.050830595 -0.011856759 0.03535927 0.00563911 0.019141389 -0.007080512
0.040968884 0.1046167 0.08660268 0.03133541 -0.15206696 -0.07166899 0.057402518 0.037937287
0.09970022 0.013880778 -0.1279579 -0.02802511 -0.054611865 -0.07351899 -0.03216006 -0.09642847
-0.015472241 0.10879828 0.16303428 0.044847667 -0.019469582 -0.056224804 0.1425946 0.057393726
0.045744423 -0.13063541 -0.0080723325 -0.09616665 0.050491083 0.17908569 -0.16482246 -0.04076233
0.09660768 -0.17866084 0.023430642 -0.17049336 -0.057112757 0.0605732 -0.076842554 -0.040726885
0.12869409 0.062100574 0.014327088 -0.13503137 0.027575266 -0.13244332 -0.09344053 0.12027374
0.13287747 -0.14496087 -0.05074112 0.12568164 -0.06782169 0.057500143 -0.21397579 0.01608307
-0.047846247 0.14191219 -0.020341586 0.16044332 0.12847781 0.0431839 -0.06294699 -0.022866385
0.0015825761 0.029574387 -0.0027945417 -0.043814443 0.054126006 -0.2709651 0.0071610804 -0.07091085
0.16232966 -0.021762459 0.1705087 0.004354301 0.04774547 0.1555177
00000000: 6a0d 9abd fc3e a33c 7ffb 26be 3805 5bbd
00000010: ae51 0e3d 3fe3 db3c 1ebd 9f3d 125a 193e
00000020: 8689 b43b 7471 fc38 f083 573d d4a9 b4bc
00000030: 1dc4 2cbd 87e6 69bc d04e 2bbd 4cb2 11bd
00000040: ea08 13be 3b9f e53d c195 01be e56e 2dbe
00000050: 096c 58be cbcb 173d ef91 c0bd 595d 55be
00000060: f1e9 18bd 3e02 bc3d 0c25 37be 8f3c 0b3e
00000070: 7666 233e 1be0 983b 098e 9cbd d20a e8bd
00000080: 0fbb 52bd e9f6 3f39 8a61 d5bd 1cc0 41bd
00000090: 6342 57bd a4ae 0e3d b2d3 9fbd 1b55 1b3d
000000a0: c6b7 613d 0afd 82bc 8228 97bd 176f 77be
000000b0: da53 07be 16d0 a63d 3ace 903d 9e0f 8c3d
000000c0: c2a5 5abd e29d 153d 3746 20be d8cb 05be
000000d0: 8ed8 cdbc b146 1dbd d6c3 cdbd 2f15 06b9
000000e0: 2fd1 92bd 065d debd cdf4 313e 4432 2bbe
000000f0: 0779 fbbb 5c8b 78bd 4e3c 45be bfdf bfbd
00000100: 076f 67bd 73fd 46bd be33 503d da42 42bc
00000110: e2d4 103d 49c8 b83b 67ce 9c3c a403 e8bb
00000120: fdce 273d 4841 d63d bf5c b13d 8f59 003d
00000130: 71b7 1bbe 31c7 92bd e71e 6b3d 2164 1b3d
00000140: a12f cc3d 346c 633c 6507 03be ea94 e5bc
00000150: b1b0 5fbd 2091 96bd 44ba 03bd 4a7c c5bd
00000160: 487f 7dbc a2d1 de3d 75f2 263e 30b2 373d
00000170: ac7e 9fbc fb4b 66bd 5204 123e af15 6b3d
00000180: 815e 3b3d 4ac5 05be d141 04bc 05f3 c4bd
00000190: bdcf 4e3d 3d62 373e 38c7 28be 67f6 26bd
000001a0: 3fda c53d def2 36be 9ef1 bf3c d095 2ebe
000001b0: 11ef 69bd 9b1b 783d a15f 9dbd 3cd1 26bd
000001c0: 62c8 033e 2c5d 7e3d 2abc 6a3c aa45 0abe
000001d0: 86e5 e13c 399f 07be c05d bfbd 1452 f63d
000001e0: 0811 083e 9f70 14be ecd5 4fbd b0b2 003e
000001f0: 19e6 8abd 4585 6b3d 781c 5bbe a4c0 833c
00000200: 6dfa 43bd 6e51 113e 66a3 a6bc 414b 243e
00000210: b08f 033e 9ae1 303d 5aea 80bd 4952 bbbc
00000220: 716e cf3a fc45 f23c a124 37bb c676 33bd
00000230: 3bb3 5d3d f0bb 8abe 7fa7 ea3b b539 91bd
00000240: bf39 263e 2f47 b2bc d599 2e3e 86ae 8e3b
00000250: c190 433d 0840 1f3e

weight f4 [150, 150]
0.26981026 -0.06106225 -0.15725628 0.008377056 0.010702782 -0.26604012 0.061216366 -0.017520532
0.07399856 0.029023502 0.020819625 0.33126056 0.040495217 0.08417183 0.06789812 -0.3320017
-0.011556514 -0.26225108 0.0038774752 0.12543818 0.04119928 -0.09687019 0.013318998 0.2145025
-0.08576038 -0.01985764 -0.16225106 -0.020904554 -0.029160894 0.17487921 -0.13679087 0.06165672
-0.17304929 0.04224313 0.0925687 0.02547486 -0.084668584 0.06520355 -0.029910479 0.015987234
-0.0017268695 -0.13312991 -0.060239833 0.10383691 0.086415686 -0.14674534 -0.045187477 0.07422906
-0.065165415 -0.021137027 -0.02487046 0.07088925 0.36104152 -0.078822695 0.2127749 0.022825083
0.003529983 0.378935 0.19042319 0.066291235 0.14065109 0.14654197 -0.0030300578 -0.1481215
-0.041435678 -0.11356327 -0.15702954 -0.05630628 -0.1662566 0.07021707 -0.07708112 -0.03418114
0.14556468 -0.05175312 -0.078765765 -0.27841604 0.005909146 -0.023731623 -0.15821365 -0.09815159
-0.0954413 -0.18896648 0.110877946 -0.05753132 -0.006758308 0.25722855 -0.059936583 -0.1212887
-0.15986295 -0.23529336 -0.20591375 -0.014843285 -0.063541204 -0.043335486 -0.011905359 0.031901073
-0.16274741 0.1151823 -0.18024004 -0.078852914 -0.09118095 -0.00862973 -0.0867548 -0.02650217
-0.019314436 0.1980378 -0.24426319 0.15455665 0.062478796 -0.31517914 0.15706253 -0.20303303
-0.00737532 0.04535593 0.058345087 -0.1907742 0.15048315 -0.030566966 -0.09731939 0.043226015
0.026998514 -0.07936166 0.024466828 0.026562093 -0.00421819 0.21474962 0.004423461 0.033686325
-0.0991374 0.07223985 -0.044468366 0.04938045 0.08056082 0.261204 0.14035353 0.13566257
0.31030416 0.09415706 -0.20960167 -0.1395027 -0.09248021 0.028494187 -0.15739228 0.13964258
0.017717646 -0.38579962 -0.010443565 -0.23002385 -0.084102996 -0.09522466 0.131242 0.28340325
-0.14112361 -0.057024058 -0.12788814 0.17307739 0.20806621 0.10935656 -0.19366048 0.14799006
0.030366074 -0.13673279 0.27823484 0.084404446 0.12246471 -0.05280274 0.18180965 0.06253238
0.18342985 -0.20739071 -0.29785657 -0.23688854 -0.09517665 -0.06422304 -0.06573402 0.105000615
0.06856356 0.22590429 0.22692221 -0.025545511 -0.0067542004 0.02470862 0.028054116 0.3735818
0.104794696 0.29614696 -0.14117326 0.031739738 -0.0806361 0.115039505 0.0285403 -0.026858551
0.04470573 -0.0038224047 -0.049698494 0.0066935443 -0.06515319 -0.051758446 0.17742275 -0.07081564
0.094322644 -0.014206201 0.122646555 -0.14726126 -0.16796175 -0.11225814 0.17909636 0.027452312
0.09301286 -0.042990386 -0.07287784 -0.15947586 0.11823518 0.14062312 -0.020661542 0.03650416
0.19504058 -0.10404354 0.11261889 0.004189505 -0.13951297 0.1691672 -0.12039899 0.048087418
-0.08054688 0.2625995 0.03795209 0.03505682 -0.038140215 0.07063784 0.12859274 -0.0006999304
-0.0047384356 0.088544674 -0.18678278 -0.19019121 0.07401862 -0.12159089 -0.20829086 -0.19712745
0.1344306 0.0791171 -0.076317094 -0.13190903 0.13443652 0.15219223 -0.13605125 -0.4627243
0.07316952 -0.09172362 -0.16550648 0.004609059 0.04100504 0.1374001 -0.06985923 -0.21457346
00000000: 9224 8a3e 691c 7abd ca07 21be eb3f 093c
00000010: b95a 2f3c 6936 88be 03be 7a3d 3887 8fbc
00000020: 8f8c 973d b2c2 ed3c eb8d aa3c fc9a a93e
00000030: 50de 253d 4862 ac3d 2b0e 8b3d 20fc a9be
00000040: 8857 3dbc c645 86be 3d1d 7e3b de72 003e
00000050: 94c0 283d e163 c6bd ed37 5a3c 8ba6 5b3e
00000060: 23a3 afbd 7dac a2bc 2425 26be 0740 abbc
00000070: d4e2 eebc 8913 333e e812 0cbe c28b 7c3d
00000080: d533 31be 2207 2d3d a994 bd3d a7b0 d03c
00000090: b966 adbd 7089 853d d206 f5bc a9f7 823c
000000a0: 2058 e2ba 3553 08be 0bbe 76bd 72a8 d43d
000000b0: b5fa b03d 6944 16be 8116 39bd 6805 983d
000000c0: 7275 85bd 8f27 adbc 23bd cbbc 622e 913d
000000d0: 6fda b83e cb6d a1bd aae1 593e abfb ba3c
000000e0: 4a57 673b c503 c23e 4cfe 423e b3c3 873d
000000f0: d706 103e 190f 163e ef93 46bb 2aad 17be
00000100: 75b8 29bd dc93 e8bd 5acc 20be 6aa1 66bd
00000110: 2c3f 2abe f8cd 8f3d b5dc 9dbd 8601 0cbd
00000120: e80e 153e 14fb 53bd f24f a1bd 8c8c 8ebe
00000130: 82a1 c13b d268 c2bc c202 22be b303 c9bd
00000140: ba76 c3bd 6e80 41be fa13 e33d f6a5 6bbd
00000150: cc74 ddbb 76b3 833e 1080 75bd 3666 f8bd
00000160: 1db3 23be bef0 70be 0edb 52be 4031 73bc
00000170: e421 82bd 8d80 31bd b20e 43bc b3aa 023d
00000180: 42a7 26be b3e4 eb3d d890 38be a37d a1bd
00000190: 14bd babd b663 0dbc 80ac b1bd 141b d9bc
000001a0: 4f39 9ebc 6cca 4a3e 2120 7abe 1944 1e3e
000001b0: c4e9 7f3d 295f a1be 00d5 203e e4e7 4fbe
000001c0: abac f1bb 24c7 393d 42fb 6e3d 505a 43be
000001d0: 4118 1a3e 9367 fabc 634f c7bd c30d 313d
000001e0: fd2b dd3c 5e88 a2bd a86e c83c bf98 d93c
000001f0: be38 8abb 53e7 5b3e aef2 903b acfa 093d
00000200: 8d08 cbbd 7df2 933d 7624 36bd 2843 4a3d
00000210: 12fd a43d 88bc 853e d6b8 0f3e 21eb 0a3e
00000220: 30e0 9e3e 6bd5 c03d d2a1 56be ccd9 0ebe
00000230: 4466 bdbd a46c e93c 712b 21be 77fe 0e3e
00000240: 9924 913c 8787 c5be 7d1b 2bbc 5f8b 6bbe
00000250: 313e acbd 2605 c3bd 4e64 063e 3b1a 913e
00000260: b582 10be 0f92 69bd 1cf5 02be 333b 313e
00000270: 4f0f 553e 55f6 df3d ef4e 46be b58a 173e
00000280: 46c2 f83c ae03 0cbe cc74 8e3e 3ddc ac3d
00000290: c7ce fa3d b047 58bd 4f2c 3a3e fa10 803d
000002a0: 09d5 3b3e 3b5e 54be a880 98be e992 72be
000002b0: faeb c2bd 5f87 83bd 8f9f 86bd 900a d73d
000002c0: 0d6b 8c3d 7453 673e 4c5e 683e d244 d1bc
000002d0: 5752 ddbb bb69 ca3c bfd1 e53c 1d46 bf3e
000002e0: 9a9e d63d 93a0 973e b98f 10be 8701 023d
000002f0: 8a24 a5bd d599 eb3d 59cd e93c 7706 dcbc
00000300: 5b1d 373d 4f81 7abb a690 4bbd 8555 db3b
00000310: 096f 85bd aa00 54bd 4fae 353e ca07 91bd
00000320: 3b2c c13d 20c1 68bc 1e2e fb3d a8cb 16be
00000330: 2afe 2bbe 99e7 e5bd 0965 373e ace3 e03c
00000340: 877d be3d b016 30bd fa40 95bd a44d 23be
00000350: 4925 f23d 82ff 0f3e 6542 a9bc 6385 153d
00000360: b8b8 473e c814 d5bd bca4 e63d 1d48 893b
00000370: 7ddc 0ebe 2b3a 2d3e bf93 f6bd 50f7 443d
00000380: c3f5 a4bd 7173 863e a773 1b3d bd97 0f3d
00000390: ea38 1cbd 92aa 903d d1ad 033e 897b 37ba
000003a0: e144 9bbb e956 b53d fc43 3fbe 7cc1 42be
000003b0: 1397 973d a504 f9bd 334a 55be c7db 49be
000003c0: 2da8 093e 2508 a23d 234c 9cbd 2913 07be
000003d0: baa9 093e 48d8 1b3e 0551 0bbe 33ea ecbe
000003e0: e7d9 953d 98d9 bbbd 887a 29be 9707 973b
000003f0: e7f4 273d 9db2 0c3e 5b12 8fbd 25b9 5bbe

bias f4 [150]
-0.12839714 0.0376668 -0.10701254 0.08912512 -0.16153958 -0.056740504 -0.22298414 0.012694553
0.05620345 0.109807864 0.0038806756 0.060469598 -0.10454726 -0.0704693 -0.070178226 0.1294442
-0.045048546 -0.10347658 0.111470275 -0.11193925 -0.10327747 -0.10588949 -0.027360385 0.15266414
0.0042578094 0.036443677 0.0395892 0.15897052 -0.0402755 -0.09528458 0.009970039 -0.01990119
-0.0012675815 0.002897169 -0.07422187 0.019557664 -0.052623235 0.13729799 0.10147876 -0.055620115
-0.024366 -0.13726747 -0.39179206 0.08185369 0.2661456 -0.1624528 0.13670453 0.1451391
0.04406078 0.017608782 -0.10275165 0.009179475 0.1168167 -0.114864476 -0.0005877454 0.19900367
-0.021174887 -0.114349335 -0.06492935 -0.066971585 0.089291506 -0.04821998 -0.00445896 -0.04419911
-0.15069988 0.04627483 0.0121891685 -0.015830128 0.0067327856 0.16182908 0.019964948 -0.13157047
-0.0020125296 0.19286153 0.0494498 0.06408069 0.43320256 0.14040746 -0.1733712 -0.060109127
-0.16594952 0.01068892 -0.040487558 -0.06007095 0.036115162 0.0065024327 -0.049987055 0.013733342
-0.08888263 0.027784275 -0.023815874 0.14966969 0.005317061 0.05116636 -0.012077128 0.06740103
-0.05037251 -0.20031829 0.025915321 -0.31008202 0.036564566 -0.07700018 0.057435278 -0.086786956
-0.0036886788 -0.07780607 0.08564069 0.043428898 -0.1649964 0.017162161 0.014155547 -0.11613904
-0.0073740766 0.37464193 0.20497179 0.010281074 -0.11436498 0.034344792 -0.04074784 0.0817646
0.024040597 -0.04793606 0.044003457 0.007265279 0.09233509 0.071810685 0.15279196 0.015949609
-0.054843426 0.14348665 -0.10307024 -0.2169265 0.117778555 -0.016572896 0.14361607 0.049324885
-0.07661786 0.08436486 0.027226867 -0.09112921 -0.07866963 0.010462694 0.2986411 -0.119286716
-0.015046034 0.032755736 0.049493626 0.020372242 -0.13401115 -0.11329965
00000000: 8a7a 03be 8148 1a3d 6429 dbbd 3b87 b63d
00000010: a26a 25be bb68 68bd f455 64be d0fc 4f3c
00000020: 9735 663d f2e2 e03d ef52 7e3b f8ae 773d
00000030: e01c d6bd 3552 90bd 9ab9 8fbd 058d 043e
00000040: d384 38bd 87eb d3bd 874a e43d 6840 e5bd
00000050: 2383 d3bd 97dc d8bd e322 e0bc fd53 1c3e
00000060: 1885 8b3b f745 153d 4928 223d 2bc9 223e
00000070: ecf7 24bd 9024 c3bd 6059 233c d207 a3bc
00000080: fa24 a6ba 6ede 3d3b a301 98bd 6537 a03c
00000090: 768b 57bd d897 0c3e 19d4 cf3d ebd1 63bd
000000a0: 359b c7bc d88f 0cbe f898 c8be e8a2 a73d
000000b0: 3c44 883e 075a 26be 46fc 0b3e 589f 143e
000000c0: 1479 343d 4b40 903c 756f d2bd 8265 163c
000000d0: 983d ef3d 113e ebbd ed12 1aba 9ec7 4b3e
000000e0: f576 adbc fc2f eabd aef9 84bd 6628 89bd
000000f0: 77de b63d 5082 45bd 781c 92bb 200a 35bd
00000100: 1251 1abe ad8a 3d3d 14b5 473c 2fae 81bc
00000110: b39e dc3b 86b6 253e 888d a33c 69ba 06be
00000120: a5e4 03bb 7e7d 453e e08b 4a3d bd3c 833d
00000130: bacc dd3e f9c6 0f3e 3888 31be fd34 76bd
00000140: acee 29be 9420 2f3c 48d6 25bd f50c 76bd
00000150: 7eed 133d 5c12 d53b 3abf 4cbd d001 613c
00000160: 1908 b6bd d99b e33c 8219 c3bc 0343 193e
00000170: be3a ae3b d193 513d 25df 45bc 8d09 8a3d
00000180: 6853 4ebd 3d20 4dbe 5e4c d43c 12c3 9ebe
00000190: bac4 153d 45b2 9dbd 4141 6b3d 5cbd b1bd
000001a0: c3bd 71bb ca58 9fbd 6364 af3d 80e2 313d
000001b0: d1f4 28be a997 8c3c abec 673c 4eda edbd
000001c0: 3da2 f1bb 11d1 bf3e 20e4 513e f371 283c
000001d0: 3038 eabd 20ad 0c3d 35e7 26bd 3374 a73d
000001e0: c9f0 c43c 9a58 44bd f83c 343d 9411 ee3b
000001f0: 2e1a bd3d 7b11 933d 7f75 1c3e c1a8 823c
00000200: 80a3 60bd 2aee 123e 7d16 d3bd fb21 5ebe
00000210: e235 f13d e2c3 87bc 1710 133e e408 4a3d
00000220: d3e9 9cbd 7cc7 ac3d e10a df3c f4a1 babd
00000230: 8b1d a1bd b86b 2b3c 7ce7 983e 984c f4bd
00000240: a483 76bc e12a 063d d4b9 4a3d b0e3 a63c
00000250: 383a 09be a609 e8bd

weight f4 [64, 4]
-0.0098084705 0.31234235 -0.18842635 0.2931693 0.22759035 -0.08878154 -0.11988608 0.13490938
-9.181528e-05 -0.092981875 -0.45604149 -0.13134927 -0.19222724 -0.14906006 0.13892673 0.38515127
-0.51626396 0.105243035 -0.0022123926 0.22131047 -0.03490893 -0.13633344 0.14159754 0.4988187
0.11311516 -0.1069052 -0.42368472 -0.32177305 -0.50524724 0.24058443 -0.43145853 -0.15281816
0.046762552 -0.09384964 -0.25354367 0.08914772 0.2549626 0.037740696 0.05330945 -0.030384893
-0.060482416 -0.22510588 0.09563624 0.52332073 0.0016429529 -0.038256604 -0.36132118 -0.31081906
0.14693344 -0.22515196 0.099189155 0.38329273 -0.2911055 0.10026801 0.3253821 -0.09283888
-0.039151557 0.006004526 -0.24425407 0.16038233 0.0742023 -0.17163074 -0.21376471 0.31413534
-0.23089832 0.16402555 0.31894138 0.19309874 -0.302172 0.18341045 -0.010929132 -0.49353218
0.29499856 -0.41101992 0.09877162 0.4052154 0.30934635 0.034906708 -0.1743506 -0.3071432
-0.41263726 -0.1451831 0.04897909 0.23378769 0.25748876 -0.27291352 -0.13420764 0.1362774
-0.45512238 -0.050032377 -0.35593057 0.1851383 -0.05545651 -0.0382778 0.2736666 0.122728474
-0.26252013 -0.07983978 -0.3771889 0.2037224 -0.11079389 0.07707789 0.18739478 -0.3674276
0.2826428 -0.53691566 -0.051273342 0.15681274 -0.45523763 -0.50992304 0.011995544 0.16805452
0.27253994 -0.2954231 -0.22869018 0.08600163 0.24495165 0.15258263 -0.14507827 -0.3375036
0.2169297 0.17444077 -0.20563939 -0.52380836 0.04833668 -0.044534426 -0.033360522 0.3741784
0.2964478 -0.061218806 0.30278715 -0.29362524 -0.3706448 0.12585375 0.07272816 -0.057403084
0.24060245 0.22147414 -0.22881506 -0.15239841 0.27741662 0.08075727 -0.09409958 0.38011727
-0.14646216 0.2254221 -0.46065935 -0.078498386 -0.7773043 0.0166251 0.056323975 -0.10430497
-0.45911482 0.029159755 0.52586865 0.0538002 0.23754168 -0.46859026 -0.15360263 0.14187568
0.5044205 0.028736958 0.27323517 0.08708064 0.39842907 -0.43116683 0.4874361 0.01842746
0.007352192 -0.16315976 -0.07381406 0.52834994 0.1071869 0.20498645 -0.18866806 0.1758882
-0.5222679 0.16399767 -0.013767273 -0.17809585 -0.43032387 -0.32185602 0.29355487 0.24844544
-0.15095039 0.19600096 -0.3521518 0.217741 0.0023990057 0.5637682 0.10419098 -0.2556707
0.1165145 0.25843078 0.095996246 -0.36489084 -0.39161077 0.24830964 -0.30578047 0.00859405
-0.12317411 0.35098055 0.28339294 -0.56186455 0.009378423 -0.21862751 -0.08816274 -0.037111994
0.2126763 0.121246785 -0.37034598 0.090000615 0.2160523 0.29067114 0.03913242 -0.2564392
-0.0014171087 -0.23062357 0.37538612 0.2797029 -0.13192892 0.016904881 -0.18757106 -0.3250523
-0.53218263 -0.6674798 0.092006266 0.14119948 -0.24602339 0.22476125 0.5179879 -0.27166772
0.5217308 0.23555368 -0.10919678 0.21982151 0.25955257 0.1640614 0.25200865 -0.056575984
-0.19081058 0.5126322 -0.0878692 0.07893154 -0.04098526 0.7791062 0.1220437 0.29887193
0.044080302 0.39556295 0.34152576 -0.08306727 -0.06469786 0.10724421 0.17528932 0.11438828
00000000: b5b3 20bc 56eb 9f3e d6f2 40be 491a 963e
00000010: 720d 693e 19d3 b5bd d586 f5bd af25 0a3e
00000020: f48c c0b8 486d bebd 457e e9be 6c80 06be
00000030: 38d7 44be 33a3 18be cf42 0e3e 8c32 c53e
00000040: e029 04bf a989 d73d cafd 10bb 369f 623e
00000050: abfc 0ebd fe9a 0bbe f2fe 103e 2a65 ff3e
00000060: eca8 e73d 1df1 dabd 34ed d8be 70bf a4be
00000070: e257 01bf c45b 763e 22e8 dcbe 5d7c 1cbe
00000080: 178a 3f3d 3d34 c0bd 7ad0 81be 1493 b63d
00000090: 758a 823e fd95 1a3d 035b 5a3d bde9 f8bc
000000a0: 69bc 77bd 2882 66be efdc c33d 59f8 053f
000000b0: 5a58 d73a f5b2 1cbd 17ff b8be ad23 9fbe
000000c0: b875 163e 3c8e 66be af23 cb3d f23e c43e
000000d0: c80b 95be 5059 cd3d 7c98 a63e 5022 bebd
000000e0: 625d 20bd 9dc1 c43b bd1d 7abe 443b 243e
000000f0: 60f7 973d f8bf 2fbe 23e5 5abe 59d6 a03e
00000100: 9c70 6cbe 50f6 273e 494c a33e adbb 453e
00000110: 4ab6 9abe f3cf 3b3e 1a10 33bc 40b0 fcbe
00000120: 0d0a 973e 3471 d2be c648 ca3d 6578 cf3e
00000130: a562 9e3e 56fa 0e3d f788 32be e041 9dbe
00000140: 3145 d3be e1aa 14be 4c9e 483d 0a66 6f3e
00000150: 91d5 833e 52bb 8bbe ba6d 09be 4e8c 0b3e
00000160: cd05 e9be c0ee 4cbd 883c b6be e594 3d3e
00000170: 5e26 63bd 2fc9 1cbd 071e 8c3e 1159 fb3d
00000180: 0a69 86be 0a83 a3bd e71e c1be 9b9c 503e
00000190: e8e7 e2bd 03db 9d3d 6be4 3f3e 781f bcbe
000001a0: 8fb6 903e 4e73 09bf ff03 52bd 8593 203e
000001b0: e814 e9be 518a 02bf f588 443c 7c16 2c3e
000001c0: 5b8a 8b3e b241 97be c22d 6abe 9f21 b03d
000001d0: 9bd4 7a3e 9f3e 1c3e 668f 14be 46cd acbe
000001e0: d222 5e3e 9aa0 323e 2293 52be 4e18 06bf
000001f0: affc 453d bb69 36bd 0ba5 08bd 5094 bf3e
00000200: 02c8 973e 92c0 7abd eb06 9b3e 0c56 96be
00000210: 28c5 bdbe cedf 003e 80f2 943d 7f1f 6bbd
00000220: 7d60 763e 1eca 623e 7f4e 6abe 540e 1cbe
00000230: 8d09 8e3e 1164 a53d 48b7 c0bd bb9e c23e
00000240: 2dfa 15be 0dd5 663e 8bdb ebbe c3c3 a0bd
00000250: 6afd 46bf 5d31 883c f8b3 663d d89d d5bd
00000260: 1911 ebbe 70e0 ee3c 549f 063f 995d 5c3d
00000270: 203e 733e 10eb efbe 024a 1dbe dc47 113e
00000280: b421 013f c569 eb3c 7be5 8b3e 5657 b23d
00000290: e5fe cb3e e6c1 dcbe 3991 f93e 2ff5 963c
000002a0: a8ea f03b 5a13 27be d32b 97bd f141 073f
000002b0: ce84 db3d f8e7 513e 3332 41be 091c 343e
000002c0: 59b3 05bf 01ef 273e 2190 61bc c25e 36be
000002d0: 6953 dcbe 50ca a4be d34c 963e 7b68 7e3e
000002e0: bd92 1abe 7ab4 483e 3e4d b4be 7ff7 5e3e
000002f0: a338 1d3b 1d53 103f 1562 d53d 45e7 82be
00000300: 279f ee3d 0a51 843e ae99 c43d f9d2 babe
00000310: 3581 c8be e244 7e3e 428f 9cbe 0fce 0c3c
00000320: b542 fcbd b9b3 b33e e118 913e 5bd6 0fbf
00000330: f5a7 193c e4df 5fbe ab8e b4bd bf02 18bd
00000340: d1c7 593e 3c50 f83d fd9d bdbe 3e52 b83d
00000350: d03c 5d3e d9d2 943e 5149 203d 004c 83be
00000360: 47be b9ba 9628 6cbe 9c32 c03e 3835 8f3e
00000370: 6018 07be 1b7c 8a3c a112 40be 416d a6be
00000380: 1f3d 08bf f5df 2abf c86d bc3d 9996 103e
00000390: 8eed 7bbe d027 663e db9a 043f 0818 8bbe
000003a0: 2690 053f fc34 713e 90a2 dfbd e418 613e
000003b0: 13e4 843e b6ff 273e 4707 813e 38bc 67bd
000003c0: d963 43be dd3b 033f c4f4 b3bd dca6 a13d
000003d0: 29e0 27bd 8173 473f 0cf2 f93d be05 993e
000003e0: 8c8d 343d 3a87 ca3e 77dc ae3e 2c1f aabd
000003f0: 5080 84bd daa2 db3d 0b7f 333e 6744 ea3d

bias f4 [64]
0.14629619 -0.10728321 0.08554109 0.019130953 0.08905788 -0.012412449 0.082170896 0.1479081
0.064815685 0.021609914 -0.018384222 0.0591801 0.026418561 -0.10174954 0.09454337 0.0619378
-0.15165964 -0.018813984 0.03760139 0.047481544 -0.022529148 0.04868887 0.04727349 -0.15600833
-0.00044290622 -0.045572612 -0.00396202 -0.0029969835 -0.053617414 -0.07477754 -0.02664582 -0.1259719
-0.1400103 -0.034024753 0.113789506 0.14064904 0.13450144 -0.04021168 -0.10263345 0.11519259
-0.08952354 -0.06523766 -0.016668681 0.023376837 0.030951148 -0.109997384 -0.021198465 -0.030931078
0.08286552 0.18479787 -0.04871872 0.21090303 0.08590025 0.0070427693 -0.035810165 -0.16159093
-0.015219708 -0.12447655 -0.02223291 0.11520664 0.093488365 -0.021783689 -0.10066212 -0.034714557
00000000: abce 153e 4db7 dbbd 2b30 af3d 84b8 9c3c
00000010: fa63 b63d 965d 4bbc 3749 a83d 3975 173e
00000020: 16be 843d 4607 b13c 829a 96bc d566 723d
00000030: bd6b d83c 1062 d0bd f49f c13d 7eb2 7d3d
00000040: aa4c 1bbe c91f 9abc ea03 1a3d 027c 423d
00000050: 0c8f b8bc fb6d 473d d9a1 413d a6c0 1fbe
00000060: de35 e8b9 59aa 3abd d5d3 81bb 0a69 44bb
00000070: ef9d 5bbd f824 99bd 5648 dabc c7fe 00be
00000080: dc5e 0fbe 8a5d 0bbd 790a e93d 4d06 103e
00000090: bfba 093e 01b5 24bd 7c31 d2bd 18ea eb3d
000000a0: 1e58 b7bd 539b 85bd c28c 88bc c880 bf3c
000000b0: 438d fd3c 4f46 e1bd 67a8 adbc 2c63 fdbc
000000c0: 66b5 a93d a73b 3d3e 488d 47bd f7f6 573e
000000d0: 78ec af3d 08c7 e63b aead 12bd 1878 25be
000000e0: 155c 79bc 90ed febd cb21 b6bc 75f1 eb3d
000000f0: d476 bf3d b573 b2bc f127 cebd da30 0ebd

weight f4 [64, 214]
0.14871037 0.11903155 0.22066389 0.13451464 0.19106165 -0.010251461 0.08889886 -0.10910562
0.034508463 0.05821638 -0.18185589 -0.061610933 0.15747024 0.067183346 0.078963526 0.006757122
0.02065979 -0.039994393 0.035609286 0.065992944 0.068242356 -0.04520014 -0.14720805 -0.0014595601
-0.12151204 0.16604747 0.01628077 0.10874373 -0.073757924 -0.06724912 -0.08540886 0.03846939
-0.09570998 -0.04983826 0.026888678 0.08631647 -0.0122289 -0.15141934 0.096694715 0.0855792
0.089665435 0.0153783895 -0.12743253 0.17761986 0.039427023 -0.056710258 0.026697302 -0.16533539
0.1442972 0.11383971 0.006801425 0.19658895 0.12812714 0.25248864 0.19096768 -0.04818521
0.0044516274 -0.05865425 -0.37809277 0.12692337 0.14727066 -0.085195154 -0.117411 -0.0773746
0.16943131 0.28905082 -0.0025317548 -0.27353692 0.13849077 0.09379717 -0.14256941 -0.041109797
-0.09008551 -0.083255365 -0.03693918 0.1807719 0.011710274 -0.02463247 0.037316274 -0.1473143
0.0028904192 -0.02307793 0.08383987 -0.0038024364 -0.04377167 0.2579955 0.21416779 0.015237106
0.1910901 -0.13902344 -0.13386334 0.08310471 0.0027344394 0.008026582 -0.04648944 0.03764884
-0.14613642 0.23437324 0.074403696 0.049551453 -0.052987654 -0.20268935 0.10824347 -0.10948756
-0.20653214 -0.043269534 -0.026371477 0.11709183 -0.1746292 0.0031836992 0.025700914 0.012958259
-0.21489702 -0.20729737 -0.04965172 0.11376689 0.06568041 0.13519302 0.027421717 -0.109317474
-0.08318505 0.1100572 0.104745865 0.07429821 -0.02527454 0.115628324 0.13109365 -0.033083756
0.04370674 -0.16693158 0.068596855 -0.13004096 -0.08891383 -0.061678573 -0.18095006 -0.02007434
0.030859206 -0.14127737 0.0154580185 0.055587556 0.036748737 0.2351517 -0.07613064 0.10438059
0.20059407 0.079730354 -0.04927241 -0.02901631 0.05045878 0.047664307 0.1306773 0.22034472
-0.1404219 0.12736665 0.13633044 0.2460767 -0.13074271 -0.1478873 0.0059160017 -0.045004897
0.19299854 -0.061193183 0.18246485 -0.0725342 -0.0060333996 0.30730033 0.003471695 -0.2875908
0.13929445 0.010999129 0.12723143 0.34147406 0.2377086 0.30428073 0.115513384 -0.27851763
0.28105664 0.049303405 0.19721366 0.030010842 -0.07138328 0.06360911 -0.10267795 -0.074979894
-0.23364419 0.09991528 -0.24975789 -0.021761183 0.0859736 -0.07226044 0.02870993 -0.0074153
0.18256709 0.04865781 -0.045698564 0.1381276 0.15688887 -0.12729554 -0.1507412 -0.122370996
-0.22156285 -0.28308895 -0.13187762 -0.22409824 0.05759581 -0.06837016 0.0050951033 -0.17580669
0.14629988 -0.030336114 0.04176394 0.0035983343 -0.10816578 0.124883935 0.14185679 -0.09738936
-0.019709839 0.035382424 0.06275672 -0.12880936 -0.1202503 -0.007008191 -0.026254673 0.027838863
-0.08375965 -0.08432712 -0.0011001682 -0.041175935 0.032916583 -0.20004725 -0.0020368632 -0.043426923
0.06694714 -0.03895828 -0.13862506 -0.09473319 0.0489618 0.07713387 -0.0436441 -0.23588458
-0.005540091 -0.07086493 0.030801084 -0.024949325 0.048595026 -0.10579099 -0.11786081 0.07912508
0.23042688 0.07512971 -0.21473464 -0.10295205 0.1961937 -0.08397847 -0.16178459 -0.069483735
00000000: 8847 183e d0c6 f33d b7f5 613e 35be 093e
00000010: aaa5 433e bef5 27bc 9b10 b63d c472 dfbd
00000020: bf58 0d3d 4d74 6e3d 6e38 3abe bf5b 7cbd
00000030: e13f 213e 6c97 893d a1b7 a13d d96a dd3b
00000040: b83e a93c 29d1 23bd 0bdb 113d 4f27 873d
00000050: a6c2 8b3d c823 39bd b5bd 16be b64e bfba
00000060: 4edb f8bd 5908 2a3e 405f 853c 08b5 de3d
00000070: 650e 97bd e8b9 89bd d7ea aebd 1492 1d3d
00000080: 9803 c4bd 3423 4cbd a545 dc3c b0c6 b03d
00000090: b95b 48bc ac0d 1bbe e107 c63d 2644 af3d
000000a0: 83a2 b73d a4f5 7b3c ac7d 02be fbe1 353e
000000b0: 3b7e 213d 0449 68bd 4db4 da3c ae4d 29be
000000c0: a5c2 133e cb24 e93d 7dde de3b 9d4e 493e
000000d0: c333 033e 3146 813e 088d 433e db5d 45bd
000000e0: f5de 913b 703f 70bd 6095 c1be 33f8 013e
000000f0: 1fce 163e cc7a aebd 2e75 f0bd 9376 9ebd
00000100: 677f 2d3e 78fe 933e cceb 25bb 080d 8cbe
00000110: 86d0 0d3e bb18 c03d b7fd 11be bf62 28bd
00000120: c07e b8bd ca81 aabd 8a4d 17bd 451c 393e
00000130: 73dc 3f3c 09ca c9bc f3d8 183d 8fd9 16be
00000140: 306d 3d3b ed0d bdbc 3db4 ab3d 4c32 79bb
00000150: ec49 33bd fc17 843e cd4e 5b3e 0ea5 793c
00000160: 20ad 433e 295c 0ebe 7913 09be cd32 aa3d
00000170: 4834 333b ed81 033c b66b 3ebd ac35 1a3d
00000180: c9a4 15be 8aff 6f3e f760 983d 77f6 4a3d
00000190: 9509 59bd cc8d 4fbe c1ae dd3d 043b e0bd
000001a0: 297d 53be 653b 31bd ff08 d8bc d7cd ef3d
000001b0: ffd1 32be 9ca5 503b b98a d23c e14e 543c
000001c0: f70d 5cbe c345 54be 9a5f 4bbd 9dfe e83d
000001d0: 7383 863d 0a70 0a3e 82a3 e03c d7e1 dfbd
000001e0: ec5c aabd ab65 e13d 0085 d63d a929 983d
000001f0: 8d0c cfbc 8bce ec3d 6a3d 063e d582 07bd
00000200: d705 333d 1df0 2abe 827c 8c3d 7529 05be
00000210: 7418 b6bd aca2 7cbd f94a 39be f172 a4bc
00000220: 72cc fc3c 04ab 10be a143 7d3c c7af 633d
00000230: d885 163d 9bcb 703e 62ea 9bbd 7ec5 d53d
00000240: 8868 4d3e ab49 a33d ded1 49bd 9db3 edbc
00000250: dead 4e3d a63b 433d 45d0 053e 0ca2 613e
00000260: c2ca 0fbe 676c 023e 359a 0b3e 88fb 7b3e
00000270: 6be1 05be c56f 17be 05db c13b 0e57 38bd
00000280: 69a1 453e b4a5 7abd 11d8 3a3e d08c 94bd
00000290: d3b3 c5bb 7856 9d3e 6085 633b 1a3f 93be
000002a0: 34a3 0e3e b135 343c f548 023e b0d5 ae3e
000002b0: e269 733e afca 9b3e 4892 ec3d dd99 8ebe
000002c0: a8e6 8f3e 5ef2 493d 61f2 493e 4cd9 f53c
000002d0: 6631 92bd 7e45 823d d148 d2bd 0f8f 99bd
000002e0: 6c40 6fbe 62a0 cc3d 88c0 7fbe 8244 b2bc
000002f0: ed12 b03d 48fd 93bd 1631 eb3c 0bfc f2bb
00000300: def2 3a3e 694d 473d 6b2e 3bbd 5271 0d3e
00000310: 7aa7 203e c359 02be e75b 1abe a59d fabd
00000320: 5fe1 62be 09f1 90be ed0a 07be 027a 65be
00000330: 96e9 6b3d a805 8cbd d3f4 a63b ab06 34be
00000340: a3cf 153e 7183 f8bc aa10 2b3d 08d2 6b3b
00000350: 0586 ddbd 26c3 ff3d e842 113e 1374 c7bd
00000360: 8776 a1bc 29ed 103d 9886 803d 9ae6 03be
00000370: ca45 f6bd f8a4 e5bb 0a14 d7bc 540e e43c
00000380: 2e8a abbd b2b3 acbd 8533 90ba 19a8 28bd
00000390: 8ad3 063d 30d9 4cbe e57c 05bb 6ee0 31bd
000003a0: 951b 893d b892 1fbd baf3 0dbe 7a03 c2bd
000003b0: 2b8c 483d 5df8 9d3d 28c4 32bd ba8b 71be
000003c0: a789 b5bb a221 91bd 8e52 fc3c 8762 ccbc
000003d0: 940b 473d f2a8 d8bd 0261 f1bd 540c a23d
000003e0: 06f5 6b3e 9bdd 993d 66e3 5bbe 86d8 d2bd
000003f0: 00e7 483e e7fc abbd dcaa 25be 7d4d 8ebd

bias f4 [64]
-0.10816126 -0.15903075 -0.12711364 0.0064896587 -0.08068765 -0.025762135 -0.03282316 -0.08151927
-0.105267175 0.114691 0.095187545 -0.014733499 -0.1534495 -0.044316124 -0.1158778 0.08179863
0.009171811 -0.004577209 0.004482838 0.009595195 -0.025953803 0.093737334 -0.06511517 0.17186193
0.24398522 0.11026171 0.14254616 0.07624107 0.17886452 -0.046993133 -0.12408788 -0.0078348145
0.0093149375 0.1032741 -0.0002260491 -0.0112965265 0.11492692 0.08559437 -0.10783197 -0.051712148
0.039848104 0.07509405 -0.04237291 -0.01208355 -0.15351617 -0.08207611 -0.050335523 -0.039880317
-0.057632886 -0.09329022 -0.08948524 -0.04165223 -0.023355942 -0.049067136 -0.06489247 0.046123292
-0.16238004 0.21432145 0.13140272 -0.007955378 0.02594823 0.029237753 0.05606919 0.08504534
00000000: a783 ddbd f5d8 22be 142a 02be 34a7 d43b
00000010: 913f a5bd 1d0b d3bc 9471 06bd 93f3 a6bd
00000020: 5196 d7bd 1de3 ea3d b0f1 c23d c664 71bc
00000030: de21 1dbe d384 35bd 5751 edbd 0a86 a73d
00000040: 5d45 163c 69fc 95bb c5e4 923b 2a35 1d3c
00000050: 129d d4bc 5cf9 bf3d 1a5b 85bd 93fc 2f3e
00000060: 43d7 793e e4d0 e13d 9ff7 113e 4724 9c3d
00000070: 4328 373e df7b 40bd c921 febd 985d 00bc
00000080: ae9d 183c 5f81 d33d 9807 6db9 1115 39bc
00000090: ce5e eb3d 1a4c af3d 02d7 dcbd 1ed0 53bd
000000a0: c437 233d e9ca 993d 378f 2dbd 15fa 45bc
000000b0: 5833 1dbe 8517 a8bd 9f2c 4ebd 8b59 23bd
000000c0: 7610 6cbd f10e bfbd 0a44 b7bd 879b 2abd
000000d0: f654 bfbc 9ffa 48bd 58e6 84bd c7eb 3c3d
000000e0: f446 26be 1577 5b3e 6f8e 063e 4657 02bc
000000f0: 6291 d43c 0384 ef3c cfa8 653d 402c ae3d

weight f4 [150, 22]
-0.13995618 0.44733682 0.12805657 0.09231758 -0.124395385 -0.13801311 -0.12512651 -0.049679276
0.07063278 0.07478034 -0.034250304 0.27274558 -0.115381464 0.16271484 0.3330505 0.22164601
-0.22221975 -0.08670777 -0.06120143 0.13120168 -0.12522078 -0.04444133 0.014757452 0.121801555
-0.0034252363 0.22360408 0.012401899 0.019582585 -0.011729929 0.013372302 0.024782281 0.0021284309
-0.07023215 0.029716294 -0.034851965 0.21467517 0.05093845 -0.07558534 0.06582733 -0.18766618
0.039546512 -0.04769737 0.044258907 -0.05754615 -0.07783705 -0.04711682 0.08108316 0.046806782
0.019645154 0.03955143 -0.077402085 0.05531868 0.06593174 -0.05443311 0.086376265 0.08326025
0.045355685 -0.021290533 0.10500224 0.061819714 0.054984376 0.07711305 0.091270804 0.0642383
-0.049672257 -0.034395747 0.05013907 0.048800655 -0.005592398 0.024389004 -0.00037207254 -0.025803508
-0.006737138 0.043536127 0.09063193 5.424909e-05 0.08768916 0.12076989 -0.0036732382 -0.017638158
0.19590795 0.049809247 -0.015164445 -0.08356975 -0.1063722 -0.106621884 0.032381166 0.03813331
0.02132012 -0.08390317 -0.077949315 0.18770663 0.093387835 -0.043311715 0.14780748 -0.1606708
0.011430658 0.0067198058 -0.006745242 -0.08195124 -0.053933598 -0.0922486 -0.18423246 0.039362054
0.09154694 0.04320978 0.03202283 0.043396115 0.03374025 -0.010318068 0.34708214 -0.35224476
-0.16917148 0.03748765 -0.010369847 0.0733104 0.023683121 -0.07491918 -0.042006403 -0.0102156475
0.04565341 -0.020732943 0.12312537 -0.106291026 -0.060066488 -0.0072060977 -0.0075762705 -0.088606
-0.091268644 -0.015484319 -0.027044032 -0.010095904 -0.08252423 -0.2686643 0.08664272 0.14065492
-0.027382508 -0.035099905 0.03255562 0.20982611 -0.11126556 0.014637564 -0.12046404 -0.08510363
-0.062109426 -0.14542659 -0.2531982 -0.066987135 -0.14920527 0.32681713 -0.0743024 0.08866671
-0.00029563915 -0.013369254 -0.003959904 -0.059339233 0.023845378 -0.024302028 0.1396189 -0.10502881
0.039024856 0.18631113 -0.07348757 -0.048884656 0.027271885 -0.06496237 -0.06766417 0.028759038
0.08196784 0.029647572 0.023698274 0.068650216 -0.010042048 0.040462084 -0.02932578 0.031165836
0.14015253 0.08906755 -0.2434597 -0.041834917 -0.037885647 0.095329605 -0.12625712 -0.058684397
0.093344696 -0.063373536 -0.072289646 -0.07187142 0.010054687 0.10965446 -0.61072975 0.004199447
0.1799055 -0.04207096 0.05264512 -0.4834708 0.14126295 0.0013712847 -0.0057429797 -0.08950553
-0.09948087 0.011547959 0.042307887 -0.050568487 0.10493269 -0.021751383 -0.13539504 0.027940767
-0.029569026 -0.10106657 -0.10265569 -0.020215262 -0.20647794 0.039730016 -0.06175552 0.06611303
-0.047483608 0.06542713 -0.0329829 0.082755655 -0.119740516 -0.055600412 -0.04124547 -0.016663123
-0.07089505 -0.07902208 0.039292067 -0.033017863 -0.0669421 0.07863721 0.077843264 -0.24608114
-0.09241637 -0.05613853 -0.34377947 0.1382354 0.12078867 0.20915264 0.06508895 0.099428885
-0.060933657 0.014062032 -0.07720999 0.055761486 -0.3444619 0.0030466525 -0.019112777 0.037644118
0.086900376 -0.037899457 0.013254525 0.055647653 -0.073060215 -0.26401252 -0.11996596 0.14893518
00000000: ac50 0fbe 5509 e53e 4321 033e 0011 bd3d
00000010: 02c3 febd 4f53 0dbe 2a21 00be 7f7c 4bbd
00000020: eba7 903d 6f26 993d 0c4a 0cbd 4fa5 8b3e
00000030: 1e4d ecbd b89e 263e 9885 aa3e 2cf7 623e
00000040: 938d 63be d893 b1bd 5aae 7abd bc59 063e
00000050: e039 00be 1d08 36bd 3dc9 713c 1873 f93d
00000060: ee79 60bb 78f8 643e 5631 4b3c a86b a03c
00000070: e32e 40bc 8017 5b3c 3604 cb3c 257d 0b3b
00000080: e0d5 8fbd 966f f33c efc0 0ebd cfd3 5b3e
00000090: d6a4 503d 7dcc 9abd 7bd0 863d 902b 40be
000000a0: 86fb 213d 515e 43bd d448 353d 83b5 6bbd
000000b0: 0869 9fbd 91fd 40bd ee0e a63d 78b8 3f3d
000000c0: e0ee a03c ae00 223d fc84 9ebd d795 623d
000000d0: 3807 873d 41f5 5ebd 0ae6 b03d 5a84 aa3d
000000e0: e2c6 393d 7c69 aebc 6a0b d73d ab36 7d3d
000000f0: 4c37 613d 72ed 9d3d 30ec ba3d 5f8f 833d
00000100: 2375 4bbd 8ee2 0cbd a05e 4d3d 32e3 473d
00000110: 6f40 b7bb 73cb c73c bb12 c3b9 e161 d3bc
00000120: 36c3 dcbb f052 323d 3c9d b93d 8489 6338
00000130: 6096 b33d 3456 f73d b6ba 70bb e67d 90bc
00000140: 189c 483e c804 4c3d 4b74 78bc 9e26 abbd
00000150: abd9 d9bd 935c dabd 1da2 043d ac31 1c3d
00000160: 88a7 ae3c 6dd5 abbd e4a3 9fbd 2b36 403e
00000170: 1f42 bf3d a067 31bd d85a 173e e386 24be
00000180: a847 3b3c d131 dc3b 3107 ddbb 0dd6 a7bd
00000190: 7ae9 5cbd d6ec bcbd 6fa7 3cbe 1b3a 213d
000001a0: f67c bb3d bdfc 303d 5f2a 033d 20c0 313d
000001b0: 3733 0a3d 1d0d 29bc c0b4 b13e 6d59 b4be
000001c0: 4a3b 2dbe a68c 193d 4ae6 29bc c323 963d
000001d0: 1b03 c23c 3a6f 99bd e80e 2cbd 885f 27bc
000001e0: 12ff 3a3d 22d8 a9bc 2729 fc3d 1caf d9bd
000001f0: 4708 76bd 2121 ecbb 5d42 f8bb 1077 b5bd
00000200: 0eeb babd f1b1 7dbc 728b ddbc 4a69 25bc
00000210: 7702 a9bd 5e8e 89be bd71 b13d d807 103e
00000220: 4851 e0bc ebc4 0fbd 0b59 053d a8dc 563e
00000230: 33df e3bd 65d2 6f3c dab5 f6bd d04a aebd
00000240: 7466 7ebd b5ea 14be 32a3 81be 8d30 89bd
00000250: 44c9 18be 9354 a73e db2b 98bd e496 b53d
00000260: 0400 9bb9 b70a 5bbc 15c2 81bb b20d 73bd
00000270: 6257 c33c 0c15 c7bc 42f8 0e3e 5819 d7bd
00000280: 87d8 1f3d 58c8 3e3e a780 96bd 473b 48bd
00000290: 4a69 df3c fe0a 85bd 8393 8abd 1398 eb3c
000002a0: c1de a73d 77df f23c e222 c23c 7c98 8c3d
000002b0: 6787 24bc 92bb 253d 9e3c f0bc 7f4f ff3c
000002c0: 2584 0f3e 0c69 b63d 804d 79be 175b 2bbd
000002d0: fb2d 1bbd 2b3c c33d 8c49 01be 0d5f 70bd
000002e0: 812b bf3d fcc9 81bd 980c 94bd 5331 93bd
000002f0: 6abc 243c 8492 e03d c958 1cbf 849b 893b
00000300: 2639 383e 9952 2cbd 69a2 573d 7c89 f7be
00000310: 3ca7 103e aebc b33a 9b2f bcbb ad4e b7bd
00000320: a0bc cbbd a733 3d3c 094b 2d3d e720 4fbd
00000330: f3e6 d63d f52f b2bc ffa4 0abe 09e4 e43c
00000340: be3a f2bc fdfb cebd 253d d2bd 7a9a a5bc
00000350: f46e 53be f1bb 223d 5bf3 7cbd 4566 873d
00000360: 2c7e 42bd a9fe 853d 1419 07bd cc7b a93d
00000370: 843a f5bd 42bd 63bd 03f1 28bd 1a81 88bc
00000380: 6d31 91bd 54d6 a1bd b8f0 203d bd3d 07bd
00000390: f118 89bd 8c0c a13d 4a6c 9f3d b2fc 7bbe
000003a0: cb44 bdbd 84f1 65bd dd03 b0be 958d 0d3e
000003b0: 0d60 f73d 1c2c 563e 5b4d 853d 5fa1 cb3d
000003c0: 9295 79bd 7064 663c 4520 9ebd 2866 643d
000003d0: 4f5d b0be 59aa 473b 6692 9cbc b830 1a3d
000003e0: d3f8 b13d 763c 1bbd 8229 593c cbee 633d
000003f0: 98a0 95bd a62c 87be b7b0 f5bd 7782 183e

bias f4 [150]
0.5323222 0.28268078 -0.059546076 0.05173052 -0.018964672 -0.30274248 -0.33046103 0.008480961
-0.58896536 0.086362615 -0.17394641 -0.2226933 0.0044131693 0.07970306 -0.024698745 -0.5583546
-0.1248205 -0.8332135 0.0018298278 -0.15461457 0.18996438 -0.17786665 0.06317266 0.47916588
-0.09159266 0.29424107 -0.069934726 -0.39444742 0.4464441 0.1891972 0.3772206 -0.41021213
0.6450206 -0.1280894 -0.07623471 0.75509495 -0.40104276 -0.4663132 0.13002647 0.12202706
-0.439542 -0.15141316 -0.27620533 -0.4287541 -0.15763488 -0.15236421 -0.22069119 -0.16864252
0.11619071 0.5108606 -0.023261959 0.34606075 -0.1457096 0.1741 -0.23655012 -0.25817612
-0.17155077 -0.13075915 0.14870371 0.23357439 0.44759738 -0.21267514 -0.11282888 -0.21425535
0.40949818 0.46989006 -0.18850492 0.009973851 -0.04511057 -0.085221015 0.14754511 -0.3494849
-0.27355444 -0.18186884 0.14343783 0.2435057 -0.34407926 0.09791919 0.40441582 -0.14082047
0.080140695 -0.20129976 -0.02494363 -0.21780744 -0.047228266 0.26123402 -0.57963884 -0.32293603
0.24245617 -0.024833636 0.096418254 0.008469975 -0.57936245 -0.17564511 -0.35270482 -0.20480318
0.26138002 -0.08710769 -0.072524145 -0.24366806 0.085514225 0.12027337 -0.5736894 -0.0811343
-0.26273942 0.43120378 -0.24198243 0.06189927 -0.40682113 0.31181908 0.4117515 -0.29107082
0.04886279 -0.24232024 -0.08785699 -0.11237155 -0.5871243 0.344442 0.5759959 0.040364455
-0.05008063 -0.6356447 0.08073207 0.31174058 -0.20430595 -0.06580961 0.112183645 0.02799299
0.35001218 0.44000491 0.2735385 0.3866288 -0.17061281 -0.0114056915 -0.44428515 0.10891993
0.47436044 0.07400782 -0.015188768 -0.2373379 0.33906558 -0.3230399 -0.29025018 0.4293403
0.19507182 -0.16846621 -0.14991654 -0.2575798 -0.006303207 0.45327488
00000000: 4546 083f 89bb 903e 96e6 73bd 62e3 533d
00000010: cd5b 9bbc 1001 9bbe 3032 a9be bbf3 0a3c
00000020: 6fc6 16bf e2de b03d 021f 32be b609 64be
00000030: 599c 903b 5c3b a33d 0655 cabc 54f0 0ebf
00000040: e4a1 ffbd 7b4d 55bf d5d6 ef3a 4853 1ebe
00000050: 0686 423e ad22 36be ab60 813d 3b55 f53e
00000060: ef94 bbbd c4a6 963e f039 8fbd 03f5 c9be
00000070: 5294 e43e e9bc 413e 0f23 c13e 5307 d2be
00000080: 1220 253f de29 03be f220 9cbd e74d 413f
00000090: 7a55 cdbe 9bc0 eebe a925 053e 53e9 f93d
000000a0: a60b e1be 0d0c 1bbe c96a 8dbe a885 dbbe
000000b0: 0a6b 21be 5d05 1cbe dffc 61be a0b0 2cbe
000000c0: 65f5 ed3d c3c7 023f dd8f bebc e02e b13e
000000d0: e634 15be 4547 323e 323a 72be a92f 84be
000000e0: 01ab 2fbe bae5 05be c945 183e 202e 6f3e
000000f0: 7c2b e53e 83c7 59be d412 e7bd c165 5bbe
00000100: bfa9 d13e 6e95 f03e 6f07 41be 5d69 233c
00000110: dcc5 38bd 5b88 aebd 1116 173e afef b2be
00000120: 540f 8cbe d33b 3abe 5ee1 123e 8f59 793e
00000130: 282b b0be db89 c83d 970f cf3e 3e33 10be
00000140: ce20 a43d 8621 4ebe 9556 ccbc ea08 5fbe
00000150: 6d72 41bd 77c0 853e 3663 14bf df57 a5be
00000160: 6e46 783e e96f cbbc ef76 c53d a6c5 0a3c
00000170: 1951 14bf 50dc 33be ba95 b4be edb7 51be
00000180: 9ad3 853e 8465 b2bd 8a87 94bd 1f84 79be
00000190: 1522 af3d e251 f63d 4fdd 12bf bd29 a6bd
000001a0: c885 86be bec6 dc3e 3eca 77be 178a 7d3d
000001b0: dc4a d0be c0a6 9f3e 18d1 d23e 3c07 95be
000001c0: 5924 483d cc22 78be 5eee b3bd 0e23 e6bd
000001d0: c74d 16bf b45a b03e 7874 133f 3355 253d
000001e0: 5921 4dbd 9cb9 22bf db56 a53d 769c 9f3e
000001f0: 9435 51be 30c7 86bd 8ac0 e53d 8e51 e53c
00000200: cc34 b33e 5348 e13e 3d0d 8c3e 36f4 c53e
00000210: 20b5 2ebe f0de 3abc 5879 e3be 6a11 df3d
00000220: 5fdf f23e 6991 973d 4fda 78bc b508 73be
00000230: 019a ad3e 7c65 a5be ac9b 94be 7ed2 db3e
00000240: e8c0 473e 6882 2cbe b983 19be 80e1 83be
00000250: 228b cebb a513 e83e
