examples/rl/experiments_from_paper/experiments_data/trained_models/TiltrotorPlus8DofHoverEnv/DevelopmentalTiltrotorPlus8DofHoverEnv-4/ppo/TiltrotorPlus8DofHoverEnv-v0.pt (torch, 279745 bytes, 16 tensors)

weight f4 [150, 18]
00000000: a6b9 febd 5854 0ebe b3c2 033f d1fc b03d
00000010: 61a3 423d 2b51 dcbc 8861 a93b f262 d63d
00000020: 9ff3 153e 66f3 67be 4cd1 02be 6587 cbbd
00000030: 2556 34bb 6e23 633e be5f 1a3e 3fcc 1abd
00000040: 581f 1ebc db5b 92be 4389 37bd 0ed3 f3bd
00000050: d64d 0bbe 9ee8 79bd 288d 543d 827b 80bd
00000060: 85b8 97bd a50f 2f3e bf7b 89be 6511 1d3d
00000070: 6856 7c3e 1250 f0bd 99da 22be 01b4 15be
00000080: b6ac 8f3d f669 143e 166a cb3c a5d2 57be
00000090: b111 043f 170e ad3f 590b 0cbf 3d4d 35be
000000a0: 8f44 9ebc 6b5a d13d b785 09be af2e d03e
000000b0: 4333 23be f2b0 0c3e 404a c73b 9811 1f3e
000000c0: 0c1d 753d 4329 06bc 012f c2bd 104f 28be
000000d0: c99f 20be 79a4 adbd b282 1fbe 1396 213e
000000e0: e23f 623e 674d ac3c 8639 e73c 37f5 e23d
000000f0: ee1b c6bd 4b0c 423e 4d61 f23d 628c 1a3d
00000100: 5af1 8abd 52b2 0cbe b49e 693e 4336 863e
00000110: 80eb ef3e da95 5dbd 9b23 73be 363e 91bd
00000120: 48bb cfbe df94 f1bd df89 143e d9ea bebd
00000130: 8493 49bd a831 9e3d 0e16 1bbe e13d 83be
00000140: ffe6 abbc 0f65 823b 77d3 0dbe c71d 5bbe
00000150: 7edd d6be f956 fd3d 89d3 bf3d 3557 903e
00000160: fc04 81be 915a a33c 2d54 533f 3b92 a8be
00000170: 118f ce3e ffcf 01be 28b3 233e 0724 4d3d
00000180: 84cb 793e 8295 173d 40e3 913d f5ad d13d
00000190: d491 263e fc8e 1ebd eeb1 fb3d 025f 913e
000001a0: 02a4 153d 3bae 4f3e 7c93 273c 295d 513e
000001b0: 07ab 96bd 4540 363d 4f33 3b3d af8b cf3d
000001c0: 00b2 313e 61b4 73bd 84b6 873c 5d9f 02be
000001d0: 81d5 59be 26d4 893d 5ec9 d83d be2c b439
000001e0: e609 6fbe 6067 d0bd 1b1e c6bd f1ee b43e
000001f0: 8142 13be c6b5 d2bc 0d95 47be 72fe cebc
00000200: 7906 1a3e 1258 cebc 8e55 843d a391 fabd
00000210: 7499 103d 19ad 0dbd 88eb 0f3e 03c6 f33d
00000220: dd8b 7dbe 69cf 683d bdd7 20be 4b8d 2ebe
00000230: 4019 bcbc dbef 62be c38a 76be a767 64bd
00000240: 7c4d c2be 59e4 ecbe aec9 bcbe 7886 c93c
00000250: dedd 64bc 7b15 13be d1ba 04bd 2aa4 713c
00000260: 25d7 58bc fdb1 c73e d9b1 5e3d ae5a 2c3d
00000270: 9406 71be 73ec 65be fd8a 0d3e 0b10 cfba
00000280: 66f4 a3bd 2400 cdbd eb39 8cbd f044 83be
00000290: 9300 ad3c 4db9 48bd 9498 0a3e 71d1 b23e
000002a0: 56cc cfbd c9b4 a23d f760 54bd ca95 bfbc
000002b0: f46c 84be 1178 903d 0663 113e 8644 7cbe
000002c0: 7530 f6bd a446 91bd 7b77 853e 5579 babe
000002d0: fce2 1abe 532d fc3d 9208 ee3c 1215 b6bd
000002e0: 5d93 333d d623 1dbe 34be 93bd 5921 1a3c
000002f0: 4f11 993b 3370 c53e 01d7 cabd d459 81be
00000300: 7e0a bcbe 8eda 13bd acb8 e63d 5d51 f03c
00000310: 2e4d d9bc 6c63 1f3d 8ee5 4e3b 37dd f8bd
00000320: 27d9 d7bc 1562 753d 34fb 0cbe 01b5 30bd
00000330: f681 0c3e 230b 3ebe 03c8 60be 5e48 c33d
00000340: 46c7 963e 4b06 f13d 6ac7 b93d 5b34 8e3e
00000350: a612 92bd 5fdc 843e 71fa 4dbe 75d1 873d
00000360: fe71 bebd 32e5 13be 8cef a5bd 708e d73d
00000370: 1f12 853c 1857 f0bd 50a7 1c3e 430d f13d
00000380: 5ae8 21bd 4d9a a53d 50d6 dfbd 3392 8b3c
00000390: 11f8 803d 3320 35bc ad1d 09be 0d60 c8be
000003a0: c6dd 4dbe 1c43 de3d 5c75 0e3f 64dc c5be
000003b0: 6334 e8bd 9ebe 27be 1e09 d4bd b371 71be
000003c0: 545a dd3c 06e0 4cbe 0a46 fe3d fdaf c43d
000003d0: a91d bfbd 63f0 d23c eaa1 31be 2a4e 12be
000003e0: d873 2b3e 1f41 4e3e c2b0 473e 2d59 2e3e
000003f0: 8769 5cbe a83c 1d3e 34eb 75be 0804 e0bd
-0.124377534 -0.13899362 0.5146896 0.08641971 0.04751909 -0.026894173 0.0051690973 0.10468091
0.14643715 -0.22651443 -0.12775153 -0.09937934 -0.0027517166 0.22181484 0.15075585 -0.03779244
-0.009651028 -0.28585705 -0.044808637 -0.1190549 -0.13603911 -0.061012857 0.05189243 -0.06273557
-0.07408241 0.17095812 -0.26852223 0.038346667 0.24642336 -0.11734022 -0.15903701 -0.14619447
0.07015364 0.14493546 0.02483086 -0.21076448 0.51589495 1.3519925 -0.54704815 -0.17705245
-0.0193198 0.10222324 -0.13429914 0.40660617 -0.15937524 0.13739374 0.0060818493 0.15534055
0.059842154 -0.0081885485 -0.094816215 -0.1643641 -0.15685953 -0.08478636 -0.155772 0.15779905
0.22094682 0.021033002 0.028225671 0.11081927 -0.09673296 0.18950002 0.11834965 0.037731536
-0.067843154 -0.13739899 0.22814447 0.26213273 0.4685936 -0.054097988 -0.23744051 -0.07091944
-0.40572572 -0.11795973 0.14505719 -0.093221374 -0.049212947 0.07724315 -0.15145132 -0.25633147
-0.020984171 0.0039793323 -0.13850199 -0.21398078 -0.4196586 0.12370104 0.09366519 0.28191534
-0.25199115 0.019940646 0.8255032 -0.32924065 0.40343526 -0.12677 0.15986311 0.050083186
0.24394041 0.037007816 0.071234226 0.10238258 0.16266567 -0.03871058 0.12289797 0.28392798
0.036533363 0.20281307 0.010228034 0.20445694 -0.073568396 0.044494886 0.04570323 0.101340644
0.17353058 -0.059498195 0.016566522 -0.12756105 -0.21272852 0.06729917 0.10585283 0.0003436561
-0.2334362 -0.10175967 -0.09673711 0.35338548 -0.14380838 -0.025721442 -0.19490452 -0.025267813
0.15041532 -0.02518848 0.06461631 -0.12234809 0.035302594 -0.034588907 0.14054692 0.11903002
-0.24760385 0.056838427 -0.15707298 -0.17046086 -0.022961259 -0.2216181 -0.24076371 -0.055762913
-0.3794974 -0.46267965 -0.3687262 0.024600253 -0.013968913 -0.14363663 -0.032404725 0.014748612
-0.013234888 0.39002982 0.054368827 0.042078666 -0.23537666 -0.2245348 0.13822551 -0.0015797628
-0.080056 -0.100097924 -0.068469845 -0.25638533 0.021118438 -0.04900484 0.13534766 0.34925416
-0.10146396 0.07944638 -0.051850285 -0.023386855 -0.25864375 0.07054151 0.1419793 -0.24635515
-0.12020961 -0.07093552 0.2606772 -0.36420694 -0.1512565 0.123133324 0.029056821 -0.088907376
0.04384171 -0.15345702 -0.07214013 0.009407365 0.004671253 0.38562164 -0.0990429 -0.25263846
-0.36726755 -0.036097102 0.11265692 0.029335672 -0.02652606 0.038913175 0.003156993 -0.121515684
-0.026348663 0.05990799 -0.13767701 -0.04314137 0.13721451 -0.18558936 -0.21951298 0.09535287
0.2944891 0.117687784 0.09071238 0.2777432 -0.07132463 0.2594938 -0.20115067 0.06631748
-0.09299086 -0.144429 -0.081023306 0.10525215 0.016243992 -0.11735362 0.152982 0.117701076
-0.03952823 0.08086071 -0.10929549 0.017037487 0.06297315 -0.01105504 -0.13390227 -0.3913578
-0.20104131 0.10852644 0.55647826 -0.38644707 -0.11338117 -0.16381308 -0.103533015 -0.23578529
0.02702061 -0.20007333 0.12415703 0.096038796 -0.09331829 0.025749391 -0.17346922 -0.1428763
0.1674341 0.20142029 0.19501022 0.17026205 -0.2152463 0.1535517 -0.24015504 -0.10938269

bias f4 [150]
00000000: 7bd1 28be 560e 883e ff10 7e3d 7f60 98bd
00000010: 6aa3 8abd 5300 e9bd bce1 c83c bec6 46be
00000020: 0976 573e 67ba 283e d371 66be 234c d0bd
00000030: 833b a93d 1c2c b13d 6c77 093e 7f55 41be
00000040: 64e5 39be 59de 1fbd ab02 5dbc 1449 153e
00000050: b16b c13d 05a8 903d 5d1f 503f 3c99 a93d
00000060: 14d4 3dbe 707c 013f 63ce ddbd 14cd 37be
00000070: ae0b 233d 556f 863e 22f4 f83d 4d42 743e
00000080: 72e1 c53e 903b d33c d684 363e 94f0 833e
00000090: 7c66 dabe e382 c5bd 7cb2 773d 3675 6a3e
000000a0: 4fdf ecbc 0370 963d 1588 523d 517f 51be
000000b0: 59e9 11be 8f6a 4bbd 585d 8d3e 4578 b1bc
000000c0: a95b f33d 42d4 f8bd 8202 8cbd 7e66 b33d
000000d0: 8756 0f3d fa87 46be dfac 953e eec5 efbb
000000e0: c7c6 c33e 6469 c4bd 2cd2 11be 2a07 40be
000000f0: fac8 4f3e ee00 abbd 6616 783e 708e 173e
00000100: 5fb9 62bd 3e79 b6bd accd d33d 7c97 923d
00000110: cf9d aabd b667 a73a 2c28 dabd 04bc e13d
00000120: 0637 153d cb32 31be 7cf5 463e e179 b53d
00000130: 4bba 5dbc f0ea 043e 3e7f 413b 44e0 fc3b
00000140: 8aa2 b9be 47a4 3f3d 3ac1 80be 7c79 643d
00000150: bdd6 82bd ce09 ddbd e49c 8b3d ba4d 2c3e
00000160: ae38 24be f9cc 56be 021e 9dbd 77ad 1d3e
00000170: ad09 2abe 447c 57bd 44cc f5bc 251d fb3d
00000180: 316d ec3e d817 c9bd 5177 7e3d 5166 52be
00000190: 298b 923c 15fb 6e3e 3f47 f3bc 0f37 8bbc
000001a0: b28f 68bd cd1b 683d 6990 243e 85fe 373e
000001b0: ffff 73bd 8a61 883d c8b9 ab3d c4ab 1b3f
000001c0: c82b acbd 60eb a6be 859a a7bd 614b 053e
000001d0: cae1 203d 1583 abbd 5583 803c 92e9 aebd
000001e0: 72b6 963d b020 ea3e bfeb 013e 0e7b 33bd
000001f0: 250e b7bc 3a00 823e bebf b03c 1fda f83c
00000200: 07da 43bf 67f6 5abe 07cb c63c f969 4d3e
00000210: 9fce 71bd f2db 323e 6c93 8f3e 77f8 36bd
00000220: ae7b 683e 3df9 08be 6ae9 a23c a678 383e
00000230: 86b5 4fbd 46f8 62bd a951 77bd 306c 28bf
00000240: ca9d 36bd 81a5 003e f8a8 353d bf48 043d
00000250: c79c 683d d90c 6b3d
-0.1648616 0.26573437 0.062027927 -0.0744028 -0.0676945 -0.11377015 0.024521701 -0.19411752
0.2104112 0.16477357 -0.22504358 -0.10170772 0.08263304 0.08650991 0.13424462 -0.1888027
-0.18153912 -0.039030407 -0.013489406 0.14578658 0.09444369 0.07063297 0.81297857 0.0828118
-0.18537933 0.505805 -0.10830381 -0.17949325 0.03980606 0.26256815 0.1215594 0.23853417
0.38648564 0.025785238 0.1782411 0.25769484 -0.42656314 -0.09644105 0.06047295 0.22896275
-0.028915076 0.07345583 0.05139931 -0.20458724 -0.14249171 -0.04966217 0.27610278 -0.021663794
0.11882717 -0.1214986 -0.06836416 0.08759783 0.03499463 -0.19387808 0.29233453 -0.007317296
0.38237593 -0.09590414 -0.1424033 -0.18752733 0.2029151 -0.08349787 0.24227294 0.1480043
-0.055352565 -0.08909844 0.10341963 0.071577996 -0.08330881 0.0012771997 -0.106521934 0.11022189
0.036429428 -0.17304532 0.19429582 0.08861137 -0.013533185 0.12980247 0.0029525305 0.0077171642
-0.3625682 0.046787526 -0.2514742 0.05577992 -0.06388614 -0.10792886 0.06817034 0.16826525
-0.16037247 -0.20976628 -0.07671739 0.15398203 -0.16605254 -0.052608743 -0.030004628 0.12261418
0.46177056 -0.09819001 0.062125508 -0.20546843 0.017888622 0.23337968 -0.029697059 -0.016994027
-0.056777664 0.056667138 0.16070713 0.17968185 -0.05957031 0.06659229 0.08385044 0.6080897
-0.08406788 -0.32601452 -0.08183769 0.13017036 0.03927783 -0.08374611 0.015687624 -0.08540644
0.073590174 0.45728064 0.12687586 -0.043818526 -0.022345612 0.25390798 0.021575805 0.030377446
-0.7650456 -0.21383058 0.024266733 0.20059957 -0.05903494 0.17466715 0.2804216 -0.04467055
0.2270343 -0.13376327 0.019886691 0.18014774 -0.050710224 -0.055412553 -0.06038061 -0.6579008
-0.044584073 0.12563135 0.044350594 0.03229594 0.05679014 0.0573853

weight f4 [150, 150]
00000000: 4c7a 4c3e 1b87 463e e24a f6bb f49d 29be
00000010: 4dae c6bb 8f01 e13d 2ccc ad3e b83e 39be
00000020: f50c 51be 2fd2 5c3e f6fc 223d d22c 7a3d
00000030: c936 0bbf a52f 2dbd 52b5 bc3d 3e97 033e
00000040: 8e52 66bd 2063 c4be 30f7 f43d ec33 25be
00000050: 3b9e f4bd 4a50 c1bc d017 643b 318a 033e
00000060: d371 c0be 1d29 233c a731 a9be 3ac9 c93c
00000070: 5f4b 4cbe ce96 453e 7bc1 37bd c9a5 32bd
00000080: da5c 14bd b545 fb3d b786 47be 479b 3bbd
00000090: 83f7 da3c a74e 7a3d a0a0 743e 569c 4fbe
000000a0: c909 893c 83a2 0ebc a70d 693d 8dd5 2fbd
000000b0: 7fdc 06bb 8da9 63bd 7bbb a1bd 0261 a0bd
000000c0: 9728 5d3e da23 db3d 4b96 0e3e ec43 0fbe
000000d0: a44a 52be bdbd 7e3e 6583 983c 584f ddbd
000000e0: fa72 fc3d 4831 eebd 53cd 213e cea8 46be
000000f0: 3a15 afbd 2c06 bbbe 666b babd a49e e8be
00000100: 094b 2cbe da8e 5f3c 2ff9 37bd d447 e1bd
00000110: 92d5 a63d 61ac 2fbe 216d 36be 6b5b 133c
00000120: e4d4 88be 021d 11be cb5d 0ebd 5a6d 093e
00000130: 7c62 abbd 54ff 68bc 3cd2 a3be 68f2 083d
00000140: 9c41 163e 7c19 67be 4d17 603e a827 173e
00000150: bc93 77be 4afe 37be b6e5 013e 9ac8 62bd
00000160: 9b0b 303e cb1b 8abd 5ac7 d2bd a174 293e
00000170: fc9b 253e 5283 9b3d 079e 8ebd b224 57be
00000180: 5700 34be b835 613e d396 50bb 4e8d 583e
00000190: 09f8 533e a1d4 e7bd 8fac 93be 15be 413e
000001a0: 4252 d73e 2400 c7bd e2ed 37bd bc62 583e
000001b0: 1e31 8cbe 8943 053e 8e2c 23be b24f 943c
000001c0: 7ae2 4e3e 99ff 403e 6aa3 7a3e 1c03 1abe
000001d0: 8313 adbe e310 053d c7d3 b8bd 3b83 af3d
000001e0: 1194 1ebe ee58 d53d ca37 44be e719 4a3e
000001f0: ad1b ba3e c09d a03d d4c5 153d b463 77bc
00000200: 7436 7e3e 5d95 453e 3ed1 3bbe 4a37 efbd
00000210: 14e3 84bc 863c 84be feb5 c5bd 7a2b 5d3e
00000220: e4fd e2bd d1d2 49bd c246 62bd f5cb 883e
00000230: 5099 703c 85f7 84be 9c64 03be b65d ac3d
00000240: 6120 2cbe b594 803e 023a 1dbd 5590 e1bd
00000250: 7190 9ebe 380e 97bd 176f a73e c7d5 a1bd
00000260: 47ba 94be a981 143e 0d4c 793e d039 c13e
00000270: 671b bc3e 26ef 97bb 9bb3 e43d 26e4 fe3d
00000280: d6fe 823e 255e 34bd f99c 0ebe c14c dc3e
00000290: 6612 66be b105 323e 444b 1ebd 2fb5 c7be
000002a0: be50 823d a7aa ff3d 0a94 d33d b924 06be
000002b0: 229f 80be edf1 12be 18aa d2bc 14bc 42bd
000002c0: ea13 473d 3c2d 18bd f4e9 653d f474 a83d
000002d0: d172 25be cee2 00bf c049 513d 3a41 b33e
000002e0: d2ba 97bd ce52 53be 9bd4 743e 375e aabe
000002f0: 321f e93b 5260 fabd 1107 6abe 1f56 f83d
00000300: 3521 763d 309e 753d a811 a93c 4fc9 9cbd
00000310: bbe0 063e ceb4 e03d a83e 983a 547a d3bd
00000320: 38a6 ad3e c778 5abc 88bd dabd efab 0d3e
00000330: cd00 443e ab89 acbc c20f 92bd 5367 8f3e
00000340: 87dd 9a3e 2634 62be cafd 7f3e 942c d7bd
00000350: 6cc0 a9bd 5dfc bbbe c667 463e 88d4 0a3e
00000360: 7189 d5be 27fb 7fbe 8173 0f3e c3d1 34be
00000370: 2d23 18be b6d4 d2be 87db 87be 7a72 8d3e
00000380: dd2c 243e 6e50 a9be fbd4 58be 5a6d 153c
00000390: cefb 9cbe e863 d9bc 0155 013d cc26 6f3d
000003a0: 8247 733e 2954 21be a0a2 e3be 762b 9f3d
000003b0: 232d c6bc 6633 473b 9b60 fb3d ab28 853d
000003c0: 7151 5d3e e854 1abd 76a9 3c3e 3e8f 85bd
000003d0: c981 793e 26a9 953c 7076 9ebd 5bc2 7f3e
000003e0: d4a0 d33d 0e92 8a3b 31e2 ac3d b010 ae3d
000003f0: 23f3 d5bc de5a 443c aff8 9c3e 2a27 21be
0.19968528 0.19387476 -0.007516251 -0.1656416 -0.0060632587 0.109866254 0.33944833 -0.18090332
-0.20415099 0.21564554 0.039792024 0.0610779 -0.5438047 -0.042281765 0.092142716 0.12850663
-0.056231074 -0.38356876 0.1196121 -0.16133088 -0.119442426 -0.023597855 0.0034804232 0.12845685
-0.3758684 0.009958533 -0.33045694 0.024632085 -0.19950627 0.19295809 -0.04486225 -0.043615136
-0.036221363 0.12269155 -0.19484983 -0.04580238 0.02672935 0.061110165 0.23889399 -0.20274481
0.016728299 -0.008705738 0.056897786 -0.042928267 -0.0020578203 -0.055581618 -0.07897087 -0.07831003
0.21597515 0.107001975 0.1392452 -0.13990754 -0.20536286 0.24877067 0.018617341 -0.10806149
0.123266175 -0.116304934 0.15800981 -0.19400331 -0.085489705 -0.36528146 -0.09102516 -0.45433533
-0.16825499 0.013644898 -0.044915374 -0.11000028 0.08146204 -0.17155601 -0.17815067 0.008993964
-0.26724923 -0.14171222 -0.034757417 0.1342062 -0.08368394 -0.014221031 -0.31996334 0.0334343
0.14673465 -0.22568315 0.21883889 0.14761221 -0.2417745 -0.17968097 0.12685284 -0.05536709
0.17191927 -0.06743582 -0.102919295 0.16548397 0.16172785 0.07593407 -0.06963735 -0.21010092
-0.17578255 0.21993148 -0.003182818 0.21147653 0.20700087 -0.113198526 -0.2884259 0.18920167
0.42054945 -0.09716824 -0.044904597 0.21131414 -0.27381223 0.13014044 -0.15934965 0.018104408
0.20203581 0.18847503 0.244764 -0.15040249 -0.3380395 0.032486808 -0.09024768 0.08569952
-0.1548617 0.104173526 -0.19161907 0.19736443 0.3634924 0.078425884 0.036565617 -0.015099455
0.2482546 0.19295259 -0.18341538 -0.116804674 -0.01622156 -0.25827426 -0.09653853 0.21598616
-0.11083582 -0.049273316 -0.05524326 0.26718107 0.01468499 -0.25970092 -0.12831348 0.084163114
-0.16809227 0.25113454 -0.0383854 -0.11013857 -0.30969575 -0.07375759 0.32701942 -0.07902103
-0.29048368 0.14502586 0.24345417 0.3773942 0.36739656 -0.004636663 0.111670695 0.124458596
0.2558505 -0.044035096 -0.13927068 0.4302731 -0.22467956 0.17384984 -0.038645998 -0.3900542
0.063630566 0.12483721 0.103309706 -0.13099946 -0.2512141 -0.143501 -0.025715873 -0.047542647
0.048602976 -0.037152514 0.05613132 0.08225432 -0.1615708 -0.50346076 0.051095724 0.350107
-0.0740868 -0.20637056 0.23909228 -0.33275005 0.0071143145 -0.12225403 -0.22854258 0.12125801
0.060090262 0.059965312 0.020638302 -0.07655584 0.13171665 0.10971986 0.0011615353 -0.103260666
0.33915877 -0.01333446 -0.106806815 0.13835119 0.1914093 -0.021061739 -0.07131912 0.28008518
0.30247137 -0.22090206 0.24999157 -0.105065495 -0.08288655 -0.36715975 0.19375524 0.13557637
-0.41706422 -0.24998151 0.14008905 -0.17658143 -0.14857168 -0.4117791 -0.26534674 0.276264
0.16032739 -0.33069175 -0.21174996 0.00912031 -0.30660862 -0.026536897 0.031575207 0.05838661
0.23757747 -0.15754761 -0.4446001 0.077719614 -0.024191445 0.0030395626 0.122742854 0.065018974
0.21613099 -0.03767863 0.18424019 -0.06521462 0.24365915 0.018269133 -0.07737434 0.24976484
0.1033341 0.004228837 0.0844158 0.08499277 -0.026116913 0.011984555 0.3065848 -0.15737596

bias f4 [150]
00000000: 489a 2dbe 2248 57be fab9 40be 0543 debd
00000010: 1f52 063e 2d69 353e 89c1 c23d 72dd 98bb
00000020: e3ee 783d aa5a 4dbe 3cbf 5cbc ec5b 263d
00000030: 5a12 99bd 834d 5e3e 79eb a7bd 9582 1c3e
00000040: 750d 2b3e db88 483e 6bdc 073d 45b8 883e
00000050: 063f e7bd 93e9 83bd 8a0b c03d 1b3d bfbe
00000060: 6652 35be fff9 6b3e fd3f 203e c07c 003e
00000070: 0b3f 893d 22f5 983e 2547 1bbe 4785 393e
00000080: 0e79 88be dd88 1e3d feea 21be f77f 0c3e
00000090: bc30 88bc c043 8ebe 1df0 3f3b d788 78be
000000a0: 9dbe ec3d 06e0 533e ce50 7e3e e520 9f3c
000000b0: 3c3b 033e 1fca 01bd 6532 debd 7ac5 ff3e
000000c0: 1cf9 8a3d 4d94 a93e 8fdb 1cbe 0f76 303e
000000d0: 52da 253a cb55 903e 9a42 ad3d 4617 febb
000000e0: da20 8bbd 0fd4 63bd eb37 c7be 1d1f 92bd
000000f0: 910b 293c 93cf 003e a0e8 04bb 5022 983e
00000100: 9b60 ef3d c877 4dbe fe2d a63d 698b fc3d
00000110: 7351 9d3c 5b3d 273d b885 f63d fcd6 843d
00000120: ad18 ccbc 3994 79b9 fee3 033f cc86 223e
00000130: 2e9b 3fbd 1767 afbd 7ffb 173e ffdf bfbd
00000140: f89a b93e 7512 be3d dfd5 a23e 11b4 db3d
00000150: 61af 9e3e 1929 2ebe f5c1 3cbe 5ed8 073e
00000160: 38b9 91bd 6305 6bbe 0017 c93c e48b 803d
00000170: 3c8b e93e 9a42 ef3e 77d6 4fbe fd63 103d
00000180: e57f 98bd 0ce1 4dbd e6bd cdbd 0c50 493c
00000190: 011a 00be 87ec cd3b a167 eb3d 598b 64bd
000001a0: f9e9 aebe 2d23 cabd 9bf7 8bbd 6e05 233d
000001b0: 5b51 83bd c00c 18bf 445b a5bc 1c4e bebd
000001c0: dba5 9d3d 6799 25be e23a 28bc e101 8d3e
000001d0: b1d6 033e 1f71 823e 1031 40be 6387 94bd
000001e0: 11cb d33e 6b92 65be a48b 263d eb7b 36bd
000001f0: 792b efbc d3e9 fbbd a7ad 1a3e 45e1 61be
00000200: 2b88 a3bd 1f4a 073e 78da cfbd 5866 743e
00000210: fabe a8ba 0e0a 513d 3593 033f 7601 f63d
00000220: c688 15bd 3c8e 3fbd d980 483e 710c 573e
00000230: 7811 98be 5d92 52bd 55ca 1a3e 7d15 d33d
00000240: 2604 34be 5b56 f43d 7767 7bbd 0eaf 093f
00000250: 8a34 3f3c e577 9e3e
-0.16953385 -0.2102361 -0.18820944 -0.10852627 0.13117264 0.17715903 0.0950957 -0.00466507
0.060774695 -0.20054117 -0.013473328 0.040615007 -0.074742034 0.21709256 -0.0819921 0.15284188
0.16704352 0.19583456 0.03316919 0.26703086 -0.11291318 -0.06441035 0.09377201 -0.37351307
-0.17707214 0.23044585 0.1564941 0.12547588 0.067014776 0.29874521 -0.15163858 0.18117248
-0.26654857 0.03870474 -0.15812299 0.1372069 -0.0166248 -0.27786064 0.0029287406 -0.2427095
0.11559794 0.20690927 0.24835512 0.019424865 0.12815565 -0.0316869 -0.10849456 0.4995535
0.06785795 0.33120957 -0.1531813 0.17232536 0.0006326783 0.28190455 0.08459969 -0.0077542393
-0.06793375 -0.055622157 -0.3890985 -0.07134841 0.010317699 0.12579183 -0.0020280257 0.29713678
0.11688348 -0.20065224 0.08114241 0.12331278 0.019203877 0.040829998 0.120372236 0.064863175
-0.02491411 -0.00023801708 0.51519763 0.15871733 -0.04677885 -0.08564585 0.14842032 -0.09368896
0.36251044 0.09280864 0.31803796 0.10727704 0.30993178 -0.17007865 -0.18433364 0.13266131
-0.07115406 -0.22951274 0.0245471 0.06276682 0.4561404 0.467305 -0.20296656 0.035251606
-0.07446269 -0.05026345 -0.10045986 0.012287151 -0.1250992 0.0062843 0.11494375 -0.055796955
-0.34162882 -0.098699905 -0.06834336 0.0398001 -0.06412002 -0.59394455 -0.02018512 -0.09292242
0.0769765 -0.161718 -0.010267945 0.27540496 0.12874867 0.2547693 -0.18768716 -0.072523855
0.41365865 -0.22419135 0.040660515 -0.04455177 -0.029195534 -0.12300458 0.15105306 -0.2205859
-0.07984956 0.13211869 -0.101490915 0.23867166 -0.0012874298 0.05103498 0.51396495 0.120119974
-0.03650739 -0.046766505 0.19580401 0.2100084 -0.29700828 -0.051409114 0.15116246 0.10306833
-0.17579708 0.119305335 -0.06137797 0.5378274 0.011670241 0.30950847

weight f4 [64, 4]
00000000: 3cec 133f cbb5 613c eb3b 97be d42a a03c
00000010: 0576 b13e 9b86 263d b671 863e e9ed 883e
00000020: 6245 87be e2f8 0dbe 4752 cdbd 9149 92be
00000030: 419f 24bf 3bca e43e e047 d73e e646 05bf
00000040: 05f7 313e 62e4 973d 3ade 9b3e 9e02 24be
00000050: f8a5 59bd 7889 9fbd c833 483e 9722 9b3e
00000060: a1e6 4ebe 6807 52bc b5fb 70be d1cf 64be
00000070: 08bd c63e 5fbc e63e 1d56 c63e ce59 a7be
00000080: 942f 4a3e 8e81 7dbc 20df 8fbe 6c35 43be
00000090: 6270 493e e2d3 903c b5d6 07bf 7d99 993e
000000a0: 4ca7 4bbd b458 23bf cd8f b63c 37fb 2a3e
000000b0: 5c6c 51be 9bf2 823c da9c d23d 5d65 cabe
000000c0: 6b45 903e 9251 ee3c 6297 a2be 2a5d 22bd
000000d0: 158c 603e 6b60 22bf 2528 52be 13ce 503e
000000e0: c8d3 3bbd 658c adbe 3044 27be c885 a03d
000000f0: 24ce 133e 8483 9f3d 0c98 683e 5430 df3d
00000100: 650b 003f 8ad0 c2bd e663 d2be 4fef fdbd
00000110: 6449 e93e aed7 193e e53f 99bc 0650 42be
00000120: 364b 583e a383 a63e 7ff1 b23d 4b19 85be
00000130: 693a 09be b452 72bd 1413 0cbf dfe0 b73e
00000140: e646 5fbe 1665 4bbe 3ac7 ad3d 2244 7d3e
00000150: 5b08 5e3e c142 36ba b7a0 bcbd 8bbf f2be
00000160: 65b3 20be 3c3e 363d 0612 af3e a27f c4bd
00000170: 5af1 b13d d937 94bd afd0 be3d df39 adbe
00000180: e72c 3cbe 552c ef3e ecc2 8fbe 613b 263e
00000190: ce5c 21bf 9c15 03be 53b4 22bd 6e5a 3cbd
000001a0: 63cf 2abe 8e6b 003e 6ad8 8ebd f0c1 f33c
000001b0: 337d 86bd ffc3 14bd 7d8c 973e 52d1 bd3d
000001c0: 15c8 c1bd f54e 2bbd 764f eb3e 522b 2fbe
000001d0: ef7a 8e3c 2905 843e 1d1e f93b 7883 e4be
000001e0: 8a90 ddbe fb6a 553c 2dab 3d3e cff5 bd3d
000001f0: 384e 0bb8 38b3 a1bd 2769 ac3d 3348 a73e
00000200: 8e9e fe3d 9d83 a43c d228 ef3e c10a 41bd
00000210: 9a0b 32be fab6 ff3c 60dd 1b3f 4757 61bb
00000220: f0ca 9cbe 2735 5bbd 3c10 afbe aedb 813e
00000230: d981 cebe 7ef7 76be da04 af3e c1f3 dcbd
00000240: 512f 4abf 070e 683d 9fe7 2dbe 6c7d 8cbe
00000250: 3aa3 83be 36ae 07bf c5d7 953e a853 ee3d
00000260: 2281 20be b2ec 473f 4974 b33d 5e2d c3bd
00000270: 7fee 00be 1142 48be bebc aa3d 31db c8be
00000280: d170 2bbe 2ef0 debc 6d4e efbe b737 c13e
00000290: 6071 72be ac4b 61bb cd57 3cbd a480 eebe
000002a0: 31e6 ffbc 0d94 31bf db52 9fbe 313d 8cbe
000002b0: 7818 c03e 3fe1 c93c d1d2 02be ef5b 6fbe
000002c0: eeaa 833e 714f 07be 389c 253e 28db 113f
000002d0: 3f48 ad3e f172 0a3e 7234 eebd 2d06 6fbd
000002e0: bad7 3dbe feb6 b23e fb16 193e 3e4b 7cbe
000002f0: c285 ca3e 6290 97bd 383f be3e c89b 25bd
00000300: 4523 06be 0393 1d3c c5cf d0be 4880 e6be
00000310: b09b c93d e7b7 07bf 2851 a13e d72e c83e
00000320: 516c 6f3c fa32 173c cef0 efbc 4718 00bf
00000330: acfe 3fbf db62 a9be 423f bbbd 6ff8 bd3d
00000340: 5ab6 c4be c81d a33e 9bd5 c23d b716 e1bd
00000350: 648a f1bd 71b1 9cbd 3ee3 e2be 6493 083f
00000360: 7ad0 a53e 3d86 013e 3262 063e 1892 18be
00000370: 41b1 383e 9772 63be 8fef 323e 9f22 cd3e
00000380: 6d34 5a3d de3f 703e 79a4 b03e f49c 94be
00000390: df91 cbbd 6aed 74bc 75bb 21be e50e 3cbe
000003a0: 9a70 c43e 2d46 3fbe 8dcd 1c3e 0c3c 19be
000003b0: 6fe3 e0bc fe4b 46bd cb49 f33d 6deb 9b3e
000003c0: 93de 6abe f56c 273f 7af7 00be 1bee aebe
000003d0: e83a 89be 4630 00be 41d2 fbbe 6fa5 29bc
000003e0: 3768 dabd cbea 86bd 7c1d 6d3d 605b 87be
000003f0: 7cb1 e63e 2fe2 463f 3ca8 a1be f6c9 783d
0.5778234 0.013776253 -0.295379 0.019551672 0.34660354 0.040655714 0.2625863 0.2674401
-0.26420122 -0.13864473 -0.10025459 -0.28571752 -0.643055 0.4468554 0.42047024 -0.5206131
0.17379387 0.074166074 0.30442983 -0.16016623 -0.053136796 -0.07789892 0.19551003 0.30299827
-0.20205165 -0.012819149 -0.23533519 -0.223449 0.38816094 0.4506559 0.38737574 -0.32685703
0.19744712 -0.015472783 -0.28099918 -0.19063348 0.19671777 0.017679159 -0.5306199 0.29999915
-0.049720094 -0.63807225 0.022285366 0.16697393 -0.20451492 0.015984824 0.10283823 -0.3953046
0.28177962 0.02909163 -0.3175612 -0.03963963 0.21928437 -0.6342837 -0.20523126 0.20391111
-0.045856267 -0.33896175 -0.16334605 0.07838017 0.14434105 0.077887565 0.22714251 0.1089789
0.50017387 -0.09512432 -0.4109184 -0.1239916 0.45563805 0.15023682 -0.018707225 -0.18975839
0.2112244 0.32522306 0.08737468 -0.2599586 -0.13401188 -0.059160903 -0.5471661 0.3591375
-0.2180439 -0.1986278 0.08485265 0.24733022 0.21682875 -0.0006952696 -0.092103414 -0.4741176
-0.15693434 0.044492945 0.34193438 -0.095946565 0.08688612 -0.072372146 0.09317147 -0.33833215
-0.18376504 0.4671351 -0.280784 0.16233589 -0.63032234 -0.12801212 -0.03972275 -0.045984678
-0.16680674 0.12541029 -0.069748715 0.029755563 -0.065668486 -0.03631973 0.29599372 0.0926844
-0.09461991 -0.041823346 0.4595906 -0.17106369 0.017392604 0.25785187 0.0076024667 -0.44631553
-0.43274337 0.013025994 0.1852233 0.092754 -3.321303e-05 -0.078955114 0.08418494 0.3267227
0.12432586 0.02008229 0.4671083 -0.047129396 -0.17387238 0.03121518 0.60884666 -0.0034384297
-0.3062358 -0.053517487 -0.34192073 0.25362915 -0.4033344 -0.24117848 0.3418339 -0.1078868
-0.7897845 0.056654003 -0.16982888 -0.2743944 -0.2571047 -0.530002 0.29266182 0.1163705
-0.1567426 0.78095543 0.08762414 -0.095301375 -0.12590979 -0.19556452 0.08336781 -0.3922973
-0.16742255 -0.027214136 -0.46739522 0.3773782 -0.23676062 -0.003437738 -0.04598217 -0.4658252
-0.031237694 -0.6936653 -0.311179 -0.27390435 0.37518668 0.024643539 -0.12775733 -0.23374914
0.25716347 -0.13213898 0.16172874 0.5697503 0.33844182 0.13520409 -0.11631097 -0.0583555
-0.18539324 0.34905237 0.14950173 -0.24638078 0.39555174 -0.07400586 0.37157607 -0.040431768
-0.13099392 0.00961757 -0.40783516 -0.45019746 0.09844148 -0.5301499 0.3150723 0.39098236
0.014613227 0.009228462 -0.02928963 -0.50037044 -0.74997973 -0.33083233 -0.09142925 0.092759006
-0.38420373 0.3185866 0.09513398 -0.10990661 -0.11793974 -0.07651032 -0.44313997 0.533499
0.32385617 0.12648864 0.13123396 -0.1489948 0.18036367 -0.22211681 0.17474197 0.40065476
0.053272653 0.23461863 0.34500483 -0.29025996 -0.09939932 -0.014949182 -0.15794165 -0.18365057
0.38367158 -0.18679114 0.15312786 -0.14964312 -0.027452199 -0.048412316 0.11879309 0.30453053
-0.22936468 0.6540063 -0.12594405 -0.34166035 -0.26802754 -0.12518415 -0.49183849 -0.010354384
-0.10664409 -0.06587752 0.057889447 -0.264369 0.45057285 0.7768888 -0.31573665 0.06073948

bias f4 [64]
00000000: 9a9e d73d 174f 4abd 0dd2 84bb f08f 0cbd
00000010: e5bb 10bd bc31 c3bb b92a c73a a7e8 80bd
00000020: abe0 ce3c 1384 e83c afa2 f3bc 76a5 dabb
00000030: 7a90 ae3d e0a0 163d 77cf adbc 2771 70bc
00000040: 5b16 c03d d3a1 d13c 0d9c 843b 6b6c b2ba
00000050: f978 33bc bc1b 0f3d e6a7 b1bd 025c 903c
00000060: 05be 683d cbb7 e73c b6ea a43c 2e0c 72bd
00000070: dd15 22bd f318 5c3d e7e4 443a 2c34 24bc
00000080: 953a b3bd c4e9 bbbd 3982 503c c89c d4bc
00000090: db45 a93c 590e dcbd c138 d03c b8fc bdbd
000000a0: 189c 393d 94b5 59bc 62ea 18bb 1fed 2cbc
000000b0: dc22 373c abd4 4c3c 8380 bbbc fedb 56bd
000000c0: 0751 833d d4bd abbd 9b89 a9ba ec3b 843b
000000d0: befc 2abd 16e8 35bd cd07 0bbd c4c6 7dbd
000000e0: 1a89 d8bc 3ee6 893c 25eb 493c b42f e2bc
000000f0: 0b52 133d bc4d a73d ac77 f3bc c0ef 8e3d
0.10528298 -0.049391832 -0.0040533603 -0.034316957 -0.03533544 -0.0059568565 0.0015195227 -0.06294375
0.025253614 0.02838329 -0.02974066 -0.0066725565 0.085236505 0.036774516 -0.021217091 -0.014675415
0.09379264 0.02558986 0.004046923 -0.0013612633 -0.010954135 0.03493856 -0.08674602 0.017621998
0.05682184 0.028285882 0.02013145 -0.059093647 -0.03957163 0.05373473 0.0007510916 -0.010022204
-0.08751408 -0.09175447 0.01272636 -0.025953665 0.020663192 -0.10744924 0.025417687 -0.09276718
0.04531488 -0.0132879205 -0.0023333062 -0.010554581 0.011177745 0.012501876 -0.022888428 -0.052455895
0.06411939 -0.08385816 -0.0012934686 0.0040354636 -0.04174494 -0.044410788 -0.033942986 -0.061957136
-0.026432563 0.01683342 0.012324129 -0.027610637 0.035966914 0.081691235 -0.02972015 0.069793224

weight f4 [64, 214]
00000000: cfb3 63bc 57c3 503d 7bdd 92bd 9683 cf3d
00000010: 2eca e3bd f64f 9a3c 03c0 e8bc 1703 5cbc
00000020: 0bf1 4a3e f8c3 e63d e03c 253e bd6d efbd
00000030: a7c7 fd3d caa7 10be c30b 18be f6cc 233c
00000040: 05b1 d2bd ada1 c93b 4c04 88bc 4fb2 9bbd
00000050: 2fd3 e5bd 27be 113d 4a48 7f3d ecf0 10be
00000060: 8144 ce3d cd81 013d 450b f9bb b608 633d
00000070: 4db1 183e fa9a 1e3e 1a3f a03e dc8b da3d
00000080: 93ae 40be 3de1 9b3d 59a0 c33d c940 c03c
00000090: 32dd 2dbe 5b28 1cbe bcdf 1d3e ec7d b1bd
000000a0: d3d4 0abe 7b06 863c d308 c23d 9389 a03d
000000b0: 588d 0e3d 8b09 01be 2b9b 5e3d 8413 1cbe
000000c0: e5b6 2bbe bb38 d03d 45c1 473d c140 bfbc
000000d0: ae0d cd3c 98ae 6a3d 4ba6 5d3d a812 87bd
000000e0: 8d53 253e 1b1c 91bd 9042 8fbd bc01 2fbe
000000f0: 9815 c03b a105 793d a909 0f3e 09b0 0c3d
00000100: b10e eebd 122b 50bd 4011 9bbd 2c12 7fbe
00000110: 237c c5bc a81c 1e3e 5978 8b3c f256 0a3e
00000120: dca0 30be 493e 663d 5cf6 f03d fac4 44be
00000130: bb76 9b3d 3af0 103e 5958 e2bc 6185 7fbe
00000140: 3046 3dbe 201e cd3c 9a47 2d3d a307 b9bc
00000150: 95dc 663d 4135 ce3d 492a ea3c d18f 513d
00000160: 0717 503e 5f6e a23c 7d6e 05bd dbc3 52bd
00000170: 4bc9 7a3d f6ac fabc 31e8 7cbe 95b7 8cbd
00000180: c719 b2bd 21a5 50bd 4c18 0e3e cc20 343e
00000190: c4ce a63d 559f cd3d 5825 893d cd40 0bbe
000001a0: 44d4 1f3d 5849 cdbc 64ae 56bd 9bb6 533e
000001b0: 9595 2ebd 3c01 f9bc 9e2c 0dbe a6bf 253d
000001c0: 65a9 e13c 8983 823c e7a6 b43d 7855 9f3d
000001d0: 95eb 153e d2a3 8ebd 2a02 82bc a045 4b3d
000001e0: 6437 d83d 2a2c f4bc 5847 fbbd 475b 733e
000001f0: 413b 743e 8de9 f13c e4c9 993d 377d 32bc
00000200: c557 a13d 44f5 0bbd 72af 0b3e 3fb0 363e
00000210: 5f03 e53d 36ef 3dbe b05c 233d 6591 afbc
00000220: 9d06 273d 20bd 02be e730 a83e 055a eb3c
00000230: 9a7f db3d 5ef3 493e 7303 61be 3899 ad3c
00000240: 849e 35be 83f3 0abe 5260 00be 6bc2 093e
00000250: ddfc e63d 080e 833c 506b 94bc a497 d93c
00000260: 5f1e 523e 9a17 a0bd 2eb6 adbe f36b bf3c
00000270: 4fb7 35bd 8cdb c5be 0529 eabc 251f 3b3e
00000280: b6ee c73c a162 e2bd 3dbf 663c c51a 263e
00000290: 3771 903e b9c9 02be 5918 053d 0649 07be
000002a0: 6011 99be 657e 783e bd67 3b3e b149 e4bc
000002b0: 824c 69be 8286 77bd 2ff7 833c 1836 cf3d
000002c0: a610 d43d 37fe 87be 771a 81be 8181 48be
000002d0: 61b5 b23d 03bd 403e f12e 00be 2181 c2bd
000002e0: 4eb4 4e3e bcea c8bd b9f2 ee3d 6b5c b03d
000002f0: 476d adbd c270 c8bd 11e0 c73e bd62 8fbd
00000300: 7445 253e 7693 f0bb e64f 85bd 4a3e 0abd
00000310: 6043 1abe 1b6c bbbe 7889 893d 5464 c3bd
00000320: 2d50 7fbd 6c0f 963d 765d 0cbe 2aee 623e
00000330: 4118 cbbe d67a 0cbe cffb 0abf 19c4 da3d
00000340: d07b 79be 2eb1 543d a6a0 c53d c284 ae3e
00000350: eef2 8cbd aca9 23bc c4ca 6a3e 3040 a4bd
00000360: b46f 37be 48ef 9dbd 7cb4 c53d 523a e93c
00000370: 5b78 f43d dd7a b93b 3aa9 8ebc eff2 13be
00000380: 6ea5 02be 41f6 1d3d 246b 84be 8b2e 69be
00000390: 2fa1 883e 48f1 c43a 31c1 9a3d 696d 5dbd
000003a0: 1e35 e23c 26d6 3a3e cabb 8ebe bab4 88bd
000003b0: 48da babd aa41 a83d 39d9 a33e f947 3d3c
000003c0: aaf6 95bc 11c2 c23d 5e65 7c3d c17d 063e
000003d0: d960 f3bd 02d2 183e 1b0e 793b b81d bdbd
000003e0: 213b 51bd 7c1f 9e3c 7c73 dd3d 9b1e bdbd
000003f0: 1315 82bd c92e 4fbe 91a6 00be 5579 8c3c
-0.01389785 0.05096754 -0.0717115 0.1013252 -0.11122547 0.018836956 -0.02841187 -0.013428471
0.19818513 0.11267847 0.16136503 -0.11690853 0.12391596 -0.14126506 -0.14848237 0.009997597
-0.1028767 0.0061533065 -0.016603611 -0.07602369 -0.11221921 0.035581734 0.0623248 -0.14154404
0.1007166 0.03161793 -0.0076002204 0.05542823 0.14911385 0.15488806 0.31298143 0.10671207
-0.18816595 0.0761132 0.09552068 0.023468392 -0.1697891 -0.1524977 0.15417379 -0.08666596
-0.13557748 0.016360512 0.09474339 0.0783874 0.034802765 -0.12601297 0.0543472 -0.1524182
-0.16768987 0.101670705 0.0487683 -0.023346307 0.025030937 0.05729541 0.054113667 -0.06595355
0.16145153 -0.07085439 -0.06995118 -0.17090505 0.005861949 0.060796384 0.13968529 0.034347568
-0.11623896 -0.050822325 -0.075716496 -0.24909276 -0.024107045 0.15440619 0.01702516 0.1350973
-0.17248863 0.056211744 0.11765739 -0.19215766 0.075910054 0.14154139 -0.027630018 -0.24953224
-0.18483806 0.025038779 0.042304613 -0.02258665 0.056362707 0.10068751 0.028584616 0.051162545
0.20321284 0.01982802 -0.032576073 -0.051456314 0.061227124 -0.030600052 -0.24697949 -0.06870953
-0.08696323 -0.05093873 0.13876456 0.17590636 0.08144906 0.10040156 0.06696576 -0.13598938
0.03902079 -0.025059387 -0.052412406 0.20675127 -0.04262312 -0.030396096 -0.13786551 0.040465973
0.027546594 0.015931861 0.088208966 0.07779974 0.14640649 -0.0696484 -0.015870173 0.049626946
0.1055744 -0.029806215 -0.12269467 0.23765288 0.23850729 0.029530311 0.07509211 -0.010894111
0.07878069 -0.03416945 0.13641146 0.1784067 0.111822836 -0.18548283 0.039883316 -0.021431634
0.04077779 -0.12767458 0.3284981 0.028729448 0.107176974 0.19721743 -0.21973972 0.021191224
-0.1773625 -0.13569455 -0.12536743 0.13453071 0.112786986 0.015997902 -0.018117577 0.026561566
0.20519398 -0.07817002 -0.33928055 0.023366904 -0.04436427 -0.38644063 -0.028584013 0.182736
0.024405818 -0.11053968 0.014083681 0.1622115 0.28211376 -0.12772264 0.032493923 -0.1321145
-0.2989607 0.24266966 0.18301292 -0.02786717 -0.22783092 -0.06043101 0.016109077 0.101177394
0.10354738 -0.26561138 -0.25215504 -0.19580652 0.087260015 0.18822102 -0.12517907 -0.09497286
0.20185968 -0.09810397 0.116673894 0.08611377 -0.084681086 -0.09787132 0.39038137 -0.07001255
0.16139776 -0.0073417975 -0.0650938 -0.03375081 -0.15064764 -0.36605915 0.06715673 -0.095406204
-0.06233232 0.0732716 -0.13707528 0.22161165 -0.39666942 -0.13718733 -0.5429048 0.10681934
-0.24363637 0.051926784 0.09649782 0.3408566 -0.06882273 -0.009989183 0.22928911 -0.08020055
-0.17913705 -0.07711655 0.09653565 0.028470192 0.119370185 0.0056603984 -0.017414678 -0.1444814
-0.12758419 0.038564924 -0.25862992 -0.22771661 0.26685473 0.0015025521 0.075563796 -0.05405942
0.027613219 0.18245754 -0.27877647 -0.06675096 -0.09123665 0.082156494 0.32001665 0.011552804
-0.018306095 0.095096715 0.06162011 0.13133909 -0.118837066 0.14923862 0.0038002792 -0.09234184
-0.05108178 0.019302122 0.108130425 -0.09234353 -0.06351676 -0.20232691 -0.1256354 0.0171477

bias f4 [64]
00000000: 77f8 623d 4d21 0abd 6eb4 4b3d 3be9 2a3d
00000010: 49b5 b0bc 759e 243d 7ae8 763d 0c80 853d
00000020: cb5c a43b 961f 213c 23f7 203c 209c 26bd
00000030: 75fa 10bd b715 293b cf4f 86bd 6d7e 123d
00000040: 03c5 febd 3dbc b33c 9783 48bc 4850 b33c
00000050: 7f4e 27bc e46f 70bd b0f3 1c3d 6d8d c2bd
00000060: 28c7 27be 31f0 25bd 52ae a33d 8ede 3cbd
00000070: 087a 5cbc f000 44bd dff2 043e f497 1dbd
00000080: 7edc a1bd 11d7 a0bd 9e62 2c3c a875 ce3c
00000090: 7ee4 6f3c c1d9 ccbb 8b58 07be 86b2 123e
000000a0: 2998 b1bc 5886 d33d ae5a 7a3a ead9 3f3e
000000b0: f3a7 3a3d 8e98 1f3d 699d b2bc fd0b aa3c
000000c0: 7e3f c03d e00e 7d3d e044 4e3c e7c1 953d
000000d0: ee24 023e d912 b5bb a63c 2c3d cc3a 8ebd
000000e0: 2f41 67bc 394a 713d 508e 233d 6d8e 2cbc
000000f0: eba1 81bd fd7d 85bd 4acf ed3c ed19 363d
0.055412736 -0.033723164 0.049732618 0.041726332 -0.021570818 0.04019018 0.0602803 0.06518564
0.0050159446 0.009834191 0.009824547 -0.040676236 -0.035395104 0.0025800297 -0.06558191 0.0357651
-0.12439921 0.021940345 -0.012238405 0.021888867 -0.010211586 -0.058700457 0.038318336 -0.09499631
-0.16384566 -0.040512268 0.07992233 -0.046110682 -0.013456829 -0.047852457 0.12983273 -0.038474992
-0.07903384 -0.07853521 0.010521559 0.025202587 0.014641879 -0.006251544 -0.1321737 0.14325914
-0.021679 0.103283584 0.00095502555 0.18735471 0.045570325 0.038963847 -0.021803575 0.02075767
0.0938711 0.061781764 0.012589663 0.073123746 0.127094 -0.0055259285 0.042050026 -0.06944808
-0.014114662 0.058908675 0.03993064 -0.010532004 -0.063297115 -0.06518171 0.029029507 0.04445832

weight f4 [150, 22]
00000000: 51eb 4abd ec72 0e3d 6c8b 99bd f78e 933d
00000010: 6fc6 343d 0d89 013d 2736 0b3d 03ce 59bd
00000020: 1632 ed3d 6ab6 4abd 09fa 053e edae 093c
00000030: 9685 3d3d 7552 813d bf6d ef3c 75f7 b1bc
00000040: 99de 583d 4e13 66bd b377 403c 0ab6 e23a
00000050: 6c84 363c 80bc 463c 3f54 e5bd 27b0 73be
00000060: 72d7 f83c 354f 4c3d 1993 eabb 5b86 83bc
00000070: 3f61 23bd dd1e 653d 1809 8ebc 14a4 93bd
00000080: 3a8f d43d 9af0 ee3d 0094 24bd 710f 4bbe
00000090: 49bf 8b3e 773e cebb bcd9 013e 1c92 46be
000000a0: 1906 a83d eca8 5e3b d133 e53c 8e85 8fbd
000000b0: 9105 26bd 3330 973d 1dd1 aebd 54cd cfbc
000000c0: 1e12 f0bd 8e05 eb3a 1054 09be 3d84 96bd
000000d0: a384 c73c 36bf cdbc 4bf2 fc3b 2e0f 24be
000000e0: 5321 9cbd 91cc 913d a546 17be a402 d23d
000000f0: 1e1d 3abe 1367 86bd 7066 b5bd 06bc 993d
00000100: 746e 073d 8796 6b3b ffff cb3a 033d 713d
00000110: ac70 dc3d 33bd 223e f0d0 d03d d3f1 57bd
00000120: 7da4 5cbd 5023 d13d 0cc6 a63d 524f c5bd
00000130: e326 963c 832f ac3e 5ac8 19be 16bc 333d
00000140: c37b 683e 42d1 dabd 9b08 31be 678d e6be
00000150: 13da 043e bbd8 82be 9af0 343e db53 73be
00000160: a967 1b3d d8a6 743c 0d62 b3bb 9f60 4fbc
00000170: c3d4 163e ea09 8e3d 65a5 8e3d 06fe dd3c
00000180: ded0 5cbc 20b5 2d3d 4a6b 03bd 137d 0a3d
00000190: 7d4c 603c 8e0c e3bd ca6c 35be c791 99bc
000001a0: 9c9a 383e 07ea 3abd 4e66 333d 0dc3 a6bc
000001b0: c066 3fbc 13ba 473b 10c6 373d f77c 903d
000001c0: a95f 14bd 6e36 1eba eff9 8bbc 7ab1 0e3d
000001d0: ad21 90bd c1a4 6d3d 1e1d dd3c f4c8 81bd
000001e0: 72bb c43d d156 2a3d 745a aa3d 5254 933d
000001f0: d7a6 4cbb 9f5d 91bd 66e9 0a3e 5a37 c53c
00000200: 1b07 e8bc 796f 0b3c 5a15 0b3c 7b81 9bbb
00000210: 348b 253d e87a 18bd 09db 8dbd 177f 573d
00000220: 0a93 dabd b38e 36bc beec 9abc 4ac5 16be
00000230: 9b8f 5abb f84e ccbc 8262 cbbc 5467 4bbd
00000240: 1bfe 003d 4879 4ebc 0465 ac3c 89c8 c3bd
00000250: 9f9c 833d 6c03 d0bd 17a3 333d 85d6 153d
00000260: 1b79 7abb 40c3 bc3c 3f49 af3d 73eb adbd
00000270: 0b8a aebd 4e2d 86bd b2b4 333d 9290 0cbe
00000280: 6e02 913b 5f04 04be f39e 17bc 3b44 853d
00000290: 2521 8ebc 297a 8dbe 283b 33bd cb97 15bd
000002a0: 6b07 b0be 8749 5a3d 0863 68be ae15 c7bc
000002b0: fda2 86be 0da7 3c3b 995f bc3c 2566 ee3b
000002c0: 0c48 04bc f00d fcbd d08d 80bd f6bd 7abb
000002d0: 4511 bcbc 22fc 10bd 17b5 87bc ac90 b2bd
000002e0: 47a8 a0bd fa09 03bd b177 97bc 3bd7 cfbd
000002f0: 9c68 c73c 056f 71bd a19a e43d 75ef 49bd
00000300: 5129 b93d 8ba8 b0bd 5873 5bbe b37b ab3d
00000310: 56ac 86bd d514 0f3e 5442 a83d 648a 57bd
00000320: 52cf 8dbb e7e4 09be 0ebf 343c 9b77 133e
00000330: 2d0a 023d 6fb7 773d 0297 c13c 797d c83d
00000340: 7520 40bc d7a8 97be 11a0 80bb cb33 b23c
00000350: 85ea c1be bec1 c5bd 3585 12bd 1a25 c83d
00000360: a1f1 29bd 6ee9 323d 642c 71bd 6374 9e3c
00000370: 3b20 aebc f58e 643d 3238 31bc 84bf 693d
00000380: 7705 7d3c bdb7 8f3d 8c45 603d 0e87 5d3c
00000390: 5b3a 8b3d 3119 8dbb 7b81 213e 594c 0a3e
000003a0: 2a9d a43d 9132 603d 56a2 f43d ef30 04bd
000003b0: f5cd e23c eb75 293e 7c16 95bd 1b88 a23c
000003c0: bcf9 44bd 9928 753d 5f96 903e c499 a43e
000003d0: 7ec4 3f39 2128 313d 170a 8ebc 70f2 7b3e
000003e0: a6d0 17be 16b0 e1bc 1bfb 153e c37b 33be
000003f0: 13eb aabd c5ce a8bd aeb4 8d3e e6d7 523e
-0.04954082 0.034777567 -0.07497296 0.07205003 0.044134554 0.031624842 0.03398719 -0.053174984
0.11581819 -0.04949037 0.13083662 0.008403522 0.046269976 0.063145556 0.029227136 -0.021724442
0.05294666 -0.056170754 0.0117472885 0.0017296684 0.01113997 0.012129903 -0.11197709 -0.23797666
0.03037617 0.049880225 -0.0071586487 -0.016055277 -0.039887663 0.055937637 -0.01733832 -0.0720903
0.10378881 0.11666985 -0.040180206 -0.19830109 0.27294376 -0.0062940675 0.12680715 -0.19391674
0.08204288 0.0033975197 0.02797881 -0.070078954 -0.040532652 0.0738224 -0.08535979 -0.025366463
-0.117222056 0.0017930733 -0.13410974 -0.07349441 0.024355238 -0.02511559 0.0077193133 -0.16021416
-0.076235436 0.07119096 -0.14773043 0.1025441 -0.1817517 -0.065626286 -0.08857429 0.07506566
0.03306432 0.0035947876 0.0015563964 0.058896076 0.10763678 0.15892486 0.10196102 -0.052720856
-0.053867806 0.102118134 0.08143243 -0.0963427 0.01832909 0.3363 -0.15017834 0.043880545
0.22703461 -0.10684444 -0.17288439 -0.45029756 0.12973814 -0.25555977 0.17669907 -0.23762457
0.037940655 0.014932357 -0.005474335 -0.012657314 0.147296 0.06935485 0.0696514 0.027098667
-0.013477532 0.042409062 -0.03208474 0.033810686 0.013690111 -0.11086379 -0.17717281 -0.01874627
0.18027729 -0.045633342 0.043798737 -0.02035668 -0.011682212 0.00304759 0.04486662 0.07055085
-0.03622404 -0.00060353323 -0.017086951 0.034837224 -0.07037673 0.05801845 0.026991423 -0.06337157
0.09606065 0.0415867 0.08318034 0.07193817 -0.0031227374 -0.07097935 0.13565597 0.024074245
-0.0283237 0.008510464 0.008488977 -0.00474566 0.040415958 -0.037226588 -0.06926543 0.052611437
-0.10672577 -0.011142421 -0.018911716 -0.14723697 -0.0033349756 -0.024939999 -0.024827246 -0.04965909
0.031492334 -0.012602158 0.021044262 -0.095597334 0.064263575 -0.10156903 0.043856706 0.036581535
-0.0038219157 0.023042321 0.085588925 -0.08492174 -0.08522423 -0.0655161 0.043873496 -0.13727024
0.0044253385 -0.12892292 -0.009254205 0.065071546 -0.017349789 -0.27632263 -0.043757588 -0.036521714
-0.3438066 0.053292777 -0.22694027 -0.02430233 -0.26296225 0.0028786093 0.022994803 0.00727536
-0.008073818 -0.12307346 -0.062770486 -0.0038260198 -0.022957454 -0.035396703 -0.016565843 -0.08719
-0.07844596 -0.031991936 -0.01848969 -0.10148474 0.024341874 -0.058943767 0.111623056 -0.04930063
0.090410836 -0.08625897 -0.21430719 0.08373203 -0.06575839 0.1397279 0.08215776 -0.052622214
-0.004327693 -0.13466226 0.011031879 0.14401095 0.031747986 0.06047767 0.023631576 0.09789557
-0.011726488 -0.29621002 -0.0039253314 0.021753212 -0.37874237 -0.09656094 -0.035771567 0.097727016
-0.0414902 0.043679647 -0.058880225 0.019342607 -0.021255603 0.055800397 -0.010816621 0.05706741
0.015443197 0.07017467 0.054753825 0.013520969 0.0679824 -0.0043059816 0.15772049 0.13505687
0.08037789 0.054735724 0.119450256 -0.03227323 0.027686099 0.16548888 -0.07279679 0.01984029
-0.048089728 0.05985317 0.28239724 0.32148564 0.00018288378 0.04325116 -0.017338796 0.24604201
-0.14825687 -0.027549785 0.1464657 -0.1752768 -0.08345618 -0.08242563 0.2767691 0.20590171

bias f4 [150]
00000000: babc 4e3e efbf 37be 5fbb 82bd 5101 8f3e
00000010: 0a07 f8bd 2cd8 84be 9123 9fbd ed0c 4abe
00000020: 3fcc d93e a348 8a3e 0b36 d8bb 39de b3be
00000030: 6eca a8be 2bc6 183e 951b 433c e527 00bd
00000040: 7619 97bd 2e26 4abe f800 5bbe ec81 d93e
00000050: 9ff2 2b3e 1486 95be 6c40 b7bc 5ca8 c73c
00000060: e804 5c3e b012 d1be 1e6d be3e 5b93 f9bd
00000070: 1116 983d b26b c63e 3e38 55bd 8a60 71be
00000080: de61 cfbe 61b2 c03e 9b23 593e f86f d9bc
00000090: 9243 803e 9434 1d3e 50f7 5abe 0d16 5f3e
000000a0: 420b d53e 50cd 80be 37e7 a7bd 6069 11bf
000000b0: 988a ca3d 9aa1 2ebd 6daf 703e 4086 7c3e
000000c0: e166 e8be 173c 76bd ff4b 873e 0fb8 143f
000000d0: 3574 84bd 34e1 2fbe 29e3 67be d649 b9be
000000e0: 08c6 50be 96f9 17be d736 d63c 3e4d 563e
000000f0: eee8 403e 84c8 b13e 28ff 21be fd21 723e
00000100: 446d 2fbc 6b4b eabd 4d42 80be 291d 733e
00000110: 1525 f7be 1c68 eb3a 7815 2cbe f02f 0e3f
00000120: d79c b9bd d147 2dbe 93ce eabe 5c84 1e3e
00000130: 3694 ef3c 4953 3cbf aed5 4b3e 0e13 d5bd
00000140: 963b 17be 6b37 4b3e fba1 7ebe a02e 9dbd
00000150: 1118 0bbe b0a0 9fbe d1f2 233e 7f86 7a3d
00000160: fef9 113f a94a b03b 9472 433e a9d5 3ebe
00000170: baef d53e 3447 973e bf5a ebbe 4d33 8bbe
00000180: 4d4e 23bc d9a7 003f 408c 83be 7ed9 febe
00000190: 9fe3 20bc a065 953e c1b8 06be 8e53 de3c
000001a0: 7afa 373d 9314 063e b631 dbbe e0ce e2be
000001b0: 8c07 be3e 37ee 08be 48a2 ed3c 2f90 9e3e
000001c0: fa6f dc3e c3c1 40be c838 2abe 4f40 0a3f
000001d0: df08 2cbc ce26 71be 19ec ac3c 828e 9c3e
000001e0: f037 b7be 9790 353f baed 50be c233 193e
000001f0: dcab a63d ad24 8c3d 9e0d 52be c020 bbbd
00000200: e894 5abe 518d de3c 1646 0e3f 9148 803e
00000210: 36bc fc3e b316 bebd d97e d23e 159a 64bd
00000220: 1609 c4be 61e2 aabe 7fee 233e a10d a1bc
00000230: d3cf ec3e ab5a a43e 217c 723b 5bc2 01be
00000240: 3796 8bbe f5fb 0b3e 22da d8bb 7ae8 9abe
00000250: 8eac 2b3e 8814 b7be
0.20189181 -0.1794431 -0.063833944 0.27930692 -0.121107176 -0.25946176 -0.07770456 -0.19731493
0.4253864 0.27008542 -0.0065982393 -0.3513048 -0.32966942 0.14919345 0.011908432 -0.031288046
-0.07377903 -0.19741127 -0.21387088 0.42481935 0.16791771 -0.29203856 -0.022369586 0.024372272
0.21486247 -0.4083457 0.37192625 -0.12186309 0.07426084 0.3875404 -0.05205559 -0.23571983
-0.40504354 0.37636092 0.21204989 -0.026542649 0.25051552 0.15352088 -0.21383405 0.21785755
0.41610152 -0.2515664 -0.081983976 -0.56801414 0.09889716 -0.042634584 0.2350442 0.24660587
-0.4539099 -0.0601159 0.26425168 0.5809335 -0.06467477 -0.17175752 -0.22645248 -0.36189145
-0.20388043 -0.14841303 0.026149197 0.20927903 0.18838856 0.34723294 -0.1581999 0.23645778
-0.010707203 -0.11440166 -0.25050583 0.23741592 -0.4827048 0.0017960104 -0.16805065 0.55541897
-0.09063118 -0.16921927 -0.4586073 0.15480179 0.029245477 -0.73564583 0.19905731 -0.10404025
-0.14768824 0.19845359 -0.24866478 -0.07674909 -0.135834 -0.31177282 0.16010596 0.06116342
0.5702208 0.005379994 0.19086677 -0.18636192 0.4178446 0.2954651 -0.4596767 -0.27187577
-0.009967399 0.50256115 -0.2569294 -0.49775308 -0.009819894 0.29179096 -0.13156416 0.027139451
0.044916607 0.13093786 -0.42811364 -0.44298458 0.37115133 -0.13372122 0.029008046 0.30969378
0.4305418 -0.18823914 -0.16623223 0.5400438 -0.010500162 -0.23549959 0.021108674 0.30577475
-0.35784864 0.7092375 -0.20403185 0.1496115 0.08138248 0.06842933 -0.20513007 -0.09137106
-0.21345866 0.027166994 0.5557569 0.25055364 0.49362344 -0.09281673 0.41112402 -0.055811007
-0.38288182 -0.33375838 0.16008948 -0.01965982 0.46252307 0.32100424 0.0037000256 -0.12671797
-0.27263042 0.13670333 -0.0066178003 -0.3025549 0.16765043 -0.35757852
