examples/rl/experiments_from_paper/experiments_data/trained_models/TiltrotorPlus8DofHoverEnv/DevelopmentalTiltrotorPlus8DofHoverEnv-0/ppo/TiltrotorPlus8DofHoverEnv-v0.pt (torch, 279745 bytes, 16 tensors)

weight f4 [150, 18]
000000 19 42 dd bc 0c ee 34 3e 22 48 82 be c7 c3 c6 3c
       -0.027009057 0.17668933 -0.25445658 0.024263276
000010 7a e9 c5 3d 63 03 de 3d f1 40 01 be 8e e7 da bd
       0.09663673 0.1084049 -0.1262243 -0.10688697
000020 70 bb 02 3c 01 fb b3 3d bc 24 88 bc fa cd bf be
       0.007979259 0.087881096 -0.016619079 -0.37461835
000030 a0 13 ad bb 1d 3c 4e 3e 02 44 8b be db f8 26 3e
       -0.0052818805 0.20140119 -0.27200323 0.16305868
000040 b0 67 4b bb c5 e0 f8 bc 14 0d 98 3e 64 9a 43 be
       -0.0031037144 -0.030380616 0.29697478 -0.19101864
000050 91 eb c2 3e bc 67 43 be 2d 1e 83 be 22 a7 9e 39
       0.38070348 -0.1908254 -0.2560896 0.00030260632
000060 58 a4 f2 3e 7f 22 38 3d 61 7e c6 bd 96 86 40 3e
       0.4739101 0.044954773 -0.096920736 0.1880134
000070 a4 56 e3 bd 7b 87 2b 3e 3f 99 b9 3e 69 0b 9e bd
       -0.1110051 0.167509 0.3624973 -0.0771702
000080 d2 19 94 3b b5 82 16 bd 26 07 c8 3d d3 d8 23 3e
       0.0045196796 -0.036745746 0.097669885 0.1600068
000090 12 d8 b2 3d 5c 4a a3 bd e3 9d ad 3d 4c e2 fd bb
       0.087326184 -0.07973167 0.0847738 -0.007747924
0000a0 de a7 0b 3e fb f9 28 3b 96 03 06 bc 37 f7 da bc
       0.13638255 0.0025783766 -0.008179566 -0.02672921
0000b0 ad aa 2b 3d 85 18 af bc f3 63 ff bd a6 71 e5 bd
       0.041910816 -0.021373997 -0.12470236 -0.11203317
0000c0 b4 fd 2f bd 53 e6 8e 3c b8 01 15 bd 5a d7 b2 be
       -0.04296656 0.017443812 -0.036378592 -0.34929925
0000d0 7d 66 94 3e 99 c7 17 bd 26 8d 5f bd a2 f7 c8 bc
       0.28984442 -0.037055586 -0.05457797 -0.024532143
0000e0 fa 36 8c 3e 23 97 b4 3d 49 ec b4 bd 89 3d 82 bd
       0.27385694 0.088178895 -0.0883413 -0.06359393
0000f0 3f 97 93 bd c8 f6 a9 bc 8c 83 b5 ba a7 12 50 bd
       -0.07206582 -0.020747557 -0.0013848408 -0.05079904
000100 46 dd ae 3d 74 f5 8d be ef 19 0c 3d 96 ed 1e be
       0.08538298 -0.27726328 0.03420442 -0.1552032
000110 d5 ba c3 3e 44 50 b7 39 1a 3e c9 bd 96 45 46 3d
       0.3822848 0.00034964283 -0.09826298 0.048406206
000120 7c 89 d0 bd 7e 0f 1c be 96 ca 82 bd 56 5c b1 3d
       -0.10182473 -0.15240285 -0.063862965 0.0866019
000130 b4 ad 85 be 8c 79 c2 3a 59 4a e1 3d 4c 25 28 3e
       -0.26109087 0.0014837249 0.11000509 0.16420478
000140 bb 6c b6 bd 2b 90 3e 3e 26 02 87 bd bf 21 c4 3d
       -0.089074574 0.18609683 -0.06592207 0.09576749
000150 6e a7 10 3c 18 2a 7d be dc 11 00 bc 6c 9d ed 3d
       0.008828981 -0.24723089 -0.007816758 0.116022915
000160 7e 75 e1 be 1c b1 a1 bd 40 43 ee 3e a9 11 be 3e
       -0.44034952 -0.07895109 0.46535683 0.3712285
000170 15 9b 2f bf d5 e7 64 bd d8 6f 7d 3c 96 24 29 be
       -0.6859601 -0.055885155 0.01546856 -0.16517863
000180 fd f5 9a bd 20 50 0d be de 47 bc 3d 9c 8f c0 bc
       -0.0756645 -0.13800097 0.09193395 -0.023505978
000190 21 9d 02 bb d2 2e 01 be c3 3a a4 bd 29 9a 51 3e
       -0.0019930082 -0.12615517 -0.080190204 0.20468964
0001a0 af c3 ef 3d 59 59 26 be c0 b9 f7 3d 12 d7 2e bd
       0.117072456 -0.16245021 0.12095976 -0.042685576
0001b0 c8 69 80 bd 3d 18 36 3e 6f 03 0b 3e 2e 3f bf bd
       -0.06270176 0.17782684 0.13575529 -0.093382224
0001c0 b9 52 47 be 83 dc df bd 90 5a 1f bc 51 63 67 3e
       -0.1946515 -0.10930731 -0.009726182 0.2259648
0001d0 14 89 9b 3d 9d b9 19 be 29 57 91 bd 57 5c 06 3e
       0.07594505 -0.15012212 -0.070967026 0.13121162
0001e0 d1 ae 45 3e e7 f5 9c 3e 61 98 1e be 7a bb 06 be
       0.19304968 0.3065636 -0.15487815 -0.13157454
0001f0 2f b2 52 be b5 84 31 3e 34 42 42 3e 82 0b 61 bd
       -0.20575784 0.1733578 0.18970567 -0.054942615
000200 e6 8b 6d 3e b1 40 b2 bd f8 ee 7e 3d af de 52 3e
       0.23197898 -0.08703745 0.062239617 0.2059276
000210 d2 67 6a 3e 15 f0 a8 bd 6a 7d ed bd 6d 62 cd be
       0.22891167 -0.08248917 -0.115961865 -0.40114155
000220 96 65 21 be 82 26 4d 3e 59 47 14 3e 85 a0 87 3e
       -0.15761408 0.20034221 0.14480342 0.26489654
000230 71 c8 14 3e 07 cd b9 3d de b5 9f 3d 8d 54 dc 3c
       0.14529587 0.09072309 0.0779836 0.026895786
000240 27 65 37 bd f8 39 47 be 7f 56 b1 bd b6 b7 45 bd
       -0.0447742 -0.19455707 -0.08659076 -0.048270904
000250 e6 76 09 3e cb c9 04 be 62 9c 1b be 52 52 13 3e
       0.13424262 -0.12967603 -0.15196374 0.14386871
000260 06 1c 71 be 4d fd 22 bc b6 f6 1e 3e 67 89 48 be
       -0.23545846 -0.009948087 0.155238 -0.19583665
000270 04 59 82 be 28 e8 0d be 53 73 7d 3e 3e cb 61 bc
       -0.2545854 -0.13858092 0.24751024 -0.013781367
000280 92 ff 89 3e 0f e2 8a be 36 53 06 3b f4 2e b1 bd
       0.26952797 -0.27125594 0.0020496375 -0.08651534
000290 dc 89 73 3d bd 04 cb bd 63 7b bd 3c 26 fc d6 bd
       0.059457645 -0.09913013 0.023130124 -0.10497312
0002a0 1d 19 86 3d b5 6d b1 bd 19 29 f7 3c b9 d2 01 3d
       0.06547759 -0.08663503 0.030170964 0.0316951
0002b0 39 fc 28 be cb 6d 36 be 75 b1 06 be e3 0e 8d bd
       -0.16502465 -0.1781532 -0.13153632 -0.06887605
0002c0 09 e4 5d bd cf d6 3f be 54 2d a5 bd 41 8b 24 3e
       -0.05417255 -0.18734287 -0.08065286 0.16068746
0002d0 f9 b9 2c 3e db 41 81 bd 31 d7 6c be 78 57 37 3b
       0.16867818 -0.06311389 -0.23128964 0.002797572
0002e0 01 9b 19 3e ca 66 5f 3e aa 37 a4 3e 26 fe e3 bd
       0.15000536 0.21816555 0.32073718 -0.11132459
0002f0 c9 0b 0c ba 72 ed 4c 3e 2a 60 ac 3d 4a 0f 01 3e
       -0.00053423323 0.20012453 0.08416779 0.12603489
000300 d2 5e 1a 3e 8b ea 9b 3e 34 89 14 3e dc 2b b8 3e
       0.15075234 0.3045238 0.14505464 0.35970962
000310 1f 8d 27 be 83 28 61 3e 01 31 e7 be f1 94 33 bd
       -0.16362427 0.2198811 -0.45154575 -0.043843213
000320 08 3b fd be ea 15 2c 3e ad e2 9d 3d cc 02 16 3d
       -0.494591 0.16805235 0.077092506 0.03662376
000330 5b 58 c4 3c 16 5b da bd 78 ae da bd 05 b9 82 be
       0.023967912 -0.106619045 -0.106778085 -0.25531784
000340 c2 f0 a6 3c 0e 59 37 be 8b 4a f4 bd 6f eb ba be
       0.020378474 -0.17905065 -0.119282804 -0.36507747
000350 c5 19 8a bd 4c 71 13 3d 3f fc ba 3e a1 bc 8f 3e
       -0.067431964 0.03599672 0.36520573 0.280736
000360 55 37 34 be b7 2c a7 3e c7 d7 4f 3e e7 c7 e5 bd
       -0.17599232 0.32651302 0.20297156 -0.11219769
000370 02 5c 0e 3d 06 f5 42 3e b4 85 7b 3d 99 03 be bc
       0.034755714 0.19038782 0.061406806 -0.023195075
000380 91 d4 3b 3e 25 0b 39 bd dd 79 49 be 24 25 65 3e
       0.18342806 -0.045176644 -0.19675393 0.2237745
000390 ee 7a 91 3e d8 d3 27 be 56 95 d0 3d 1f ba 8a bb
       0.284141 -0.16389406 0.101847336 -0.004233613
0003a0 dd fd 01 be 4a 1b 5c 3e c9 2c 3b 3e d1 56 bd bd
       -0.12694497 0.21494785 0.18278803 -0.092450745
0003b0 68 f8 f1 bc 7c 03 a6 bc 5a 0d e6 bd 9d 65 0a be
       -0.029537395 -0.020265333 -0.11233015 -0.13515325
0003c0 c8 99 04 3e d1 56 e1 3a 4e 61 ed bd 61 e1 5a be
       0.12949288 0.0017192011 -0.11590825 -0.21375038
0003d0 2a fc 77 3d 1e b1 b0 3e c2 5e 09 3e 59 36 01 3e
       0.060543217 0.3451013 0.13415053 0.12618388
0003e0 2d ad 1a be ac b0 8a 3e 2f 59 da be 7c 6f 9e 3b
       -0.15105124 0.27087915 -0.42646167 0.0048350673
0003f0 fb 0e 56 3c c1 b7 33 be 02 ee 88 3d ad 58 7e bb
       0.013065095 -0.17550565 0.066860214 -0.003881018

bias f4 [150]
000000 bc 99 2c bf c2 ce 8b 3d 31 21 2f be 3a eb 34 be
       -0.6742208 0.06826545 -0.17102505 -0.17667857
000010 34 58 09 bd 27 9d ef 3d cb 16 9d 3d 99 38 13 be
       -0.033531383 0.11699896 0.07670363 -0.14377059
000020 a0 b0 5f 3e 90 58 1e bf 67 b4 c9 3d 75 12 92 3d
       0.21844721 -0.61853886 0.09848862 0.07132427
000030 74 b2 34 be 53 e0 39 3d 19 8e fe bd 1f b4 81 be
       -0.176462 0.045379948 -0.12429447 -0.25332734
000040 80 5f 43 be 4a 2c 64 3d eb 56 1c 3e a9 74 2c be
       -0.19079399 0.0557063 0.15267532 -0.16841377
000050 56 64 cf 3e c3 7a 7c bb 03 7b 3d be 7a 75 80 3e
       0.40506238 -0.003852532 -0.18503956 0.25089628
000060 d1 65 42 be 7c b3 83 3e e5 48 e5 bc da c0 2a be
       -0.18984152 0.25722873 -0.02798886 -0.1667513
000070 18 48 f5 bd 94 e6 66 bd 17 98 bf 3e 64 14 0b 3d
       -0.119766414 -0.05637224 0.37420723 0.033954993
000080 9b 26 be 3d bc dc 47 bc ad 9b 4e 3c 7c ee cf bc
       0.09284707 -0.012198623 0.012610358 -0.025382273
000090 b0 36 51 3b ff 34 7e bb 10 e1 0a bd a2 72 37 3e
       0.0031923465 -0.0038788912 -0.033906043 0.17914823
0000a0 3a 45 88 3e 98 cf 59 bd b0 29 ce 3c 0c 2e ed 3d
       0.26615316 -0.053176492 0.025166363 0.11581048
0000b0 ba e2 8b be f9 12 0f 3e a7 56 93 3e 31 cc e1 3b
       -0.27321416 0.13972081 0.28777048 0.0068907966
0000c0 ad cd 5b 3d e3 d9 f8 3d b7 9f 1f bf 3e 95 1c 3e
       0.053662945 0.121509336 -0.6235308 0.15291306
0000d0 49 85 00 be 17 e8 4e 3d 66 82 15 3f af 5d 12 3e
       -0.12550844 0.050514307 0.584021 0.1429355
0000e0 c0 0f 81 3d d3 2c 4e be fb de e1 bc 77 fe 4d be
       0.06301832 -0.20134287 -0.027572146 -0.20116602
0000f0 a7 c2 27 be 20 ea 23 be df a9 20 be c7 c5 7d be
       -0.16382848 -0.1600728 -0.156898 -0.24782477
000100 43 39 f7 bd 56 60 68 bd df ef c5 bc ad d4 61 be
       -0.12071469 -0.056732498 -0.024162231 -0.22053786
000110 03 6e 23 bd e4 d0 7d 3c 0e 6b ee bd c0 7c 38 be
       -0.039899837 0.015491698 -0.11641513 -0.18016338
000120 72 41 3f bd 77 f1 10 bd 7c d4 df 3c fd 9b 59 bd
       -0.046693273 -0.03538653 0.027323 -0.053127278
000130 6a 4b 78 3e c3 2f 63 3d 94 b5 e2 3d 2f 45 c8 3d
       0.24247518 0.05546547 0.110697895 0.09778821
000140 78 c3 68 3e 04 12 3d be c9 92 f7 3d fc f8 f1 bd
       0.22730815 -0.18463904 0.12088544 -0.11815068
000150 37 3f b3 3d cc b9 8f bd 18 be 68 3d 35 1f 07 bc
       0.08752292 -0.0701786 0.056821913 -0.008247186
000160 fd 30 a1 3e 69 84 1c 3e f2 3e cf 3d cf 22 99 3b
       0.31482688 0.15284885 0.10119428 0.004673339
000170 e3 a3 15 bd 2f a2 2e 3e 03 a9 62 3e bc 18 0c 3e
       -0.036533248 0.17054056 0.22134785 0.1368131
000180 28 7e 43 3d 5c 91 1e bf b3 92 54 be 60 ce 1e 3e
       0.047727734 -0.6194055 -0.20759086 0.15508413
000190 f2 fe b6 3e 30 6e 43 be 85 24 c7 be 4f f1 4d be
       0.35741383 -0.19085002 -0.3889505 -0.20111583
0001a0 4f 4c ed 3c 9c 3a 2d 3d 96 b5 0f be c9 b9 0c be
       0.02896705 0.042292222 -0.14034113 -0.13742746
0001b0 80 f8 26 bf 7e 21 c2 3e 0f 8a c0 3e 72 a4 4d bd
       -0.6522293 0.37916178 0.3760533 -0.050205655
0001c0 87 98 11 be 05 63 47 3d e3 4b f3 3d 9c 6c 92 3d
       -0.14218341 0.048678417 0.118797086 0.07149622
0001d0 4e 6d c3 be cb 69 cf bb a7 cc 1a 3e 63 2a 76 3e
       -0.3816933 -0.00632975 0.15117131 0.24039607
0001e0 03 d7 94 3d e2 7d d8 3d f4 7d 99 3d e3 de c9 3d
       0.07267573 0.10570885 0.07494727 0.098569654
0001f0 1d cc fb 3c 2f e4 69 bc 0f ee ba 3d d8 ff e4 bc
       0.030736977 -0.014275595 0.09127437 -0.027954027
000200 8e c1 1e 3e 59 7e 90 3c 6a 42 23 3c 48 58 31 bd
       0.15503523 0.017638372 0.009964565 -0.043297082
000210 09 ce 88 3e c8 af 31 3e 0c f1 50 3e 23 4d 80 3e
       0.26719692 0.17352211 0.20404452 0.2505885
000220 1f ef 90 3e 0c 9b 3e 3e 4e cf 78 be 38 74 20 3e
       0.28307435 0.18613833 -0.2429783 0.15669334
000230 59 d2 ee 3d 66 b8 0b 3d 0a f5 0f be af 27 ca bd
       0.116612144 0.034111403 -0.14058319 -0.0987085
000240 ee 63 ce bd a5 e3 5c bd e6 9f cd 3e c4 a4 02 3e
       -0.10077654 -0.053928036 0.40161055 0.12758166
000250 7b 1c 75 3d 18 89 8b 3d
       0.059841614 0.06813258

weight f4 [150, 150]
000000 48 34 1c 3d 08 49 e0 3d bc 1f 6d 3d 36 ec 0b be
       0.038135797 0.109514296 0.057891592 -0.13664326
000010 7a 7d a5 3d 8d ef bd 3e 12 e4 c4 3b 26 4a b5 3d
       0.080805734 0.37096825 0.0060086334 0.08852033
000020 b7 25 2d 3d 20 2a e7 bd 3f 91 ea bd ac 3d 29 bc
       0.042272296 -0.112873316 -0.11453485 -0.010329645
000030 0e f8 ca be 5a b8 a4 3e 52 b2 00 3e 91 d3 ce be
       -0.39642376 0.321719 0.12568024 -0.40395787
000040 50 ca 70 be e9 86 17 bc e6 09 73 bc 1b 88 08 3e
       -0.23514676 -0.009248474 -0.014833903 0.1333317
000050 07 6c 0d 3e 18 fd 0f 3f 9d 9e 17 3d 89 4e 9d bd
       0.1381074 0.56245565 0.0370165 -0.07680995
000060 5d 25 fb bc 3b 3b af bd db ab f8 3d 14 b9 9c 3d
       -0.030657465 -0.08556219 0.12142154 0.07652488
000070 4b c8 b5 be ae 56 13 3e d6 8c a8 bd 76 92 2d 3f
       -0.35504374 0.14388534 -0.08229987 0.67801607
000080 b0 b3 19 3e bd 64 d6 bc 89 57 4f be 01 6a 83 3d
       0.15009952 -0.026171083 -0.20248236 0.06416703
000090 42 89 a5 be 4e 4d 08 3e fb e7 c3 3d 4f f6 e2 3d
       -0.32331282 0.1331074 0.09565731 0.11082136
0000a0 d6 e7 89 3d 93 86 54 bd 50 b0 82 bd 99 84 c7 bd
       0.06733672 -0.051886152 -0.06381285 -0.09742088
0000b0 1e 6b c9 bd 83 90 7e 3c 88 4e b2 3d f6 de 62 3d
       -0.09834884 0.015537384 0.08706385 0.055388413
0000c0 fd 1b 77 3c 8b 4e 57 be 15 ca 88 bc 20 0f 93 3e
       0.0150823565 -0.21026056 -0.016697923 0.28722477
0000d0 4c 20 e3 bd 0e 41 e7 3d 20 51 29 3d a3 3f 8e be
       -0.110901445 0.11291705 0.041337132 -0.27782926
0000e0 29 ce 87 3e f3 ae 67 bc 88 26 c2 be 5c 6f a5 3e
       0.26524475 -0.014140832 -0.37920022 0.32311523
0000f0 07 65 1f 3c 13 89 93 3d 40 62 5f 3d a7 7b 34 3e
       0.009728677 0.07203879 0.054537058 0.17625295
000100 a5 a1 09 bc 20 a3 d0 3b 44 d5 00 3e fe 68 8a be
       -0.0084003555 0.0063671023 0.12581354 -0.27033228
000110 ab c9 3b be 11 90 ad be b3 ce a5 bd 03 9b 64 bd
       -0.18338649 -0.33898976 -0.08096065 -0.055811893
000120 1a 02 bb bd 79 06 42 be de 0e 10 be 6a be d1 3e
       -0.0913126 -0.18947782 -0.14068171 0.40965587
000130 8b cc 61 3e f5 a9 14 3e 32 08 26 3e d9 9b ab 3d
       0.22050683 0.14517958 0.16214064 0.08379335
000140 f9 d6 e2 bd d6 4b 35 be 48 ba 42 be 68 ce 01 3e
       -0.11076159 -0.1770471 -0.19016373 0.12676394
000150 46 0e ce bc 6d 97 a0 be 7c aa c6 bd ac 08 d9 bb
       -0.02515329 -0.3136553 -0.09700486 -0.006623348
000160 da df 6b bd b6 0a 22 bd b6 22 4e 3d b5 a7 87 3e
       -0.05758653 -0.039560996 0.05032607 0.26495138
000170 72 d3 a3 bd 39 10 ca 3b c0 ee 61 be f5 d8 80 3e
       -0.07999314 0.0061664847 -0.22063732 0.25165525
000180 4c 86 bd bc a0 62 c6 bd ad 47 24 3c b0 6f e9 3d
       -0.023135327 -0.0968678 0.010026854 0.11398256
000190 19 6a 87 3e 53 46 ae bd 52 cd 6f 3e d6 83 64 bd
       0.26448134 -0.08509507 0.23418167 -0.05578979
0001a0 10 0b af bd 81 ca a1 be 3e 32 86 bd 74 16 11 be
       -0.08547032 -0.3159981 -0.06552552 -0.14168721
0001b0 3a 1c 65 be 91 b4 50 3e a0 7d 94 bc fe 2d dc bd
       -0.22374049 0.2038138 -0.018126309 -0.1075096
0001c0 af 33 31 bd 26 a8 86 3e 49 1a 04 3e bc 5e 6b bd
       -0.04326218 0.26300162 0.12900652 -0.057463393
0001d0 ae 73 db bd f8 91 66 3d 18 1e 83 3c fa f0 7b 3e
       -0.107154235 0.05629155 0.01600556 0.24603644
0001e0 54 e4 57 3e d9 4c 84 3e 19 92 9b bd b4 5f 1c be
       0.21083194 0.2583988 -0.07596225 -0.15270883
0001f0 fa 84 9e 3e b2 25 72 bc 2e aa 9a 3e d0 89 25 3e
       0.30960828 -0.014779495 0.30207962 0.16165853
000200 73 e8 ab 3e 0c d4 a5 bd 5e 61 ce bd 5d d4 cd 3c
       0.33575782 -0.08097085 -0.10077165 0.025125677
000210 fd 55 8a bd 1c f4 90 bd cd 27 52 3e 13 d8 56 3e
       -0.06754682 -0.0707781 0.20522995 0.20980863
000220 58 cc 94 3c c4 fc 2e 3e 26 2d 46 be a2 3f 4e 3e
       0.018163845 0.1708861 -0.1935316 0.20141461
000230 6c 56 e8 bc 4a 40 8c 3a 65 e6 6c be 35 b3 9e 3c
       -0.028361522 0.0010700312 -0.23134764 0.019372562
000240 b4 65 a1 be 82 97 8c bd 69 50 bf 3c e9 ab a6 3e
       -0.31522906 -0.06864835 0.023353772 0.32553032
000250 f5 70 45 3e c1 65 d5 bc 5e d1 a8 bd 08 95 57 3d
       0.19281371 -0.026049497 -0.082430586 0.05263236
000260 94 93 ee bc 3f 7e 79 bd 6c 08 27 be 93 d1 2d be
       -0.029123105 -0.060911413 -0.16311806 -0.16974477
000270 70 cd 0f 3e 1a af 34 3e a5 3e f1 3d 3a 8a f9 bd
       0.14043212 0.17644921 0.117795266 -0.12184568
000280 96 6f c1 3d fd e9 b5 3c 0d 55 ff 3d 03 66 24 be
       0.094451115 0.0222063 0.12467394 -0.1605454
000290 49 21 ef 3d 51 b6 6c 3b a5 9b e1 3d 10 22 da 3e
       0.116762705 0.0036119411 0.11016015 0.42604113
0002a0 78 42 9b be 45 2a 05 bd 82 cb 40 3e ab bd db bd
       -0.3032415 -0.032511014 0.18827632 -0.10729536
0002b0 43 b0 35 be 1b 68 e7 3d e7 99 c4 3d a5 43 da bd
       -0.1774302 0.112991534 0.09599667 -0.106574334
0002c0 49 d1 1c 3e dc 5c da 3e 18 93 bc bd 65 02 92 bd
       0.15314211 0.4264897 -0.092077434 -0.07129363
0002d0 25 6c c2 bd 67 79 da 3d e1 cb 02 be 14 37 95 3e
       -0.09493283 0.10667687 -0.12773086 0.29143584
0002e0 c9 60 b8 3c 36 90 5b 3d c9 de 41 bd ec ca 3c be
       0.022507088 0.053604327 -0.047331605 -0.18436784
0002f0 5d 08 58 bb ec c2 5b 3d ee 3d 4f bc 98 83 ee bd
       -0.003296397 0.05365269 -0.0126490425 -0.11646193
000300 f6 c8 7d be 39 1e db be a9 9a 12 be 13 4f b7 3d
       -0.24783692 -0.42796496 -0.1431681 0.08950629
000310 e5 6e cc 3e 8f 54 fc 3d c5 9e 70 3e fb a9 05 3e
       0.39928356 0.12320816 0.23498066 0.13053124
000320 2d 33 ae 3d 79 fe cf bd c2 7a 9e 3d 18 31 07 be
       0.08505855 -0.10155959 0.07738258 -0.13202322
000330 8b ed 0d 3e ec 14 1c be f4 84 c0 3d 17 fd dc 3d
       0.13860147 -0.15242356 0.09400359 0.107904606
000340 7b 40 dd bd 85 7e c7 bc 3c 44 7e 3d 89 71 40 3d
       -0.10803314 -0.024352321 0.062076792 0.046983276
000350 59 28 b2 be 81 9c 7f 3b 61 10 3e 3e 36 ef 24 be
       -0.34796408 0.0039003196 0.18560936 -0.16106877
000360 07 32 8b 3e b6 b5 4e 3e 96 d5 c0 3d 45 fe 3e be
       0.27186605 0.20186505 0.09415738 -0.18651684
000370 b7 46 f9 3e f0 79 d4 bd 3e 27 71 3d e6 c0 57 be
       0.48686764 -0.1037482 0.058875315 -0.21069679
000380 5a 2f a7 3e 5f 75 e4 3d c1 4d b0 bc 38 4c 5e 3d
       0.32653314 0.11155199 -0.021521451 0.054271907
000390 3f 1f 58 bd 5c 0d a4 bd 0e 12 cb bd 21 69 88 3e
       -0.052764174 -0.080103606 -0.09915553 0.26642707
0003a0 fb 77 d7 3d b5 7b 25 3e f5 6f 21 be 2d 50 8d be
       0.10520931 0.16160472 -0.15765364 -0.27600232
0003b0 98 3e ad 3c 5a fc 6a bb 42 03 8a 3d 3b da da 3c
       0.021148011 -0.003585598 0.06738903 0.026715389
0003c0 52 fc 8f 3e b3 d7 54 3d 2c b9 cb 3d f7 2f 68 3d
       0.28122193 0.05196352 0.09947428 0.056686368
0003d0 a6 ff 87 bd 16 21 d9 bc ad 05 d3 bd 50 c9 51 3e
       -0.06640558 -0.026505034 -0.10303817 0.20486951
0003e0 3c ff 49 3e 24 dc bb bd 03 22 1b be ae 26 89 be
       0.1972627 -0.09172848 -0.15149693 -0.26787323
0003f0 e7 23 9e bd 00 2c b1 bd 31 4a e4 3c 2d e1 aa bd
       -0.077216916 -0.086509705 0.027867408 -0.0834373

bias f4 [150]
000000 d4 af c0 3d e0 ee 51 bd ac 78 5f be f9 e9 1f 3e
       0.094085366 -0.0512532 -0.21823376 0.15616597
000010 19 86 e4 3e a4 e9 10 bd 0a 20 91 bd 90 dd aa 3e
       0.44633558 -0.035379067 -0.07086189 0.33372164
000020 77 30 a1 3d 05 14 b4 3c 0b f3 eb 3d 99 aa 1b be
       0.07870572 0.021982202 0.11520966 -0.15201797
000030 58 22 f1 bd 7a 87 a2 3e 89 92 4f 3d 37 4f 12 be
       -0.11774129 0.31743985 0.050676856 -0.1428803
000040 ce 9c cd bc 3e 6b b1 3d 96 38 16 3e 6e 7a e7 be
       -0.025099184 0.08663033 0.14670023 -0.45210594
000050 e7 b4 3b bd b7 25 6c 3d 54 97 ee 3c 46 67 86 bd
       -0.04582682 0.057653155 0.029124893 -0.065626666
000060 f0 10 86 3e 4c 3f c2 3d a5 7f 55 be 9e 38 20 3d
       0.26184797 0.09484729 -0.20849474 0.039116494
000070 7a c0 90 3e a9 a1 fe 3d 2d 39 d8 bb d6 9a 0d be
       0.28271848 0.12433178 -0.0065986128 -0.13828596
000080 93 5a 0f 3e 77 1b a3 3d 6a 86 7a 3e c5 08 0a 3e
       0.13999395 0.07964223 0.24465337 0.13479908
000090 6b 42 c9 bd ff e7 bc 3e 04 d5 55 3e ea bc 89 3e
       -0.09827121 0.3689575 0.2088204 0.26901942
0000a0 35 81 cf 3e d6 dc 5f 3e 62 b4 d6 bd a9 25 61 be
       0.40528265 0.21861586 -0.10483624 -0.21987022
0000b0 38 c5 a5 3c 9a 3e 1e be dc 07 7a 3d 67 98 6b bd
       0.020235643 -0.15453568 0.06104265 -0.05751839
0000c0 c4 da 98 3e 87 12 ad bc f4 25 8c 3e cc 70 8c be
       0.29854405 -0.021126999 0.27372706 -0.27429807
0000d0 9a ce 3a 3e 48 72 89 3e 35 18 6f be 6a 06 08 be
       0.18242875 0.26845002 -0.23349078 -0.13283697
0000e0 6e a2 2d 3e e2 5e 28 3e 2d d0 47 bd 1c 81 ac 3e
       0.16956493 0.16442445 -0.048782516 0.33692253
0000f0 28 63 75 3d 33 f0 02 be 60 41 d8 3d 41 99 18 3d
       0.059909016 -0.12786941 0.10559344 0.03725553
000100 d3 f1 b8 bb 3d a4 73 be 02 35 78 3c 7c 15 0d be
       -0.005644062 -0.2379312 0.015149357 -0.13777727
000110 05 94 9c 3e 52 5a b2 bd 9c 38 f7 bd a1 4b 21 3e
       0.3058168 -0.087086335 -0.12071344 0.15751506
000120 81 82 43 3e 05 d3 90 bd 3d 90 23 be 63 9f 58 3e
       0.19092752 -0.07071499 -0.15972991 0.21154551
000130 04 82 fc bd 07 1a 83 be 7c 62 43 be 73 f8 33 3e
       -0.12329486 -0.25605795 -0.19080538 0.17575245
000140 12 8d 95 3e d3 c9 80 bd 2c 0a ef be f6 e0 95 be
       0.2920919 -0.06288495 -0.46687448 -0.29273194
000150 73 d2 21 bd d4 3a f8 3a 87 e7 1d be 35 ad d4 3e
       -0.03950734 0.0018938431 -0.15420352 0.41538396
000160 74 90 70 3d 04 46 8a be 44 8e 9a bb 51 8d ba 3e
       0.05873151 -0.27006543 -0.0047166664 0.3643594
000170 3a dd 60 be 70 dc c0 bb 78 bc be 3d 3d af 9a 3c
       -0.21959391 -0.005885653 0.09313291 0.018882388
000180 47 23 18 bd 2d 95 70 bd 7f 7c 82 3e 85 72 fd 3d
       -0.037143018 -0.058736015 0.25485608 0.123753585
000190 11 ae a6 bd 31 0a bc 3c 23 80 04 3e 90 f1 e5 be
       -0.08138669 0.022954078 0.12939505 -0.4491086
0001a0 8a 7a a6 be 9e cb 16 bb af 78 dd bd d1 de c5 bd
       -0.32515365 -0.002300955 -0.10814034 -0.096616395
0001b0 98 25 b8 be 6f 36 d2 bc 9e e8 58 3e d3 26 98 3e
       -0.35966182 -0.025660722 0.21182486 0.2971712
0001c0 85 24 cf 3d 7d e1 f4 bd 07 f9 91 bd f6 ea e2 3d
       0.101143874 -0.11957071 -0.07127576 0.110799715
0001d0 1c fd 5d 3d 8b cd d7 be 97 98 be 3d ea f5 68 be
       0.054196462 -0.42149004 0.09306448 -0.22750059
0001e0 ae ac c8 bd 65 06 2e 3e 96 8f 35 3e 7c 5e ec 3c
       -0.09798561 0.16994627 0.17730555 0.028853647
0001f0 3c 88 6a bc 5e 4c 33 bd 41 b7 ca be d8 ed 0a be
       -0.014314707 -0.043774 -0.39592937 -0.13567293
000200 8c 07 74 3d fa 6b d2 3c 88 f0 57 be b4 89 73 3d
       0.05957751 0.025686253 -0.21087849 0.059457496
000210 2f 92 93 bd bc a4 c6 3e 7d 2f be be d7 53 f4 3d
       -0.07205617 0.38797557 -0.37145606 0.11930054
000220 87 91 29 be 51 1a a3 3d 6e d9 e1 be 24 fb c7 bd
       -0.1655942 0.07964004 -0.44111198 -0.09764698
000230 93 6c e3 bd ac 53 0e be 22 b6 04 3e 46 f1 19 3e
       -0.11104693 -0.13899106 0.12960103 0.15033445
000240 d7 a7 e0 bd f3 8b ac bd e7 6c 9f bc 4e 0d e1 3d
       -0.10969513 -0.08425131 -0.019461108 0.10988866
000250 86 90 51 3d ac 65 0b 3e
       0.05116322 0.13613003

weight f4 [64, 4]
000000 f6 7b d7 3d ee 17 6a bf df 7b 59 3d 13 19 14 be
       0.105216905 -0.91442764 0.05309665 -0.1446269
000010 11 6e 3d bc 23 e7 28 3e 4b d3 1b be bc 12 c7 be
       -0.011561886 0.16494422 -0.1521732 -0.3888148
000020 42 3b ae be 38 1b 3b bf f1 66 9e 3d 1e e4 71 3e
       -0.34029585 -0.7308841 0.07734478 0.23622176
000030 12 72 d0 be 83 9e 3a bd e3 3f 4c 3e 8e 46 c7 3e
       -0.4071203 -0.045561325 0.19946246 0.38921016
000040 2d 3e fb be 07 89 26 be 6b 45 6f 3e 79 ce 7e 3b
       -0.49070874 -0.1626321 0.23366325 0.0038880392
000050 40 cf 0e bd f3 a2 9c be db 00 a2 be 39 f2 41 3e
       -0.034865618 -0.3059307 -0.31641278 0.18940057
000060 bd c8 08 3e e7 22 8a bd 98 26 29 3e bf ce b3 be
       0.13357826 -0.06744938 0.16518629 -0.35118672
000070 0a fd 52 3e e1 56 15 be eb 0d ca be 97 e2 04 3e
       0.20604339 -0.14583923 -0.39463744 0.12977062
000080 6a b7 b3 3e 1b fc 69 be 29 22 87 bd b4 be c9 3e
       0.3510087 -0.22850077 -0.065983124 0.39403307
000090 fd de 44 bd f4 63 33 be 5d 90 29 be ac 60 89 3e
       -0.04806422 -0.17518598 -0.16558976 0.26831567
0000a0 56 ea c8 bd 6f 37 02 be 3b 5d 0c bf aa 0f 24 3d
       -0.09810321 -0.12716459 -0.5482976 0.040054
0000b0 3a d9 3d bf 24 96 6b 3d 3f 13 36 3d 93 33 14 be
       -0.74159586 0.057516232 0.04445195 -0.14472799
0000c0 14 20 b5 be e0 f9 d7 3e 91 6c 0a 3e cd f1 75 be
       -0.35376036 0.42182827 0.13517977 -0.24018021
0000d0 f1 13 e5 be 67 2e 06 3e c7 9d bf bd c7 c2 27 3d
       -0.44741777 0.13103639 -0.093562655 0.04095724
0000e0 49 0a ec bd 92 04 ec 3e d1 06 a0 bd 2a 59 cf be
       -0.11525399 0.46097237 -0.078138 -0.40497714
0000f0 ea b5 a1 3e 79 ff f2 3d 9f ba 46 3e bc 1f d8 3e
       0.31584102 0.11865134 0.19407128 0.4221171
000100 7c b8 81 3e ec 23 aa bb ca c5 f1 be fa fd da 3c
       0.25336063 -0.0051922705 -0.47221214 0.026732434
000110 0e c9 77 be 77 b4 98 3c 3f 5e bd be 17 c4 db 3e
       -0.2419779 0.01864074 -0.36985967 0.42923042
000120 f6 93 92 bd 72 95 e2 bd c9 e5 43 bd 0e 27 a5 3e
       -0.071571276 -0.11063661 -0.047826562 0.3225636
000130 bc fc c7 3e 2f b2 3d 3d 15 2a f7 3d 74 8a 84 be
       0.3906001 0.046312507 0.120685734 -0.2588688
000140 5d c1 43 bd d6 d2 06 be 84 28 bf 3e 65 bf 73 3b
       -0.047791827 -0.13166365 0.37335598 0.0037192937
000150 9c 24 ea 3e bc 2b 23 3e 7a 56 51 be 09 16 0e be
       0.45731056 0.15934652 -0.20443144 -0.13875593
000160 1c 56 00 be 94 06 7a 3f 26 6f b4 bd cf cb dd 3d
       -0.12532848 0.9766629 -0.088102624 0.10829889
000170 49 4e 1f 3f b1 da f9 be 96 b0 42 3e 29 75 35 3e
       0.6222883 -0.4879966 0.19012675 0.17720474
000180 74 a7 3c be 1a da 07 bd f6 ac c9 3e ec 0e a1 3e
       -0.18423253 -0.033166982 0.3938977 0.31456697
000190 cc e2 af be ba 1e 85 be dd 53 07 3e 6a b4 08 bd
       -0.3435272 -0.26000005 0.13215585 -0.03337518
0001a0 8a 51 46 3e b3 12 18 be eb 0c 1d 3e fe 05 a1 3e
       0.19367042 -0.14850883 0.15336959 0.31449884
0001b0 69 c1 6c be d3 d3 c3 3e 8a b2 05 3a 32 86 d7 be
       -0.23120655 0.38247547 0.0005100152 -0.4209457
0001c0 ae 86 93 3d 63 da be 3d 94 a7 e9 3e cd 31 3f 3e
       0.072034225 0.09318998 0.45635664 0.18671341
0001d0 fa 33 4d be 80 9f f9 bd 2d 5b 72 be 26 73 76 3d
       -0.20039359 -0.12188625 -0.23667593 0.060168408
0001e0 aa 9e 75 be ae 56 6b 3e 5b 07 09 3e 9d d8 fb be
       -0.23986307 0.22982284 0.13381712 -0.491887
0001f0 0c 8a 93 be 52 9b b9 bc 94 87 43 be f0 81 c5 be
       -0.2881626 -0.02265707 -0.19094688 -0.38575697
000200 e7 b8 3a be ff e2 53 3e 6a 72 a6 3e 47 18 bc bc
       -0.18234597 0.20692061 0.32509166 -0.022960795
000210 1f 97 47 bf 9b 31 36 be 70 9c 30 bd 35 1b b3 3e
       -0.7796497 -0.1779236 -0.04311794 0.34981695
000220 9b 50 a8 3d 15 23 9b 3d 1a ec 1e bf 58 1a 2e 3e
       0.08218499 0.07575051 -0.6207901 0.17002237
000230 98 c2 20 3f 7d 87 68 be 41 ed 17 bd 3b 92 17 3d
       0.62796926 -0.22707935 -0.037091497 0.03700469
000240 32 dd 3a 3f 4b 41 ac 3e 93 f8 b7 3c 4a 3d 67 bb
       0.7299377 0.33643565 0.022457397 -0.0035284334
000250 4f cf 21 3e 6c 43 2d bd 8c ef a0 3e 8b a1 18 3e
       0.15801738 -0.042300627 0.3143276 0.14905374
000260 b7 3a d2 be 10 30 30 3e f0 79 9a 3e 22 ee dc 3d
       -0.4106042 0.17205834 0.30171156 0.10787608
000270 f9 fb 9d be 7f 68 97 be fe 1b af 3e d0 17 d5 bc
       -0.30856302 -0.29571912 0.34201044 -0.026012331
000280 d8 36 d9 bd b2 dc 9a 3c 74 18 a7 3e 76 37 b8 3c
       -0.10606164 0.018904064 0.32635844 0.022487383
000290 41 d2 91 be 17 b9 9f be 00 09 ce be fa 21 b6 3e
       -0.28480724 -0.311959 -0.4024124 0.35572797
0002a0 ac f8 46 3d d9 9f 53 3e 83 ae 6f 3d 27 0b 1b bf
       0.048576996 0.20666446 0.058516037 -0.6056389
0002b0 c3 cb 07 3e e5 0a 97 bd 69 6b c0 3e 60 7f e1 3d
       0.13261323 -0.07375125 0.37581947 0.11010623
0002c0 4c 88 cb 3c 6d 8a ba bd 69 65 dc 3d 2b 2e e2 3e
       0.024845265 -0.09108434 0.1076153 0.44175848
0002d0 44 4c ba 3e b6 2a 82 3e b7 b3 9e 3e 99 ea b5 be
       0.3638631 0.2542321 0.30996487 -0.35530546
0002e0 82 bc 5b bd 2f c9 ad be d6 7a cd 3d d9 85 0e 3e
       -0.053646572 -0.33942553 0.10033195 0.13918246
0002f0 eb 71 0f 3e 67 2f 14 be 41 51 fb 3e 2d 02 89 3e
       0.140083 -0.14471208 0.4908543 0.26759472
000300 b8 c2 25 3e be 4a f9 3e e6 04 81 3e 8d 09 27 3e
       0.1618756 0.48689836 0.2519905 0.16312237
000310 e6 ce 12 bf 8b 55 a4 bd 6b 71 89 be 1c b5 1c 3e
       -0.5734695 -0.080241285 -0.26844344 0.15303463
000320 f2 cb 11 be 6f 56 80 3e 39 56 8b 3e 16 80 9a be
       -0.14237955 0.25065944 0.2721422 -0.30175847
000330 c2 53 b9 3e c7 1a 47 3e e4 93 7c 3e 1d 58 e5 3d
       0.36196715 0.19443808 0.24665791 0.11198447
000340 27 4b b8 3e 23 fc 89 be 31 53 b8 3e 62 3c f9 3e
       0.35994837 -0.26950178 0.3600097 0.4867888
000350 79 37 ad bd 70 54 9a be 53 a2 b2 be 50 2f 44 bd
       -0.08457846 -0.30142546 -0.3488947 -0.047896683
000360 e3 3d b5 3d dc 32 6b bc a4 f4 fc 3e 5e 89 07 be
       0.088496946 -0.014355388 0.49405396 -0.13235995
000370 ef 7f 59 3e 5d 8b 8b 3d a4 55 99 3e ff f7 2a be
       0.21240209 0.06813691 0.2994815 -0.16696166
000380 a2 a0 d9 3c 76 e6 b0 3b d8 62 f2 3e ff 07 c1 be
       0.026565854 0.005398567 0.47341037 -0.37701413
000390 ca 0c 85 3e 7f 02 ae 3e be ba dc be 2b 20 5d bd
       0.2598632 0.3398628 -0.43111223 -0.053985756
0003a0 29 22 cb 3b db ea b8 be 0f 14 4c be 27 89 3a be
       0.0061991406 -0.3611668 -0.19929527 -0.18216382
0003b0 7b 9f 7c be f8 2a 1d be 6a ce c6 3e 9a 8f 80 be
       -0.24670212 -0.15348423 0.38829356 -0.2510956
0003c0 71 4d 05 3e 6f ac 38 be 86 31 c1 3e 7b 6d 0d 3f
       0.13017823 -0.18034528 0.37733096 0.5524518
0003d0 82 5c 0d bf 75 9b ad be 52 d4 12 3c 28 fd fe 3d
       -0.5521928 -0.33907667 0.008961754 0.124506295
0003e0 af ec 4f 3e 0d e9 ab bd a7 8b 4e 3e 2f ea d5 3e
       0.20305131 -0.0839406 0.2017046 0.4178023
0003f0 1b 49 6f bd 1b f0 d3 3e d6 e7 17 3e 45 df 32 be
       -0.05841933 0.41394123 0.14834532 -0.17467983

bias f4 [64]
000000 4a f4 6c 3d b8 db 7d 3c 7a f0 c1 bc 54 01 9a bd
       0.05785016 0.01549428 -0.023674238 -0.075197846
000010 3d e5 30 bd 2f 4a 56 3d a6 26 7d bd 09 96 9f 3d
       -0.04318737 0.05231684 -0.061804436 0.07792289
000020 85 05 50 3d 6c 04 1f bb 41 f2 f0 3d c3 12 a0 bd
       0.050786514 -0.002426411 0.11764956 -0.078160785
000030 a1 6b 7b bd 8a 62 c5 bb 9c d1 ba 3b 15 db 1f 3d
       -0.06138194 -0.0060237097 0.005701257 0.039027292
000040 76 b0 08 3e 28 ac 2b 3d 46 a4 75 3d f6 24 23 3c
       0.13348565 0.041912228 0.059971116 0.009957543
000050 fe e8 d0 bd 25 30 9f 3d d9 17 a8 3c 00 0c 0f 3c
       -0.1020069 0.07772855 0.020519184 0.008730888
000060 e4 22 86 bd 0c 84 c4 bd 9b 73 00 3c e1 fe ca bc
       -0.065496236 -0.095954984 0.0078400625 -0.024779739
000070 43 6d 87 bd e7 a2 1d 3d 5b 9e 83 bd 4a 4c 43 3d
       -0.06612637 0.038485434 -0.06426688 0.047680177
000080 81 74 f5 bd 94 c7 e6 bc b4 ba 1f 3e 1d eb 84 3d
       -0.11985112 -0.028171338 0.15598565 0.06490157
000090 80 8b c8 3b 76 e6 8f bc 0b 72 ec bd d3 b2 42 bc
       0.0061201453 -0.017565947 -0.115451895 -0.011883455
0000a0 80 73 92 bd 7d 61 ce 3d f6 c7 7b bc c3 ee 42 bd
       -0.07150936 0.10077188 -0.015367499 -0.047590982
0000b0 69 8d df ba 6f c7 2e bd 49 b0 47 bd 77 32 d6 bd
       -0.0017055693 -0.042670663 -0.048752103 -0.10458844
0000c0 c1 1d 0e bd 0e 22 5e 3c 1d a1 bb bd 59 27 74 bd
       -0.034696344 0.013557924 -0.09161589 -0.059607837
0000d0 b4 6e e1 bc 11 42 56 3c f4 cd 91 bd 2c f0 dc bc
       -0.027518608 0.013077275 -0.071193606 -0.026969992
0000e0 54 6c 86 bd 6f 84 e8 3d 64 b2 8b 3d 33 9c 9a bd
       -0.06563631 0.11353385 0.06821135 -0.07549324
0000f0 7a 11 af bc fd b7 6a bc a9 da d9 ba bd ce 8e bc
       -0.021370638 -0.014326093 -0.0016620952 -0.017432565

weight f4 [64, 214]
000000 94 ca 79 be ae 28 f9 3d 06 f8 c4 3d c5 0e 21 3c
       -0.24393684 0.12165962 0.09617619 0.0098301815
000010 66 69 2a 3e 7e 99 85 3c 32 96 44 bd 52 27 d6 3c
       0.16641769 0.016308542 -0.0479948 0.026141796
000020 87 7b a0 3d c5 42 da 3d d2 f9 5c bd eb 4f ec 3d
       0.07836061 0.106572665 -0.053949185 0.11538681
000030 ed 6d f9 bc 0b 22 e3 3c 8f 26 1a be e7 08 8e bd
       -0.030447925 0.027726194 -0.15053771 -0.06935292
000040 1b 71 d5 bd cc cc ba bd bc 7d db 3c 3d be 12 3e
       -0.10421964 -0.09121093 0.026793353 0.14330383
000050 86 d1 e9 bc 4d 84 0c 3e f8 69 fa bd f6 72 af bd
       -0.028542291 0.13722344 -0.12227243 -0.08566849
000060 c4 8b 74 bd fd 67 a7 3d c2 98 44 3c 8c 1d 24 3e
       -0.059703603 0.08174131 0.011999311 0.16026896
000070 ae 1b 05 3e 3f ab 04 3e 6b 18 93 3d 74 fb 0f 3d
       0.1299884 0.1295595 0.07182392 0.035151914
000080 39 b0 98 3c 84 e0 ab bb e2 02 6c be bb 83 3c 3e
       0.018638717 -0.00524527 -0.23047975 0.18409626
000090 01 f0 2e be e2 ab 62 bd 9a a1 5d be 02 90 11 bd
       -0.17083742 -0.0553397 -0.21643677 -0.035537727
0000a0 df 1e 22 3e 26 71 26 be 36 40 ae bb 44 6f 22 3d
       0.15832089 -0.162541 -0.005317713 0.039656892
0000b0 45 15 50 be df 4a 01 3e b7 86 0d be 61 e0 0c 3c
       -0.20320614 0.12626217 -0.13820921 0.008598418
0000c0 44 bd d8 bd 0e b9 01 3e d1 3d 32 3e 32 b6 29 be
       -0.105829746 0.12668249 0.17406394 -0.16573408
0000d0 da a4 64 3e d2 26 06 bd 90 f5 0b 3d 6c ba 60 3c
       0.22328511 -0.032751866 0.034169734 0.013716321
0000e0 0a ed 99 3e a7 bb 0c be f7 da b9 bd 96 6f 96 bd
       0.3006366 -0.13743459 -0.09074967 -0.07345502
0000f0 14 1f 9e bc 77 3d 86 3d 54 21 73 bd d1 c3 42 be
       -0.019301929 0.06554692 -0.059357956 -0.1902001
000100 3f 22 60 3d 43 ba 0e be ab a3 5c bd 21 c7 9b 3d
       0.05472016 -0.1393824 -0.053867023 0.0760634
000110 57 0b b6 3d 13 ff 7a 3e a3 15 22 3c 7b 9a 7b 3e
       0.08888882 0.24511366 0.009892854 0.24570648
000120 40 e5 3d be 6a 7e 7b be 54 f2 9c 3b 25 2b 13 3e
       -0.18544483 -0.24559942 0.00478963 0.14371927
000130 eb aa c3 3d cf 52 10 bd c6 2b d2 bc ae d6 e3 3c
       0.095540844 -0.035235222 -0.025655638 0.027812328
000140 c2 fb 20 bc d1 ca ea 3c e3 10 3b bd 26 55 0e 3e
       -0.009825649 0.028661164 -0.0456704 0.13899669
000150 8c ba 32 3d 0b 5a af bd 4a 7e 82 3e df 5e 62 be
       0.043634936 -0.08562096 0.25486976 -0.22106503
000160 39 c0 0a be 01 04 50 3e 54 d7 be 3d a9 3c 72 3c
       -0.1354989 0.20314027 0.09318414 0.01478497
000170 30 86 f7 3d a9 af fa 3c ad 2c 6c bc 40 ce ea bc
       0.12086141 0.03060134 -0.014414948 -0.0286628
000180 e8 0d d9 3b da 92 82 3b 34 a8 d0 3c c8 e1 42 be
       0.006623972 0.003984791 0.02547083 -0.19031441
000190 ad 3f 47 3d 6b ce 49 bd c4 87 3e 3c 59 82 55 bb
       0.04864471 -0.04926912 0.011629049 -0.0032578914
0001a0 8f 96 c8 3c 8a 3a e9 bd 43 01 95 bc 8d 86 03 be
       0.024485854 -0.113881186 -0.018189078 -0.12844296
0001b0 0b aa 6f 3d 40 4a ea bd c7 63 75 bc 65 04 be bd
       0.058511775 -0.11439943 -0.014977402 -0.09278182
0001c0 61 17 16 3e 9c 99 50 3d 47 35 8b bd 72 47 67 be
       0.14657356 0.050927743 -0.06797271 -0.22585848
0001d0 dc 72 a2 3d 3e 2a f6 3b 1c e7 33 bd f2 23 30 3e
       0.07932064 0.00751236 -0.043921575 0.17201212
0001e0 e0 75 25 bd 82 5f 2a bd 8e f3 72 bd 65 d5 1f 3e
       -0.040395617 -0.04159499 -0.059314303 0.15608747
0001f0 05 53 a4 bd 0b 7d f3 bd 59 83 79 b8 98 3c 88 3e
       -0.08023647 -0.118890844 -5.9488553e-05 0.2660873
000200 71 81 d0 3d 6e 0e 28 bd 17 36 e0 3d 42 ee 08 be
       0.10180939 -0.041029386 0.10947817 -0.13372138
000210 98 0f a4 3d c1 c2 58 3d f7 97 cf 3c 14 20 81 bc
       0.08010787 0.052920107 0.025341017 -0.015762366
000220 90 5a 08 be 09 15 55 3e 98 24 cf bd 57 8e ff 3c
       -0.13315797 0.20808806 -0.101144016 0.031195803
000230 f0 a4 63 bd 10 80 95 bb 50 d0 1f be b1 b6 12 3e
       -0.05557722 -0.0045623854 -0.15606809 0.14327504
000240 a8 7b e4 bd 41 33 f2 bc 4f 42 f3 bc 63 12 6b 3e
       -0.11156398 -0.029565455 -0.029694704 0.22956233
000250 f0 e5 40 3d 94 94 51 3e 02 b9 d6 3d 1a 16 60 bd
       0.047094285 0.20466834 0.10484506 -0.054708578
000260 b6 ef 3c be 67 78 b3 bd e0 9a 78 be 54 a4 e1 3d
       -0.18450817 -0.08763199 -0.2427783 0.11017671
000270 07 6d 65 be 3a 31 27 3e d8 ae 4a 3e 4b 15 06 3e
       -0.22404872 0.16327372 0.1979326 0.1309406
000280 5f 25 5c 3e fe a7 0f be 20 d3 64 be 91 c6 de bd
       0.21498631 -0.14028928 -0.22346163 -0.10877717
000290 ce 7e 8e 3c 44 f3 9d 3d 1e fd e3 3d e0 d7 49 39
       0.01739445 0.07712415 0.11132263 0.00019249273
0002a0 53 53 40 3e 18 f0 f0 bd fa 39 d8 bb 39 3f 7a 3e
       0.18781786 -0.11764544 -0.006598708 0.2443818
0002b0 e6 68 ee bd 82 7f 15 3e 7d a6 32 be 77 9c 59 be
       -0.116411015 0.14599422 -0.17446323 -0.21251093
0002c0 d3 66 df 3c b1 8b 0e be a4 6c 69 bd 51 06 69 3b
       0.02727071 -0.13920476 -0.056988373 0.0035556743
0002d0 f5 52 9b bd cc b5 32 be 2b 3b 2f be a8 eb f4 bd
       -0.07584182 -0.17452163 -0.17112415 -0.1195901
0002e0 b9 91 88 3e 0a 05 67 3e a2 0f 95 3e d6 ec a5 bd
       0.26673678 0.22560516 0.2911349 -0.081018135
0002f0 37 31 b1 be c3 0e 97 bd ff 0a 71 bd 3a 49 a7 bd
       -0.3460786 -0.073758624 -0.058848377 -0.08168264
000300 6a 6b 28 be 3b 1e 72 3d 8e 7d ba 3d 9d 5c c8 bb
       -0.16447225 0.05911086 0.09105979 -0.006114556
000310 6c 81 29 be 3e 28 43 be cc c7 cf bb 3c 61 1a bd
       -0.16553277 -0.1905832 -0.0063409563 -0.037690386
000320 5f 6b 21 be 4b 35 b6 bc ed 3f 63 3b 2d 16 b7 3d
       -0.15763615 -0.022242209 0.0034675554 0.089397766
000330 70 75 76 3d ba f3 42 bc a1 f1 36 3c cd b9 62 3e
       0.06017059 -0.011898929 0.011166007 0.2214119
000340 39 31 b4 3c aa 44 22 be d3 06 05 3e f3 9c 05 be
       0.021996127 -0.15846506 0.12990884 -0.13048153
000350 01 ac 0a 3e 86 2e bf bd 2e 86 2b 3e 39 c5 01 be
       0.13542177 -0.093350455 0.16750404 -0.1267289
000360 8f ec 12 be a3 f0 15 3c 9d 49 d6 bc 09 e0 b4 bd
       -0.14348052 0.009151611 -0.026158148 -0.08831794
000370 dd 9e 1f 3e 6c 71 50 3e a3 83 05 bd 66 01 7b 3c
       0.15587945 0.20355767 -0.03259624 0.015320158
000380 3a 8d fc bb 19 dc 44 3b 67 fd fd bd 32 50 59 3e
       -0.007707265 0.0030038415 -0.12401848 0.21221998
000390 8c 3c 5c bd df 35 9f 3c 82 eb 55 bc e9 93 bd 3c
       -0.05376868 0.019434867 -0.013056638 0.023141818
0003a0 ec b1 17 bd f7 95 67 bd 2d 29 57 3d 5f fd 9a 3d
       -0.037034914 -0.056539502 0.052529503 0.07567858
0003b0 75 39 c5 3c f0 ff 1c be fb 10 0a be 08 13 0b 3e
       0.02407525 -0.15332007 -0.1348304 0.13581479
0003c0 2e aa 8a bd 41 e0 3f be 87 6b 23 3c 30 06 5b be
       -0.067707404 -0.1873789 0.009974367 -0.21389079
0003d0 c0 d4 e1 3d 34 99 0b 3d 09 d6 bd bc 12 1a 34 3e
       0.11026907 0.034081653 -0.023173349 0.1758807
0003e0 91 53 f7 3d 41 1c a4 3c 42 68 12 be 31 94 00 3d
       0.12076486 0.020033004 -0.14297584 0.031391326
0003f0 4f 3a 7b be c3 71 09 3e 52 e9 fa 3b 29 b5 ff 3d
       -0.24533962 0.13422303 0.0076572085 0.124857254

bias f4 [64]
000000 29 d6 ad 3c b5 d0 82 bc 4d f3 11 bd d7 79 45 bc
       0.021220284 -0.01596866 -0.03563242 -0.012052975
000010 89 65 8f bd d3 a1 81 3c d7 f8 30 3d f9 79 1b bb
       -0.07001788 0.015824234 0.043206062 -0.0023723824
000020 a8 b9 16 3d b3 95 8c 3c 2a da 95 3d 2a 14 33 bd
       0.03679815 0.017161226 0.07317002 -0.0437204
000030 5d 6f b1 3c 1b d2 4e bd 5c e3 74 bd a9 0d 87 3d
       0.021659547 -0.05049334 -0.05978714 0.06594402
000040 24 b2 b4 3b b8 8b af bc 8a 05 4e 3d c3 d2 08 bd
       0.0055144 -0.021428928 0.05029825 -0.033404123
000050 7d f8 9b 3d c5 22 e2 3d 98 34 13 3d ed 64 61 3d
       0.07615755 0.11041788 0.03593883 0.05502789
000060 73 11 54 3c 5f 66 b3 bc f2 51 df bc cf 1a 64 3c
       0.012943613 -0.0218994 -0.027260754 0.013922407
000070 0c 63 68 bd 09 80 a8 3c 86 6e e0 bd 4c 35 d8 3c
       -0.056735083 0.020568864 -0.10958581 0.026392601
000080 2e 27 a9 3c 7e db 47 3d 59 c0 74 3b b0 97 0e be
       0.020648565 0.04879331 0.0037346093 -0.13925052
000090 7a 92 d1 bc 72 8f 85 bd 98 27 4e bd fa 22 b2 3c
       -0.02558254 -0.06521501 -0.05033073 0.021745194
0000a0 db 7c 25 ba 76 49 d6 bd 87 3e 19 bd ca 6d 4b 3c
       -0.00063128554 -0.1046323 -0.037413146 0.0124163125
0000b0 14 b4 a9 bb 84 42 14 3e f6 11 dd 3d eb b9 2e 3d
       -0.0051789377 0.14478499 0.107944414 0.042657774
0000c0 2b 62 93 3d 91 8c 2e bc 59 fb 13 bd 05 a1 a5 3c
       0.071964584 -0.010653631 -0.036128376 0.020218382
0000d0 38 32 11 3e 73 69 a1 3d 8f cc 00 3c f8 0e 9e bc
       0.14179313 0.07881441 0.007861271 -0.019294247
0000e0 88 92 90 3b d4 de 76 3d 71 fd 3c 3d 63 76 aa bc
       0.004411999 0.0602711 0.046140138 -0.020808404
0000f0 5a 0d 02 3e f2 02 3b 3d ed d3 6a bd 32 4a 9b bd
       0.12700406 0.045657106 -0.057331014 -0.07582511

weight f4 [150, 22]
000000 94 48 07 3e f1 f2 00 be 6f 58 c3 3e c2 3a 32 3c
       0.1321128 -0.12592675 0.38153407 0.010878267
000010 19 8e 46 bb 81 f1 9f bc ec 05 d0 bd 86 c8 db 3c
       -0.00302971 -0.019524338 -0.101573795 0.026829015
000020 37 eb d7 bc 65 34 10 3b 63 df 67 bd c3 dd 91 bd
       -0.026357276 0.0022003886 -0.056609523 -0.07122376
000030 61 32 8e 3d 7c 9e 98 bc 50 e6 d1 bc ab a2 71 bd
       0.06943203 -0.018630259 -0.025622517 -0.058993023
000040 06 bc 3c bb 57 b8 07 be 07 99 2a 3d 75 aa c8 bd
       -0.0028798594 -0.13253914 0.041649844 -0.09798137
000050 b0 8c 76 3d 26 bf d0 bd cc 01 68 bd 7e 29 0e 3b
       0.060192764 -0.10192709 -0.05664234 0.0021692212
000060 c7 bc 39 be 3a 83 64 3c cc 5a b9 3c 0b a8 dd 3c
       -0.18138419 0.0139473025 0.022626303 0.027057668
000070 31 59 05 3d d0 66 9a 3d f7 dc da 3b 27 76 3b 3d
       0.032555763 0.07539141 0.006679173 0.045766976
000080 d5 f4 3e 3d 69 4e 36 be 63 f5 b0 3b 41 d6 ec 3c
       0.04662021 -0.17803349 0.005400346 0.028910758
000090 09 97 97 be 05 e9 11 3d 57 ed a0 3d 23 9d f4 bc
       -0.29607418 0.035622615 0.07857769 -0.029860085
0000a0 75 83 49 3d df 1c ee bb 13 99 84 3c 62 f4 26 bd
       0.049197633 -0.0072666253 0.016186273 -0.040760405
0000b0 54 7c 79 3e bf a9 02 be 65 66 f0 3d bc 44 8a bd
       0.24363834 -0.12760065 0.1173828 -0.06751391
0000c0 57 69 86 bd da 20 5f 3e 3f 0b c5 bc da 5a d3 3d
       -0.06563061 0.21789876 -0.024053214 0.10320063
0000d0 3b f2 88 3c e1 05 dc bd d1 33 e4 bd e2 fc 4c 3e
       0.016717067 -0.10743309 -0.11142696 0.20018342
0000e0 b7 4f 7b 3e 85 31 66 be 5e 6a 60 3e a7 4e d0 bb
       0.24542128 -0.22479828 0.21915576 -0.0063570323
0000f0 cd 4e 62 3d 1e f6 5b be 6e f6 74 3d 51 2d 07 3d
       0.05525093 -0.21480605 0.059805326 0.0330022
000100 3a 75 c9 3d 95 a6 5f bd cf 0c ac 3b c7 0d 19 be
       0.09836812 -0.054602224 0.0052505503 -0.14946662
000110 71 75 63 3e 8e 1d cd 3d 4e 8f f3 bd 95 52 ce bd
       0.22212769 0.10015403 -0.118925676 -0.10074345
000120 c9 af 53 3d 29 d8 e7 3d fe f2 0c be b1 e5 df 3c
       0.051681314 0.11320526 -0.13764569 0.027331205
000130 57 30 09 3e 89 23 8a 3e 46 5f 55 3d b3 27 64 be
       0.13397346 0.26980236 0.052092813 -0.22280769
000140 b5 55 fc 3e ef ed 37 3e d1 f7 62 be 2a bf 93 3d
       0.4928414 0.17961858 -0.22164847 0.07214196
000150 97 75 a5 bd 0e 7b bc 3e 40 f7 30 be e4 27 d1 bd
       -0.08079069 0.36812633 -0.17281818 -0.10212687
000160 be 11 3c ba ef 3c 16 be fc a3 0b bd 0a 74 da 3c
       -0.00071742747 -0.14671682 -0.034091935 0.02666666
000170 fd d3 83 3c cc 60 d1 bc d0 82 8a 3d 1c 78 37 bd
       0.016092295 -0.025558852 0.06763232 -0.04479228
000180 df f5 ae bd cb 52 c5 3c 12 65 0c bd 66 14 26 3e
       -0.0854299 0.02408733 -0.034276076 0.16218719
000190 c7 aa 5c bd 21 f9 a1 bd 6e e3 40 3e eb cd 48 3d
       -0.053873803 -0.07908846 0.18836758 0.049024504
0001a0 a5 74 4b bc 77 42 fb bc 76 e5 7b bc 5a 25 a9 3d
       -0.012417947 -0.030671341 -0.015374532 0.08259077
0001b0 37 41 34 bd de e4 16 bb 7f 88 cc 3c c7 c9 e1 bc
       -0.044007506 -0.00230246 0.02496743 -0.027562035
0001c0 ca 56 0c 3d 08 68 e2 3c 0c 28 0d 3c 4d 26 04 3d
       0.034262456 0.027637497 0.008615505 0.03226309
0001d0 a3 96 48 bd 96 5a 67 3c 26 b6 40 3d b3 3c 70 3d
       -0.048971783 0.014120718 0.04704871 0.058651637
0001e0 5d a3 b8 3c 1b b9 0a 3d ef 77 33 bc 3c 99 35 3d
       0.022538835 0.033867937 -0.010953887 0.04433559
0001f0 9f 29 17 3e f7 50 27 3d e1 b4 0d bc e4 5f 54 3d
       0.14761971 0.0408487 -0.008649082 0.05184926
000200 b8 5f 15 bb 36 db c1 bb d5 6c 9e bc 4b 82 29 3d
       -0.0022792649 -0.0059160246 -0.019339005 0.041384023
000210 fa 39 bb 3c ca cd 43 3d ac cb b4 3b 67 65 25 bd
       0.022854794 0.047803678 0.0055174436 -0.040379908
000220 53 5f 03 be 3a 42 6d bd 4f c3 16 be 60 5e e2 3d
       -0.12829332 -0.057924487 -0.14722942 0.11053157
000230 57 81 4d 3c d9 32 e6 bc 73 c3 30 3c 89 ab e6 bd
       0.012543044 -0.028100418 0.010788786 -0.112631865
000240 59 78 3a 3d 32 4f a0 bc c1 bc ab bd 84 ef 26 bd
       0.04552493 -0.019569013 -0.08385611 -0.040755764
000250 24 9a da 3d b2 df c5 bc d6 c1 83 3c 5a 2f dd bb
       0.10673931 -0.024154518 0.01608364 -0.0067500295
000260 ae 38 eb 3c fd c0 77 3c fd 50 6b be 0d 08 e8 3d
       0.02871355 0.015121696 -0.22980113 0.113296606
000270 0a e5 a9 bd cf 0e 84 3c 12 4f 10 bd 22 55 a8 bd
       -0.08295639 0.016120343 -0.035231657 -0.08219363
000280 09 85 04 be 26 d5 6e bd 36 3c ff 3c 2a 3b 6c bd
       -0.12941374 -0.058308743 0.03115664 -0.05767361
000290 e9 b3 16 3c f5 3f 48 3d bb 2f 6d be 47 c7 62 bc
       0.009198167 0.04888912 -0.23162739 -0.013841457
0002a0 e1 ad 25 3e 11 36 dd bc 4d 83 ca bd f4 f4 b5 bd
       0.16179611 -0.02700332 -0.09888325 -0.08884612
0002b0 e4 7a 0d 3a b1 9e b3 bd 28 40 4d bc c2 7e cd bd
       0.0005397035 -0.08770502 -0.012527503 -0.10033943
0002c0 b7 56 35 3d ab ae 43 3c dc bc ce bd b4 e8 1b be
       0.04427215 0.0119435 -0.10094616 -0.15225488
0002d0 2e a0 5f bd 43 6c d4 3d 20 59 37 3c 48 c3 80 3d
       -0.05459612 0.10372212 0.011190683 0.06287247
0002e0 9d 8f cb bd 47 cb 73 3c 28 64 ad bd ef 5b 23 bc
       -0.099395014 0.014880008 -0.08466369 -0.009970649
0002f0 7a 86 37 3d a6 d7 89 bc 07 fd 33 bc 83 60 f3 bb
       0.04480598 -0.016826462 -0.010985619 -0.0074272766
000300 26 bf 08 3c 92 ae 33 bd af 9c 58 bc 10 a6 44 3c
       0.008346355 -0.043867655 -0.01322095 0.012002483
000310 69 36 13 3d fd a8 ed 3c c9 b4 63 3d e4 cd 25 bd
       0.03594056 0.029011244 0.055592332 -0.040479556
000320 64 91 d1 bc a3 d8 c4 bd 7b b8 ad 3c d4 7d a3 3c
       -0.025582023 -0.09611633 0.021206131 0.01995746
000330 a8 53 5e 3d 7c 5a 2e 3e 5f 39 36 be 5b 3d 39 bd
       0.054279 0.17026705 -0.17795323 -0.04522453
000340 2b 93 74 bd fc 30 81 3d f9 ea 8f 3d 19 7f 44 bc
       -0.059710663 0.06308171 0.07027239 -0.011993193
000350 c6 c0 89 3d ba dd 2e bd ad 53 ca 3c 8c dc f7 3c
       0.06726222 -0.042691924 0.024698103 0.030256532
000360 2a 99 44 3c 31 a6 f0 bc 0c e1 f7 3c ce 20 11 3d
       0.011999408 -0.029376121 0.030258678 0.035431676
000370 85 80 a8 bc 71 22 8e 3d 2e 6c 46 3d 4f fd 76 bc
       -0.020569095 0.06940163 0.048443012 -0.015075042
000380 b4 d4 c3 bd df ac 5c 3d bb cf 00 be 50 d0 28 3d
       -0.09562054 0.0538758 -0.12579243 0.041214287
000390 5f 2a 7a 3c 4d 52 08 bd 34 ff c8 3c e1 c3 20 be
       0.015268891 -0.033281613 0.024535753 -0.15699722
0003a0 d6 f6 9a bd a5 94 bf bc 0a 22 ce 3d 40 21 b2 3d
       -0.075666115 -0.023386309 0.10065086 0.08697748
0003b0 6e 1f 20 bb 9b 15 05 be c3 bb 2a bb 4b 33 e3 bc
       -0.0024432796 -0.12996523 -0.0026051856 -0.02773442
0003c0 a5 ec 8b 3d dd 6c f0 3d ec ea f1 bc da 73 00 bd
       0.06832246 0.11739514 -0.029530965 -0.031360485
0003d0 55 6d ce 3d 75 47 47 3d ce 31 8c bb 57 5d c0 bd
       0.10079447 0.04865213 -0.004278398 -0.09392803
0003e0 5e f6 ac bc 70 af fd 3c ec 1d 85 3d 70 d9 8c bd
       -0.02111357 0.030967444 0.06499848 -0.068774104
0003f0 7e da e4 bc dc e9 86 3d d8 1c f8 bc e8 70 07 3d
       -0.027936216 0.06587574 -0.030287191 0.03306666
