examples/rl/experiments_from_paper/experiments_data/trained_models/TiltrotorPlus8DofHoverEnv/ConventionalTiltrotorPlus8DofHoverEnv-4/ppo/TiltrotorPlus8DofHoverEnv-v0.pt (torch, 279745 bytes, 16 tensors)

weight f4 [150, 18]
00000000: 101f b7bc 006b a5bd 9eba 833e 8342 983d
00000010: ba04 a13d 1ded 93bc 9d3b 563d 0d74 bf3d
00000020: 29cf 153e 327d 71be f264 e0bd 98a6 16be
00000030: 6fbb 923c 31a6 df3d 7a73 933d 13cd dd3a
00000040: c31c 423d 2b7d 0bbe 6322 f7bd 9e25 babd
00000050: ff30 c7bd fdf0 99bc e959 6dba 07ef 05be
00000060: 4669 10bd 2d2f 703e f1b8 2fbe abb0 ca3d
00000070: d2df f63d ffbf b5bd 0279 d1bd 8835 a1bd
00000080: 63fb 063e f1e4 e43c 70ed 99bc 30ba 23be
00000090: 7495 aa3e db0b cd3e e2cc d8bc f85b 54be
000000a0: 86b0 3cbd 0f75 0dbd 1049 cebd 6e33 743e
000000b0: f68b 56be 1b35 203e 4fbc ad3d a88c 0c3e
000000c0: 7924 19bd 30f8 56bd 3cb2 9ebd 943d 2abe
000000d0: cfe8 78bd b748 503c f329 69be 735c 253d
000000e0: 9dca 3a3e e06b 53bd 86fc e03c e5aa be3d
000000f0: 399f fdbd d781 ec3d 222c bb3c 38ba 803d
00000100: 8070 69bd 53ac 0dbe f5f5 7d3c e08c 573e
00000110: 2769 813e fda3 88bc ab2f cdbd c1cf c03c
00000120: 9b25 a3bd dfbd 5ebd 1e4d 1b3c feb7 8ebc
00000130: 3888 d0bc 69ea 153e 40a3 06be b89c 09be
00000140: f296 f3bc 9e02 b33c 6c20 0cbe 8d11 34bb
00000150: 713f 74be 4252 9c3e 2045 503d d989 8f3d
00000160: 2e2b 11be 7f67 debb d40e 673e 93ac a7be
00000170: 1f2b 883e 1e72 2fbe ce21 2e3e 70b9 9d3d
00000180: 21df 873e 55ea 733c 347e 89bd 5e22 6bbc
00000190: 35e8 633e 0e55 b4bd 06dd 903d 4554 773e
000001a0: 73ce 9f3c c129 d33d ef8f a3bc 555c 4a3e
000001b0: b8dd 52be 11c0 88bc abde 4b3e 7727 a43d
000001c0: 914f 653e 4328 ee3b 4b62 103d 0846 c9bd
000001d0: ee82 11be d000 71bd d859 983d 9d20 d73c
000001e0: c2fa 76bd c36d fbbd a0f2 95bd aee4 9e3e
000001f0: 32a1 a9bb c4ec 323c 6482 52be ed0b 9e3d
00000200: c231 cd3d 4ca8 b9bd 25f0 c13d e514 f4bd
00000210: 1c58 f13b 84e4 18bd e0ef 583d 94f6 663d
00000220: 83e6 21be 2b49 143e f35d 4fbe 867a 9d3c
00000230: 695c bebc 5e5d cdbd 1ff8 15be 6102 f1bc
00000240: 16f3 9abe b76c 56be c91e 5fbe efce ab3d
00000250: 6e64 a4bc 8587 f3bc 390b e8bc d88c 833d
00000260: dc51 f73c 986e 803e 0c1a c93d 7cef 593d
00000270: b686 803b bb65 fdbd e307 463e e03e 223d
00000280: beff b8bd 8320 cdbd bb76 8bbe 448b 83be
00000290: deb2 83bb b7ad 02bd cffa 2c3d db61 9c3e
000002a0: aa32 373d c26e 413d cb92 06bc 79df 193d
000002b0: e7b4 a5be 300c 2cbc 1142 5abc bc91 9bbd
000002c0: 0afd e9bc af73 c93c e537 fc3d d959 7ebe
000002d0: c2d5 67bb d50e 0a3e bcce 49be a5ad 0bbe
000002e0: 39fa 1cbd 14c8 c8bd 7adc 77bd fc60 e4bc
000002f0: 5fe4 a23d 3855 9d3e dccf 31be 8703 18be
00000300: 3184 63be 065f 68bd 4092 1b3c 5d14 593c
00000310: b399 2bbd 2c60 33bd dc6e 0e3d f172 b7bc
00000320: 69f6 273c c9f8 60bd 5034 33bc feeb 263d
00000330: 9a86 d23c f20c 20be eeef b3bd 762c e43d
00000340: 0db5 ea3d d5e1 b53d 2536 223d 6969 5c3e
00000350: cc52 00bc 2f8e a03d 7745 d6bd 861d 20bc
00000360: e2ed 7ebd acd5 05bd 1c64 39be 4dcb ec3c
00000370: ded4 e13c 1a88 b0bd 2044 8f3d 05e7 043c
00000380: 5730 d8bd 5143 5b3d 7cb2 f5bd c50e 893d
00000390: 705b c23c c08a 84be b716 a13b 226d a3be
000003a0: 9590 ddbb 094e 0a3e a78f 333e cba9 62bd
000003b0: 6ee2 91be 6379 8cbd 066c 27bd 3ecf 3dbe
000003c0: 7c7d 19bd a191 03be 8cd8 5d3d 760e 803e
000003d0: 4f8c 403d ed9f b03d 5b70 0abe 1b7d 84bd
000003e0: 7ec5 ae3c d4dd 373e e3ec ec3d 0c42 f73d
000003f0: c612 e8bd 6633 d63d cf9e 093c bc62 56bd
-0.022353679 -0.08077049 0.25728315 0.07434561 0.0786223 -0.0180574 0.052302945 0.09348307
0.14629807 -0.23582914 -0.10956754 -0.14711988 0.01791164 0.1092037 0.0719976 0.0016922079
0.04739071 -0.13621967 -0.120671056 -0.09089206 -0.09726142 -0.01879167 -0.000905423 -0.13079463
-0.035256647 0.23455496 -0.17160393 0.09896978 0.12054409 -0.08874511 -0.102281585 -0.078715384
0.13181834 0.027941199 -0.018789977 -0.15988994 0.3331715 0.40048108 -0.026464883 -0.20738208
-0.046066783 -0.034535464 -0.10072529 0.23847744 -0.20951828 0.15645258 0.08483183 0.13725531
-0.0373883 -0.052482784 -0.07748839 -0.16625053 -0.0607689 0.012712649 -0.22769909 0.04037137
0.18241353 -0.05161655 0.027464163 0.09309939 -0.12383885 0.115482025 0.022848193 0.062855184
-0.056992054 -0.13835268 0.015500535 0.21049833 0.25275537 -0.016679758 -0.100188576 0.023536565
-0.07966157 -0.054380294 0.009478835 -0.017421719 -0.02545558 0.14640202 -0.13148212 -0.1343869
-0.029735062 0.021851834 -0.13684243 -0.0027476281 -0.23852326 0.30531508 0.050847173 0.07008714
-0.14176628 -0.00678724 0.2256425 -0.3274885 0.265954 -0.17133376 0.17005083 0.07701385
0.2653742 0.014887412 -0.067135245 -0.0143514555 0.22256549 -0.088052854 0.07073407 0.2415324
0.019507622 0.10310698 -0.019966094 0.19761784 -0.20592391 -0.016693147 0.1990916 0.0801534
0.22393633 0.007267983 0.03524999 -0.098278105 -0.14210102 -0.058838665 0.07439011 0.026260668
-0.060297735 -0.12276795 -0.07321668 0.31033844 -0.0051766867 0.010920707 -0.20557553 0.077171184
0.10019256 -0.09065303 0.09469632 -0.11918048 0.00736524 -0.037327304 0.052963138 0.0563875
-0.1581059 0.14481036 -0.20250683 0.019223463 -0.023237424 -0.10027574 -0.14645432 -0.02942008
-0.30263585 -0.20939909 -0.21789087 0.08389079 -0.02006742 -0.029727707 -0.028325664 0.06423348
0.0301904 0.25084376 0.09819421 0.053206906 0.003922309 -0.12372919 0.19338946 0.039610744
-0.09033154 -0.10015967 -0.27239022 -0.2569219 -0.0040191254 -0.03190395 0.042231377 0.30543408
0.04472605 0.047224768 -0.008213709 0.037566636 -0.3236458 -0.010500953 -0.0133214155 -0.07596156
-0.028563041 0.024591295 0.123153485 -0.24838962 -0.0035375212 0.1348222 -0.19707769 -0.13640459
-0.03832457 -0.09803787 -0.060512997 -0.027878277 0.079537146 0.3072908 -0.17364448 -0.14845096
-0.22218396 -0.056731246 0.009495318 0.013249484 -0.041894626 -0.04379289 0.034773692 -0.022393676
0.01025162 -0.05492476 -0.010937765 0.040752403 0.025698949 -0.15629938 -0.08785997 0.11141293
0.11460314 0.08880965 0.039602417 0.21524586 -0.00783224 0.07839619 -0.10462468 -0.009772664
-0.06223858 -0.032674477 -0.18104595 0.028905535 0.027567323 -0.08619709 0.06995416 0.00811172
-0.10556095 0.053530995 -0.11996934 0.0669227 0.023725241 -0.25887108 0.004916038 -0.319192
-0.0067616203 0.1350633 0.17535268 -0.05533771 -0.28493065 -0.0685909 -0.040874504 -0.18536088
-0.037473187 -0.12848522 0.054161593 0.25011033 0.04700881 0.086242534 -0.13519423 -0.064691745
0.021334406 0.17955714 0.1156862 0.12073144 -0.11331706 0.10459022 0.008399679 -0.052340254

bias f4 [150]
00000000: f4b6 a5bd 3084 a0bb 2600 13bd e507 d73c
00000010: f069 be3d 34ce 1abd 033a 56bd 39fd c33d
00000020: 07b5 54bd bbc2 8d3d 8814 8f3d 7322 19bd
00000030: 3a1a bc3c 08a5 61bc 44d5 1e3e eb54 ca3c
00000040: 5b75 443d ace7 f53d da1f 083d 1524 9dbc
00000050: 3f5f 813d 370b 9bbd dc80 493e adf4 c33d
00000060: 064b d83d a7f7 c53c bffc 753d b296 373d
00000070: 7cfb ea3c 45bb e43a 753d d33d 529b a63d
00000080: 2390 d7bd c3e1 b0bd c826 6c3d 2c5d 0b3d
00000090: efbd 00bd 7531 a43d 9645 58bd 5c7a 313d
000000a0: 8e86 61bd 288b e43d 6176 0f3e bb85 f7bc
000000b0: 9e55 d33d 4933 b63c 6b0a d7bd 0beb 563d
000000c0: ea5d b5bc e4e2 f9bd d2ca 833d 0514 6cba
000000d0: 28d0 80bd 805a 1d3e dca5 983d 55d4 18be
000000e0: b2ea 073d 05f8 ae3c aa3b c1bc 43b1 80bd
000000f0: 3b3f 043d 5aea 0abc 22fc 503d 9c29 98bc
00000100: 77af d2bd 8973 7f3a ed3f ce3d a945 06be
00000110: a0d9 e3bd 40b6 bb3c 0703 bcbd ea3c 36bb
00000120: e88b a8bd ae9e c2bc 4d00 e4bc 4d86 75bd
00000130: 6a1c f8bd 6132 cc3c 73ea 983d 0ebd 3e3d
00000140: d8b2 a83b e107 bcbd 53b5 68bd d8c1 c5bd
00000150: 9cb7 2dbd 242c 633c a829 0b3b b66e 773d
00000160: b240 0c3c 87d9 373d 340c 87bd fd54 383e
00000170: 5b54 25be d712 2cbd 974e 5ebc 3eff f6bb
00000180: 2853 9f3c 5abe 86bd 9d02 5fbd 5102 893c
00000190: 41c6 0e3d e90f 8f3d 1905 c7bd b62f fdbc
000001a0: 5f1e 053e 719e 68bb 2d25 da3d 1d2c 393e
000001b0: 69b3 fa3c e3b6 1abd 707c 0a3e ab20 053e
000001c0: a46c 703b b9b9 92bb 7aec a0bd 6d1d 7d3d
000001d0: 907f f0bc 75ea 35bd 3dcf 3dbd 23f7 a53d
000001e0: ed16 fcbc 26fb c83c 4bb6 e03c 0c92 d2bc
000001f0: 50f1 8a3d 8cbe e4ba 58d5 503e de1b 493e
00000200: f736 0b3e eb0b 26be ef10 3c3d 5b65 503d
00000210: 3804 9dbc 0397 703d 239d 43bd 1a39 1f3d
00000220: 0894 8fbb 6da5 acbd 1896 58bb cac4 4abd
00000230: 055b 91bd 027a d0bd 92da 593d df4d c1bd
00000240: 6cad a43d 196c 243b f51b d8bd a1bf a63c
00000250: a1eb 3c3b 4762 fcba
-0.08091536 -0.0048985705 -0.035888813 0.026248882 0.0929755 -0.037794307 -0.052301418 0.09569783
-0.051930454 0.069219075 0.06986338 -0.03738637 0.022961725 -0.013772257 0.15511042 0.024698695
0.04796348 0.120070785 0.0332335 -0.019182244 0.06316995 -0.075704984 0.19678062 0.095681526
0.105611846 0.024165941 0.06005549 0.04482145 0.02868437 0.001745083 0.103144564 0.08135094
-0.10525539 -0.08636811 0.057654172 0.034024402 -0.031431135 0.08017246 -0.052800737 0.04332958
-0.055059962 0.111593544 0.14010002 -0.030215135 0.103190646 0.022241252 -0.10500034 0.05247025
-0.022139508 -0.12201479 0.06435169 -0.00090056687 -0.06289703 0.15366554 0.0745351 -0.14924748
0.033182807 0.0213585 -0.02358802 -0.0628381 0.032286864 -0.008478725 0.051021703 -0.018574528
-0.102873735 0.0009744694 0.100707866 -0.1311251 -0.11125493 0.022914052 -0.09180265 -0.0027807304
-0.0822981 -0.023757305 -0.027832175 -0.059942532 -0.121147946 0.024926366 0.07466593 0.046567015
0.005148273 -0.0918119 -0.05681355 -0.096561134 -0.04241143 0.013865504 0.0021234546 0.060408317
0.008560346 0.044885185 -0.065941244 0.1800117 -0.1614546 -0.042010155 -0.013568542 -0.0075377515
0.019448832 -0.065792754 -0.05444585 0.016724737 0.03485704 0.069854565 -0.09717769 -0.03090654
0.12999867 -0.003549483 0.10651622 0.18083234 0.030603128 -0.03777207 0.13524032 0.13000743
0.0036685849 -0.0044777063 -0.07857604 0.06179564 -0.029357702 -0.04441305 -0.046340216 0.08103778
-0.03077265 0.02453382 0.027430674 -0.025704406 0.06784308 -0.0017451807 0.20393884 0.19639537
0.13595186 -0.16215484 0.045914587 0.05087791 -0.01916705 0.058737766 -0.04775728 0.038872816
-0.0043816604 -0.0842999 -0.0033048447 -0.04950408 -0.07097439 -0.10179521 0.05318696 -0.09438681
0.0804089 0.0025088845 -0.105522074 0.020355048 0.002882697 -0.0019255363

weight f4 [150, 150]
00000000: 2a2d 423e 29bd 523d 7f72 c1bc af51 28be
00000010: be36 afbd 2319 f0bd 1ef9 5d3e 05fa f3bc
00000020: cbee 10be 9deb e13d 4893 163d 9c94 18be
00000030: 8371 14be f1a7 0cbd 260c 143e c904 af3e
00000040: 971c 19bd 588d d83d de6f 4b3e b36f 2fbe
00000050: 8c07 f43d d831 8a3d 8997 103e e602 6b3e
00000060: 6bbd 9dbe 7e2a 0d3e 079d 04be 2652 23be
00000070: 946d 1bbd 6844 f63d b6b6 de3d 90bf 2b3e
00000080: 1909 e8bd aeff 323e 8490 febd 5f02 78bd
00000090: 5a3d c83d 19f7 0b3c 1e88 213e 8b9b 50bd
000000a0: 1303 183b 3bbc 92bc fa73 1f3d 5924 ebbd
000000b0: fa03 a03c 9f9e 8bbc 3cca d8bd 5b3a bfbc
000000c0: b4f3 7cbc 2553 5b3d 16d8 b4bd 83e7 c43c
000000d0: bcba 81bd fbb3 823d d65c 143d 2ac0 0f3e
000000e0: 0269 bb3e 96d2 f7bd c8e6 5a3d fef8 0dbe
000000f0: 3f2d 3abe 399e 34be 21ab 473e 4555 39be
00000100: 2690 d0bd 4d1e 16bc efeb 6bbe 0997 46be
00000110: 29b5 e6bb 8379 d93d 4491 c1bd d56b dbbd
00000120: f96e 0dbe babd 3fbe 39a0 ba3d c11d 24be
00000130: f78e 71be 4cc6 c63d 9e2b febd a10a 00be
00000140: 3a9d 03be 1751 4fbe e87e 623d 56c4 983d
00000150: 1425 86be ae8a 823d da27 243c 9378 533d
00000160: e7fa 38bd a3c4 01bd bdf7 fdbd 5bcc cb3e
00000170: 0da2 b63d 40fc 9dbc 8469 83be 9e3e 2bbe
00000180: 948b 6c3d 4192 0d3c 9dcf 51be 6b34 583e
00000190: cd4c 273d c63d 0ebb d557 aebe 715c 903d
000001a0: 318f 1d3e 47eb b3bd 2842 4a3e f06d 5a3e
000001b0: a164 21bd 6eb8 053e df3d 92bd dd0e 513e
000001c0: 9358 33bc b62b 043e fe97 963d dfb6 7dbc
000001d0: ebd1 82bd dd42 ecbc c7ae 903c 811d a23d
000001e0: 8d3a cdbd 35ec 863d 8f7c cabd d9f8 983e
000001f0: 055e 103e ab2a 643d 0a48 203e 9331 633e
00000200: bef6 ee3d 5280 75bd abf3 b83d 81c8 9c3b
00000210: bf27 a8bd b347 94be 0ef7 77be 031e a53e
00000220: a9ff acbd 77e4 9b3d ccd9 c1bd 9c86 25bb
00000230: bd8a acbd 3e43 b7be d7a4 77be 67ac 09bd
00000240: 8a1a f5bd a884 853e aa55 71bd a322 623c
00000250: 3cbe 12be 47ee d03c 347b ba3d aa6c 43bd
00000260: ce8a 493d a296 ce3c 6c17 3b3e 2b9f 663d
00000270: 344b ab3e fa93 9ebd 7216 543e 7d9a 983b
00000280: 6d7c 283e 9619 e43c 9b0d 98bd 0922 b43e
00000290: b828 b7bd 3b05 3b3e dc43 2ebd 2e8c 9cbd
000002a0: 6282 c33b 5dc4 2a3e 13d8 ecbc e539 573d
000002b0: d9f4 53be 31dd 72be a4dd 523d 5659 d3bc
000002c0: 6876 63bc 4abf 88bd 11f6 9b3d 54b1 103e
000002d0: afab 0abd b54b 33bd 527e 1c3e 6811 a73e
000002e0: e2f3 b8bd 4888 dfbd 31ce 333e 4900 40be
000002f0: 2044 f63c c95d fbbc a12e adbc d4bb 163d
00000300: 457a ee3d 7ae8 d33c 35c0 90bb d9e0 37bd
00000310: 0b1d cb3d 675d f33c e92d 1e3d 7aaf 3abd
00000320: d04d 8a3e 5151 523d 2870 1dbc 7790 56bc
00000330: 4e56 633e 52ab 48be b528 d53c 2b91 6b3e
00000340: 7c37 143c c0a9 80be 215a 5a3e 1e3a 833d
00000350: f014 27bd 5dce 68be 0f85 b93d 8875 213d
00000360: a4c3 0abe 59f5 13bd 5525 093e 81ce 0bbe
00000370: 3897 52be 8e85 0fbe 9fb6 00bd 8c32 f4bc
00000380: 69fd 893d 0128 fcbd 81cd d0bc 862f 8a3d
00000390: 99d5 9cbd 8bc0 3fbd 9b8f 573c 0037 e83d
000003a0: 9765 7b3e 751e 21be 701a 4abe 39a5 72bc
000003b0: cd6b 393d 7061 173d 6394 d63d 5e91 703d
000003c0: 32ce e63c 01d8 42bc 7ba1 a9bc 00d6 e2bd
000003d0: eab8 703e 48ca 973b bd01 fd3c d87a 4b3d
000003e0: d27c 9f3c c1ee fb3b d81c 013e ee7f 01bd
000003f0: 0621 06be 8b79 a6bb eeea 7fbb a6ad adbd
0.18962541 0.05144993 -0.023614166 -0.1643741 -0.08555363 -0.117235444 0.21677062 -0.029782305
-0.14153592 0.11031268 0.036761552 -0.1490044 -0.14496426 -0.03433985 0.1445776 0.34183338
-0.03738078 0.10573834 0.19866893 -0.17132454 0.11915502 0.06747788 0.14120306 0.22950324
-0.30808577 0.1378574 -0.12950526 -0.15949306 -0.0379463 0.12024766 0.10874693 0.16772294
-0.1132986 0.17480347 -0.12429908 -0.060549136 0.09777327 0.008542799 0.15774581 -0.050929587
0.0023195192 -0.01791202 0.038928963 -0.11481542 0.019533146 -0.01704341 -0.10585448 -0.023343256
-0.015438963 0.05354609 -0.088302776 0.024036175 -0.06334445 0.06381985 0.036221348 0.14038149
0.36603552 -0.12100713 0.053442746 -0.13864514 -0.18181323 -0.17638482 0.19498874 -0.18098934
-0.10183744 -0.009162498 -0.2303922 -0.19393553 -0.007040639 0.1061888 -0.09451535 -0.10713927
-0.13811864 -0.18724719 0.09112591 -0.16026975 -0.23589693 0.09705791 -0.12410663 -0.12504055
-0.12852946 -0.20245777 0.05529681 0.07459323 -0.26200163 0.06374107 0.010019267 0.05162866
-0.045161154 -0.031681668 -0.12400768 0.39804348 0.089176275 -0.019285321 -0.2566644 -0.16723105
0.0577503 0.008640827 -0.20489354 0.21113746 0.040844727 -0.00217043 -0.34051386 0.07048882
0.15386654 -0.0878511 0.19751799 0.21331 -0.039402608 0.13058636 -0.07140707 0.20415826
-0.010946411 0.129073 0.07353209 -0.015485494 -0.06387695 -0.028840477 0.017661465 0.07915784
-0.10020933 0.06588022 -0.09887039 0.29877356 0.14098366 0.055704754 0.1565248 0.2218688
0.11668156 -0.05993683 0.09030851 0.004784644 -0.08210706 -0.28960952 -0.24215338 0.3224946
-0.08447201 0.076119356 -0.094653696 -0.0025257235 -0.084249 -0.3579349 -0.24183975 -0.03361168
-0.119679525 0.2607777 -0.058919586 0.013802203 -0.14330381 0.025504244 0.091055304 -0.047711052
0.04920464 0.025218312 0.18270653 0.05630414 0.33455813 -0.07743068 0.20711687 0.0046570883
0.16453715 0.027844232 -0.0742447 0.35182217 -0.08943313 0.18263714 -0.042545184 -0.07643925
0.0059664706 0.16676469 -0.028911626 0.052545447 -0.2069887 -0.2371719 0.051480904 -0.025799435
-0.013883211 -0.066771105 0.07615293 0.14130145 -0.033855136 -0.04377337 0.15282562 0.32630467
-0.09030892 -0.109146655 0.17559125 -0.18750109 0.030061781 -0.030684369 -0.021140398 0.03680022
0.11644415 0.02586769 -0.004417444 -0.044892166 0.09917649 0.029707624 0.038618002 -0.045577504
0.2701249 0.05134708 -0.00960926 -0.013095967 0.22200891 -0.19596604 0.026020387 0.23004596
0.009046432 -0.2512951 0.21323444 0.06407569 -0.040791452 -0.22734971 0.09058582 0.039418727
-0.13551193 -0.036122654 0.13393147 -0.13652994 -0.20565498 -0.14015791 -0.03142416 -0.029809259
0.06737787 -0.12312318 -0.025488617 0.067473456 -0.07657928 -0.046814483 0.013156797 0.113386154
0.24550472 -0.15734275 -0.19736648 -0.0148099 0.045268822 0.036958158 0.10477521 0.058732383
0.028174493 -0.01189232 -0.020706883 -0.110759735 0.23508039 0.004632268 0.030884618 0.0496777
0.019468699 0.007688374 0.1260866 -0.031616144 -0.13098535 -0.005080407 -0.003904994 -0.084803864

bias f4 [150]
00000000: cad6 f93d b961 0dbd 8125 27bd 15f2 d43c
00000010: 865b d63d 9026 97bd e13e e8bd 3dcd 133d
00000020: 6669 66bd b0ad b6bd aac9 b03e 8791 413e
00000030: 6729 2e3d 6376 9e3d 73f4 bc3d c4a4 a53d
00000040: 0c94 4fbd a1ff 3d3c a0c1 303c 54ff c43d
00000050: b1e2 4c3d 4320 6d3d 8aab 9f3c ff49 50bc
00000060: c5c7 f4bd 5d4c 263e 7c5d bfbc 4eb3 05be
00000070: 3ce0 0bbe 5880 eb3b 0de2 b73c a077 883d
00000080: 8982 30be c300 76bd a94d 86be b046 07be
00000090: f877 05be 0e9e b53c dd18 71bc df60 06bb
000000a0: 8c9f a13d 04f2 053e 52c9 303c 5472 7b3d
000000b0: c85e d73d 821d cf3d 4ffe 2dbe dc4b 8f3d
000000c0: d127 33bd 6def a8bd 037f 8abd 13f8 c93d
000000d0: ef5b e8bc 269b fd3d c034 8eba 6910 243d
000000e0: 5b17 3d3d 20d2 4f3d efb8 81bd 5000 603d
000000f0: 14b1 ac3d 4ff9 15bb 34ef 43bd 1e41 b23c
00000100: e47d bbbd e995 0dbe ca87 8c3d 1d93 493e
00000110: d68c 153e 922d e93c 4302 1b3b 5363 e3bc
00000120: 9368 cabc 7ff7 ae3d 3c6d 1c3e b785 033d
00000130: 6b25 883d 7790 3bbb 65de 0e3d 7e04 113d
00000140: 7aba 9abd 11ab 1ebd 2468 963d 7d28 ff3d
00000150: e291 563d 3dfb 8d3d f02a b4ba 01ee 92bd
00000160: 725f 0fbd e92c 77bd 6b05 b3bd 04d2 e7bc
00000170: 4290 c73d dea2 393d ce3e 963d 6c4e 65bd
00000180: 00a0 4fbd 83ed af3d b91d 603d b0fa 5a3d
00000190: 02e3 ad3d 1da1 b53c bd8e 233d eda2 38be
000001a0: e45a 15be 8954 bf3b 6db2 ffbd 701a da3d
000001b0: b3b7 8e3c 500c 663d ad19 633b 56c3 a9bc
000001c0: 4181 4dbc 7f1a c2bd 4688 963d 5a12 c83d
000001d0: ef0d 9abb 8637 823d c9f7 c7bd 1d47 fabb
000001e0: a550 fdbb d501 ebbd c577 353d 2d9e cfbc
000001f0: 1bf0 f73d d500 ffbd 1ff4 2c39 e317 e2bd
00000200: f08c 4cbd 2afd d8bd a64b bf3d 9d92 af3d
00000210: 6386 3c3b 0264 ba3c 8952 fabd 98ba 6e3d
00000220: c3ad 2fbd cd5e df3d 21b4 163d d52a f93d
00000230: 8194 7cbd db86 52bd 1f40 e23c eab9 273d
00000240: 94cd 553d 1a8b d23d ffdd 163e 471d b4bc
00000250: 4f05 a0bd f0a3 123e
0.12199171 -0.034517024 -0.04080725 0.02599434 0.104666755 -0.07380402 -0.11340118 0.036084402
-0.05625286 -0.08919847 0.34528857 0.1890317 0.042519953 0.07737424 0.092263125 0.08088067
-0.050678298 0.011596591 0.010788351 0.096190125 0.050020877 0.057892095 0.019490976 -0.012712955
-0.119521655 0.16240068 -0.023360007 -0.1305668 -0.13659757 0.0071869306 0.022446657 0.06663442
-0.17237295 -0.06005932 -0.26231125 -0.13210559 -0.13034046 0.022170093 -0.0147154005 -0.0020504517
0.07891759 0.13080603 0.010790186 0.06138833 0.10516125 0.1011305 -0.16991542 0.06996891
-0.043739144 -0.08248792 -0.06762507 0.098617695 -0.02836415 0.12383108 -0.0010849461 0.040054712
0.04616485 0.0507375 -0.063341014 0.054687798 0.084322125 -0.0022884195 -0.047835544 0.021759566
-0.09154871 -0.13826717 0.06861837 0.19685026 0.14604506 0.028464112 0.002365247 -0.027757322
-0.024708068 0.085433 0.15276045 0.032109942 0.06647762 -0.0028620043 0.03488006 0.035404675
-0.07555099 -0.03873736 0.07344082 0.124588944 0.05238522 0.069326855 -0.0013745707 -0.07174302
-0.035003133 -0.060345564 -0.08741268 -0.028298385 0.09744312 0.045321338 0.07336198 -0.055982992
-0.050689697 0.08590224 0.054715846 0.05346173 0.08490564 0.022171551 0.039931048 -0.18030901
-0.14585453 0.005838935 -0.12485204 0.10649574 0.017421579 0.056164086 0.0034652755 -0.020723026
-0.012543024 -0.0947771 0.07350211 0.09769125 -0.004701368 0.063582465 -0.09764058 -0.007637872
-0.007730561 -0.11474959 0.044303674 -0.025343979 0.12106343 -0.124513306 0.0001649414 -0.11039712
-0.049939096 -0.10595162 0.09340601 0.08572886 0.0028766624 0.022752766 -0.122227736 0.05828342
-0.04289032 0.10906754 0.036792878 0.12166373 -0.06166506 -0.05139814 0.027618466 0.040948786
0.052198008 0.10280438 0.14733122 -0.021986617 -0.078135125 0.1432035

weight f4 [64, 4]
00000000: 1aac 0d3f 521f 26bd bafb 80be cca8 283d
00000010: 3cc6 ea3e 2da5 993d 8f51 9a3e 6d44 863e
00000020: 4cde 37be f928 043d 6461 c3bd 032f a9be
00000030: 05dc 1fbf 0ac6 d33e 0609 cf3e e767 0cbf
00000040: d63e 393e 46f8 1fbd f0b9 973e b7f6 28be
00000050: c336 06be 13c3 4ebe db35 403e dd54 773e
00000060: bb48 b5bd 524e cf3d 2cb7 80be 73a4 79be
00000070: 3abf d83e ec30 ce3e 44e1 bd3e e03a 81be
00000080: b83f 4b3e 277b ec3c b437 94be 68e1 23be
00000090: 4f1e 8f3e 1396 52bd 7766 eebe 152c 833e
000000a0: 281f f1bd 9159 07bf 714a c8bc 68c5 d63d
000000b0: f3b4 30be ec07 493d 1dde ff3d b4e0 acbe
000000c0: 8d6f e53e 6e32 b3bd 4738 71be 416a 30b9
000000d0: d91b 253e 0a1a 30bf b04f 43be 9d89 1f3e
000000e0: 00e2 74bd 37fd b9be 71c9 c6bd 5a35 873c
000000f0: d2da 2a3e d5c2 9d3c 990f 9b3d 3ab2 de3d
00000100: 461c f93e 4d2a 2bbe 2df0 c5be 9c76 4abe
00000110: 9198 273e 8938 2b3e 10f0 d73c 535e 70be
00000120: 02d4 433e 092a 953e 0f6e b23d a438 50be
00000130: 32a3 27be d9bd 583d 9d84 d0be 41df b93e
00000140: d2a1 69be e385 dfbd 5a89 583d 7178 653e
00000150: 00fe 5f3e 0dbc 0dbd 0415 e6bd c27b f2be
00000160: 90d2 fcbd 408d 40be 4494 a43e 1840 42be
00000170: 3d1e 513e 9200 cdbc db38 b33d dd54 90be
00000180: cec2 5fbe 2d4a 023f 5a10 91be 7155 393e
00000190: 1886 08bf 9155 a63d 4d5d 09be 4c53 d4bd
000001a0: ce6b c7bd f6ad 4bbd f05f 513e 73c8 d23d
000001b0: 24d9 67be cca8 03be 0ee1 873e 9580 b73d
000001c0: 9337 a0bc 5d22 a43c f404 e93e c213 98bd
000001d0: cce9 093e 84a5 963e cc02 6abd 9189 bfbe
000001e0: fd6a 06bf 1f01 a6bd afba 233e a3b9 933d
000001f0: e618 c6bc 5b64 1a3c 7ba3 c03b be3a a13e
00000200: 5433 143e 778a febd 129d f03e afc6 aa3c
00000210: 567c 20be 1611 18be 40d4 1f3f 316a 2f3c
00000220: fa66 97be 762d cf3b 4ea2 a2be f410 843e
00000230: 465a dabe 7d0b 09be 6f2c af3e a926 0bbe
00000240: 60e4 3abf 3700 f83d 8ab7 63be e1e4 73be
00000250: 7e5f 8bbe 220a f6be b170 823e c264 283e
00000260: f89f 0bbe 5d0c 273f 75f8 a03d 2649 a3bd
00000270: 0d32 94bd 6050 96be 2600 793e 73b0 9bbe
00000280: a127 3dbe 751b c7bb 4ddc e5be bfa4 b83e
00000290: df94 a2be 5ba9 443d b5e9 c23c 5a5e cebe
000002a0: 5c69 183e 5878 65bf 5116 34be bb3e bebe
000002b0: b661 873e a4d5 2a3d 0e81 21be 95a9 8dbe
000002c0: 4e83 7a3e 62b3 44be 8363 173e cae2 023f
000002d0: a9b1 893e 2a03 d83d fa2f 1cbd 9a48 33bd
000002e0: 6b6c 38be 6a42 d63e 5f31 1b3e a9ba 70be
000002f0: d6ba cd3e 7aaa 6cbd 23f6 b23e 1698 7ebd
00000300: 1ebf 7dbd 96c5 0f3c e277 bebe db6a d5be
00000310: ca2a 74ba 283c e9be 914c a23e f990 b13e
00000320: 2494 953d a886 a0bc a72d 013e 69aa f7be
00000330: d09c 42bf 659d 8cbe 7eb4 10be 035e 8d3d
00000340: 8178 bfbe 7ee2 903e d059 303e 2b46 94bd
00000350: 8f30 16be 8780 ccbd 1f8a bebe 57b8 f33e
00000360: 169b bd3e 9e62 f83c 0349 273e 8dff ffbd
00000370: 581d f53d 4396 91be 2f9d 643e e346 bb3e
00000380: aca7 e33d b939 933e 4644 933e d3f8 2bbe
00000390: 1c5c 1abd b541 663d 71f7 88be 5033 04be
000003a0: ec69 853e bfa8 9b3c 5f90 e63d aa7e 44be
000003b0: 2b1b 0dbc 76a3 24bd 8780 4f3e 5418 8e3e
000003c0: 9160 88bd 98d1 143f d5d4 4dbe da44 9fbe
000003d0: 4dee acbe 355b 16bd 7187 e6be ee93 35be
000003e0: 95e6 22be 46d9 edbd 7f1a 733d 92ed 22be
000003f0: 1c8a dc3e a699 2e3f a794 9dbe e5f5 603d
0.5534073 -0.040557213 -0.25192052 0.041176602 0.45854366 0.07502208 0.3014035 0.2622408
-0.17955893 0.032265637 -0.0954006 -0.3304368 -0.624451 0.4136203 0.40436572 -0.5484604
0.18090376 -0.03905513 0.29634047 -0.16500364 -0.13106827 -0.20191602 0.18770544 0.24153467
-0.08851763 0.1012236 -0.2513975 -0.24379139 0.42333394 0.402717 0.37085927 -0.2524023
0.19848526 0.028867317 -0.28948748 -0.16003954 0.2795281 -0.051412653 -0.4656255 0.2561957
-0.11773521 -0.5287104 -0.024449559 0.10486871 -0.17256527 0.04907982 0.124935366 -0.33765185
0.4481167 -0.08749853 -0.23556624 -0.0001682425 0.16123904 -0.6878973 -0.19073367 0.15579839
-0.059785843 -0.36326 -0.09706391 0.016504932 0.16685036 0.019257942 0.075713344 0.10873838
0.48654383 -0.16715355 -0.38659802 -0.19771808 0.16366793 0.16720785 0.026359588 -0.23473482
0.19123843 0.29133633 0.08712398 -0.20334107 -0.16370848 0.052915428 -0.40726176 0.36303142
-0.22815636 -0.10914209 0.052865364 0.22409226 0.21874237 -0.034603167 -0.11234477 -0.47360045
-0.12344849 -0.18803883 0.32144368 -0.18969762 0.20421691 -0.025024686 0.08751079 -0.28189746
-0.21851656 0.50894433 -0.28332788 0.18099 -0.5332961 0.08121789 -0.13414498 -0.1036745
-0.09737359 -0.04972645 0.20446754 0.10292139 -0.22641426 -0.1285736 0.2653889 0.08960072
-0.01955775 0.020035917 0.4551159 -0.074256435 0.13468093 0.29423153 -0.057131574 -0.37409642
-0.52507 -0.081056826 0.15989183 0.07213142 -0.024181794 0.009423341 0.0058788634 0.3149013
0.14472705 -0.12428754 0.46994835 0.020846693 -0.1567243 -0.14850268 0.6243324 0.01070647
-0.29570752 0.006322558 -0.31764454 0.25794184 -0.42646998 -0.13383289 0.34213588 -0.13588966
-0.7300472 0.12109416 -0.22237983 -0.23817779 -0.27221292 -0.48054606 0.25476602 0.16444686
-0.13635242 0.6525324 0.078598894 -0.07972936 -0.07236109 -0.29358196 0.24316463 -0.30408058
-0.18472148 -0.006076271 -0.4489464 0.3606319 -0.31754205 0.048013072 0.02379308 -0.4030636
0.14883941 -0.89636755 -0.17586638 -0.37157235 0.26441735 0.04170765 -0.15771887 -0.27668443
0.24464151 -0.19209054 0.14784054 0.511273 0.26893356 0.105474785 -0.03813169 -0.04377041
-0.18010108 0.41847545 0.15155552 -0.23508705 0.40181607 -0.057779767 0.34953412 -0.06215676
-0.06194984 0.0087751355 -0.37200838 -0.41683087 -0.00093142374 -0.45553708 0.3169904 0.34680918
0.07303646 -0.01959546 0.12615071 -0.483722 -0.76020527 -0.27463832 -0.14131352 0.06902697
-0.37396625 0.282978 0.17221761 -0.07239946 -0.14666961 -0.09985452 -0.37214753 0.47601578
0.37032384 0.030320462 0.16336446 -0.12499914 0.119684875 -0.28434953 0.22325586 0.3657752
0.11115965 0.28754976 0.28763026 -0.16794138 -0.0376855 0.056215007 -0.26751283 -0.12910199
0.26057374 0.019001363 0.11258005 -0.19188944 -0.008612434 -0.04019495 0.20263873 0.27752936
-0.066590436 0.58132315 -0.2010072 -0.31107217 -0.3377556 -0.036708076 -0.4502521 -0.17732212
-0.15908273 -0.11613707 0.05935144 -0.15910938 0.4307412 0.682032 -0.30777475 0.054922003

bias f4 [64]
00000000: bc37 343e 9892 6b3d fd30 fcbc 6c2a ca39
00000010: d835 68bd ee7b 123d faea dc3d 60ee b4bd
00000020: 31fc 5bbd b437 973b cb38 fd3c c5ad 2e3d
00000030: 7580 6abc d320 23bd a469 4fbd a34f 193e
00000040: 7083 953c 0d8a 193d db40 09be 858a 7cbe
00000050: df7c 613d 412e cd3d e340 1c3e 2893 bdbd
00000060: 958c 10bb b9f4 3c3e 0ba9 1dbe 5977 05be
00000070: 70ff 4bbd 9095 b73d de92 073d 498c 49bd
00000080: 205c d7bd ed1a 893d 002b e03d 066a 1c3e
00000090: 1449 263e 7532 a0bd a031 813d f73c 22be
000000a0: 1c54 173d 2305 a8bc a4a5 36bd 3c48 3b3b
000000b0: 9186 06bd e2bc 65bd 7e0f 7bbd b0b2 0ebe
000000c0: 44c5 0e3c 6ed1 8a39 64be 22bd 012b c3bc
000000d0: 6a84 1dbe 82ce cfbd 1110 d6bd 8288 db3c
000000e0: 72ef adbd 277f e63d 56e8 96bd 63b2 48bd
000000f0: 2339 50bd 7689 9a3d a2e2 4cbe 8348 623d
0.17599386 0.05751285 -0.030785078 0.0003856005 -0.056691974 0.03576272 0.10787006 -0.08834529
-0.053707305 0.0046147946 0.03091087 0.04264619 -0.014312853 -0.039826225 -0.050637856 0.14971785
0.01825115 0.03748517 -0.13403647 -0.24662216 0.055050727 0.10018588 0.15259127 -0.092565835
-0.002205645 0.1845273 -0.15396516 -0.13033809 -0.04980415 0.08964074 0.033099048 -0.049206052
-0.10515618 0.06694589 0.109457016 0.1527482 0.16238815 -0.07822124 0.06308293 -0.15843569
0.036945447 -0.020510262 -0.04459156 0.002857699 -0.032843176 -0.056088336 -0.06129407 -0.13935351
0.008714024 0.00026477448 -0.039732352 -0.023824217 -0.15382543 -0.1014681 -0.10452283 0.02679849
-0.08492936 0.11254721 -0.07368533 -0.048998248 -0.05083574 0.0754575 -0.20008329 0.055244934

weight f4 [64, 214]
00000000: 6963 e13c 640b c63c 59f1 86bc c231 af3d
00000010: dd71 c7bd d5ce aebd 824b 073d 845b 94bc
00000020: affa 563e f316 ee3d 2e22 3d3e 1ab9 4ebe
00000030: ae5b fd3d 16ec eabd 43bc 1bbe 8f44 9dbb
00000040: a112 5fbd 64eb 2abc dae2 4abd f9f6 22bd
00000050: 8472 0bbe aa0d 893d 9ca0 5d3c 7f28 49be
00000060: a3d9 273e 6f45 b33a 73f4 fcbb 0262 1e3e
00000070: f8a7 013e 14f7 2b3e 6872 b43e 92ca 0c3e
00000080: 7397 11be 7ff1 e63d 5b4d a33b f2bb 8b3d
00000090: 6750 06be 5b5a 033c 5aa7 1d3e f89b 93bd
000000a0: 5300 41be f70e 0abd 3b77 893d 2379 523d
000000b0: 9f94 dbbc 73c0 4cbe 5255 7cbd e826 0fbe
000000c0: 05b6 43be 0f57 833d 53af d93d 6796 fdbd
000000d0: b8d4 55bc 3ef1 0abc 579b 8a3d 1614 a3bd
000000e0: c7b7 f33d af40 d8bd dc31 c9bd 23fb 0abe
000000f0: a1a1 19bd 4282 3c3d 4eea 143e 0c3e bbbc
00000100: 5e70 cdbd c0b7 38bd b587 a9bd 8a5b 3dbe
00000110: c408 c2bc 2a79 373e be8d f7bb b37d 573e
00000120: 8162 6ebe 22da 303d 7e7d af3d 93f3 24be
00000130: 0ffe d13d 1c5d 313e bcf1 9ebd 86b0 4ebe
00000140: 68c7 cfbd e983 933b c61d 523d 7670 353d
00000150: c07d 983d e6e7 8a3d af6e d03c 5e25 293c
00000160: 4aca 1e3e dfc1 a33d cea9 91bc 5df6 86bd
00000170: d608 b13b 4182 d0bc 073c 8abe eb27 86bd
00000180: f536 21be aa32 2bbc d100 0d3e c4e6 483d
00000190: f8b1 1f3e 8cde 003e 32d9 0e3c 60c3 34bd
000001a0: b93c 72bd a0b8 f3bc 36f8 b6bd 6ce0 383e
000001b0: b429 3a3d bafc 8abd 79fd 16be d0a2 92bd
000001c0: 3aa7 e83c 9622 af3d be36 d83d a2a6 823d
000001d0: 8f2f 063e 60c0 9238 95e4 843c 88a7 de3d
000001e0: f662 ac3d 4e9e cdbc 1010 04be ad6d 4e3e
000001f0: 6f74 7d3e 8e7e 9e3b e469 4a3d 254b e6bb
00000200: 4139 f33d 6171 133d d771 873d 2d60 293e
00000210: bb67 3dbb 5a0e b5bd aa6a b03d 870d dcbc
00000220: 1116 d4bb 9fa4 e4bd 276b a83e 6ab9 d03c
00000230: 762d 653d 9137 e93d c4f0 8dbe fb65 cd3d
00000240: 0c41 95bd c0c9 0cbe f986 76bd f3de 3a3e
00000250: 5a11 8fbc aa33 b7bc 08dc 98bc d54a ed3b
00000260: 6993 503e 8673 9c3a c7fb 74be 48ca b1bc
00000270: 2bb3 553d ac06 9fbe 018e 1ebb 5983 083e
00000280: dcf2 f7ba 018e 8dbd d735 cebc c76e 923d
00000290: b6ad 763e 35c2 b3bd d17a 133d 16ce 06be
000002a0: 904a 77be 9c8f ea3d de51 223e a512 433c
000002b0: 55b7 babd 9212 9dbd 59d3 093c 1599 1e3e
000002c0: ca52 06be 1e6e 98be 3ed7 67be bda8 edbd
000002d0: bb20 ef3d 9729 253e 12d6 e6bd 725b 9dbd
000002e0: 3a34 3c3e ced5 a6bd b8e1 6b3e 3ee7 643d
000002f0: 3833 c1bc 1ad2 0ebe c430 923e 9a58 debc
00000300: 2ba0 303e 6e88 873c f5fa 0bbe 5f2b 6abd
00000310: 780b b8bd 8cfb d9be e0b3 023e 8ef7 26be
00000320: 32fd a5bd f90c a43d 4a38 ffbd 3b09 b33d
00000330: 555f e7be 91a6 52be 28ad eebe 80dc 8b3e
00000340: ebef 85be 9d3c 02bd be13 383e ae64 a23e
00000350: bf23 4ebd bce9 72bc d8d6 8a3e 7348 c43c
00000360: 45ad 95bd 9f34 1dbd a5f9 f43d 3791 c23c
00000370: 30f4 363e ed29 a43d 9973 b03d 3fdf e4bd
00000380: 5fb8 ccbd b012 8dbd 7c51 90be 8e46 6bbe
00000390: 005a 553e eb84 8dbc 8970 d13d 30c2 9fbd
000003a0: fc85 253d 0675 1c3e b6ce 96be 8627 5d3d
000003b0: 4cde 54bd fe0d 583d 3f1a 553e 3491 0c3d
000003c0: 47e8 3abd 7601 ea3d a755 9a3d 9425 263e
000003d0: 547d 93bd 4210 993d 27a8 9b3d 6782 e9bb
000003e0: 5235 77bd b116 363d fe3c 9f3d 30e8 cdbd
000003f0: e36f eb3b 89f3 f3bd db27 37be 9434 32bd
0.027513223 0.024175353 -0.016472505 0.085544124 -0.097385146 -0.08535544 0.033030994 -0.018110044
0.20994066 0.11625471 0.1847007 -0.20187798 0.12371002 -0.11470811 -0.15208535 -0.0047994326
-0.054461125 -0.010432098 -0.04953275 -0.039786313 -0.13617903 0.06692059 0.013527062 -0.19644354
0.16391616 0.0013677309 -0.0077195703 0.15467075 0.12661731 0.16793472 0.35243535 0.1374915
-0.1421793 0.112765305 0.0049835867 0.06822957 -0.13116609 0.008017148 0.15395871 -0.07207483
-0.1884778 -0.033705678 0.067121945 0.051385056 -0.026804266 -0.19995289 -0.061604805 -0.13979685
-0.19112404 0.064130895 0.106291436 -0.123822026 -0.013051204 -0.008480368 0.0676791 -0.079628155
0.11900287 -0.105592124 -0.09823963 -0.13572364 -0.037507657 0.04602266 0.14542505 -0.022856735
-0.10031198 -0.045097113 -0.08277837 -0.1849195 -0.02368582 0.17917314 -0.007554739 0.21044044
-0.23279764 0.043176778 0.085688576 -0.16108541 0.10253536 0.17320675 -0.07760951 -0.20184526
-0.101454556 0.004501809 0.051297925 0.044296704 0.0744586 0.06782512 0.025443403 0.01032385
0.15506855 0.07995962 -0.017781164 -0.06589959 0.0054026647 -0.025452735 -0.26998922 -0.065505825
-0.1574362 -0.010449091 0.13769843 0.0490482 0.15595233 0.12584895 0.008718776 -0.044131637
-0.05913994 -0.029751122 -0.08934061 0.1805436 0.045449927 -0.06786485 -0.1474513 -0.0715996
0.028400052 0.085515186 0.10557316 0.06379439 0.1310408 6.997655e-05 0.016222278 0.10871798
0.08417313 -0.0250999 -0.12896752 0.20159025 0.24751447 0.004836864 0.04941739 -0.007028001
0.11876155 0.0359968 0.0661351 0.16540594 -0.002890094 -0.08840628 0.086140946 -0.02686192
-0.006472357 -0.111642115 0.3289425 0.025479037 0.055951558 0.113875516 -0.27722752 0.10029217
-0.07287797 -0.13748837 -0.060187314 0.18249111 -0.017464329 -0.022363503 -0.018659607 0.0072415867
0.20368733 0.0011936284 -0.2392417 -0.0217029 0.05217282 -0.31059778 -0.0024193528 0.13331355
-0.0018916982 -0.06911851 -0.025172157 0.07150035 0.24089703 -0.087772764 0.0360058 -0.13164553
-0.24149537 0.114531726 0.15851542 0.011906301 -0.09116999 -0.07669558 0.008412206 0.15488084
-0.13117519 -0.29771513 -0.22640702 -0.1160445 0.11676165 0.16129147 -0.112712994 -0.076834574
0.18379298 -0.08146249 0.23035324 0.055884592 -0.023583993 -0.13947335 0.2855283 -0.027141858
0.17248599 0.016544547 -0.13669951 -0.05717027 -0.089865625 -0.42574728 0.1276393 -0.16305372
-0.08104934 0.08010287 -0.12461908 0.08741995 -0.4518992 -0.20571353 -0.46616483 0.27316666
-0.26159605 -0.031796087 0.17976281 0.31717438 -0.05032706 -0.014826234 0.27117038 0.023960328
-0.07308439 -0.03838026 0.119616784 0.023750884 0.17866588 0.08015809 0.086157985 -0.11175393
-0.099961035 -0.0688833 -0.28187168 -0.22976133 0.20835114 -0.017275294 0.102265425 -0.0780071
0.04041098 0.15279016 -0.29454583 0.05399277 -0.05196981 0.05274772 0.20810793 0.034318164
-0.045631673 0.1142606 0.07535868 0.16225272 -0.07201639 0.07473804 0.07600432 -0.007126141
-0.060353585 0.044455234 0.07775305 -0.10054052 0.007184969 -0.11911685 -0.17886297 -0.043507174

bias f4 [64]
00000000: e8da 853d 417f b33b b3ef 85be c9f0 8a3e
00000010: 2b0b 10bd 5827 ee3d 810b 893c 2c21 2abe
00000020: dda3 04bd fa0e 943d 4128 913c d092 4cbe
00000030: e8d8 dfbd c862 44bd 5ccf fa3d 1913 223b
00000040: 52d1 a4bd 1441 873c f6f0 cc3d 507b 1c3e
00000050: cd57 f2bd 8311 4fbe b1d7 c1bd b55e fcbd
00000060: f172 c1bb 5ed9 03be 3bf5 0c3e 2ad5 b33b
00000070: b734 23bd 3074 96bc 8087 c13d 5500 3cbe
00000080: a204 acbd 61d2 05bd dc12 d5bd 6b83 283e
00000090: ab60 363d 6b1e cd3b 5ad2 32be 3af1 91ba
000000a0: 23ed dd3d 9ad5 0b3e d08e 0bbd 0d9f 763e
000000b0: 15af 64bd b6b9 1b3e e526 9abc 284d 593d
000000c0: b28f 33bd 35d8 2b3d b335 e2bb 869f 58be
000000d0: edc6 663e 4da6 94b9 313e 6e3e 8aa8 6bbd
000000e0: 4c3f e4bc 8b9b e8bc a404 8cbc 05a3 d5bd
000000f0: e6b0 2ebe 388b 5dbd 93c7 593d fe98 6dbd
0.06535894 0.0054778163 -0.26159438 0.2713683 -0.0351669 0.11628598 0.016729118 -0.16614217
-0.032382835 0.07229419 0.01771939 -0.1997788 -0.109300435 -0.047945768 0.12246582 0.0024730621
-0.08047737 0.016510524 0.10006897 0.15281415 -0.11833153 -0.20221524 -0.09464968 -0.123227514
-0.0059035947 -0.12875888 0.13765423 0.0054880576 -0.039845195 -0.01836595 0.09449673 -0.18359502
-0.08399321 -0.032671336 -0.10403988 0.16456382 0.044525784 0.0062597296 -0.17463055 -0.0011134513
0.10836246 0.13655701 -0.034071743 0.2408411 -0.055831034 0.15207562 -0.018817374 0.053052098
-0.04383821 0.041954238 -0.006903374 -0.21154603 0.22536822 -0.00028352664 0.23265912 -0.05753378
-0.027862214 -0.028394481 -0.017092057 -0.10431484 -0.17059669 -0.054087847 0.053168844 -0.058007233

weight f4 [150, 22]
00000000: b8f4 0ebe 71d5 28be 8421 d73d 7c67 4dbd
00000010: 8088 7cbd 9351 8abd f8cd 123e 6141 f2bc
00000020: dc47 08be fd20 08bd e2b4 313e 5e4e 563e
00000030: e543 f8bb 13b3 2cbe 99f4 043f eb5f 473e
00000040: 6cb7 89be c86b 003f b2e2 d6bd 882b 943d
00000050: ec0b 4abe 7895 4f3e 1e6a cb3d d0da 843c
00000060: e7b7 523e 6b5c c0bc f22e 2b3d bfb3 fbbb
00000070: 0bfc 903d b4b0 583e 6312 56bc e30c 053c
00000080: 4236 7f3d 80d2 9e3e 0640 c2bb f293 a8bd
00000090: 5020 9a3e 5485 823e 68ab 223e af90 743c
000000a0: 85fa 743d a2fd d13d 7478 49bd 0a8c 253d
000000b0: 3233 633e dc8c a23c 5518 073d 9095 6ebd
000000c0: 51e3 393c 82ee 273d c840 ca3d dce7 82bd
000000d0: d57d 51bd de53 2dbd 5811 f23c 7219 b5bd
000000e0: 7d60 263d dcee ecbd 4b78 7c3d 3020 763d
000000f0: b86d 77bd cdb4 953e 97c6 00be 9e50 af3d
00000100: e2b7 ca3c 2372 4b3d 31b2 a3bd 09e6 b7bd
00000110: 0fd0 66bd 20c3 8bbd a991 a83d 54f0 523c
00000120: 7bc3 c83d 8e89 bfba 22a5 d53d 4824 e93d
00000130: d253 853c 2502 973d 3c4c d1bd de79 0dbe
00000140: 9749 fdbd 5fef 59bc 6c3d 253c 558d 323c
00000150: e83a 2f3c b342 9e3b cc28 67bd ead6 88bc
00000160: 3957 9e3d 9ecc 9b3e 2702 d03d 6799 e93c
00000170: 3fbd 833b 0d62 31bd 8ace e53d 7b2e 8c3d
00000180: afdb 0e3e 9a72 ca3d 694c 21bd 2089 af3e
00000190: c8a1 1b3d 639e 973e 160c ba3e 4b35 583e
000001a0: 3a6b 63be 8793 b2bb 3a5e 10be a55f 063e
000001b0: 4507 5abe e68e 123d 5879 31be e8f5 e2bc
000001c0: eafe 0a3e 8f2f cebc c4d2 9d3d e916 09be
000001d0: de66 b13d c310 453c dcdd 183d 1173 493d
000001e0: cef2 9cbd 0950 813e 03b8 c4bd 96c2 783b
000001f0: d62e 97bd 5f78 c2bd c9b2 693d 6270 743e
00000200: e222 4639 2fef 0cbd bbba 96bc ca61 6dbd
00000210: 65df 56be 62df 27bd 935a 7c3c f92c 893d
00000220: 7dc0 ee3c d304 5b3c 688f a43d e7f1 ddbd
00000230: 3d36 84bc 5859 5dbd 0872 ad3d 182a 80bd
00000240: bc53 11be bbba e4bd 0a39 83bd 603b 91bc
00000250: f565 01be 8c53 5e3e 6c60 753c 3471 613d
00000260: f8ac 9a3c 1b17 413d f346 a03d 9cc0 b63b
00000270: 1d10 f4bd a091 553c a158 173e 0208 913d
00000280: 7335 cc3d b0d3 60bc bd3c 6cbd ed81 b2b9
00000290: 95aa 39bd 1363 6ebe 739b a93d 771d b0bd
000002a0: 0bbf 3bbe d4d9 623d 4852 513c a8fb a53c
000002b0: 09ad 18bd a5b2 33bd 7d22 d03c b862 5bbd
000002c0: 7192 efbc dcd5 aebd 21f5 f73d c2cf 123d
000002d0: d4a3 2f3d d88c ebbd b236 1cbd 7753 333e
000002e0: 0501 b13c 1679 edbd d83e 583d 97c8 c3bc
000002f0: df5c d7bc 711b 9dbc aa59 683e db8e 2b3c
00000300: a2cd 82bd afce 0dbe 7517 fd3b fad0 263d
00000310: f45f 843c 3c3c 303b f7ba 2dbd eba5 1dbd
00000320: de99 a9bd 3bd4 793d 0b88 b0bc 1a61 da3d
00000330: db2a 993d 49a9 c4bc eda7 0b3c 9ae5 8d3d
00000340: 6d36 853b 9f54 93be 2145 b5bd 09d5 cfbc
00000350: b04c 55be 1f66 bb3d d95e 4bbd 01d1 0ebc
00000360: 1136 c2bc 0217 823d 8067 4bbd 8426 34bd
00000370: ebee bebd 8312 5ebb e102 3c3b 2c88 613d
00000380: 790c 0a3d b706 20bd e011 823c 16f0 b63d
00000390: f68d fcbb 28c6 163c 5fab 1bbd e925 8cbd
000003a0: 24a1 183c 936e 39bd 0b89 c6bd ae59 2ebd
000003b0: cd78 e73d f684 47bc f67a 27bd 4c94 bf3c
000003c0: 211f 453b 3e27 b3bb 1ccd 00bd cca6 3f3e
000003d0: a83a 68bc 49ad 153c cfb0 733d cfad 843d
000003e0: 2b3c 6f3d 1b78 e53d d2c5 8e3d 097a 62bd
000003f0: dcd4 aabd 8aef 693e 38ed babd 73f9 5e3e
-0.1396054 -0.16487671 0.105044395 -0.05014752 -0.061653614 -0.0675384 0.14336383 -0.02957219
-0.13308662 -0.033234585 0.17354158 0.20928332 -0.007576453 -0.16865186 0.51935726 0.19470184
-0.26897752 0.5016446 -0.104924574 0.072348654 -0.1973111 0.20271862 0.099323496 0.01621762
0.20577966 -0.023481568 0.041792817 -0.0076813395 0.070793234 0.21161157 -0.013065907 0.008120748
0.062307604 0.31019974 -0.0059280423 -0.08231343 0.30102777 0.25492346 0.15885699 0.014927073
0.059809227 0.10253455 -0.04918714 0.040416755 0.22187498 0.019842558 0.03298219 -0.058248103
0.0113457 0.040998943 0.09875637 -0.0639188 -0.051145393 -0.04231631 0.029549286 -0.08842744
0.040619362 -0.11568996 0.061638158 0.06008929 -0.06040737 0.29239503 -0.12575756 0.085602984
0.024745885 0.049669396 -0.07992972 -0.089794226 -0.056350764 -0.068243265 0.082309075 0.0128746815
0.0980291 -0.0014613138 0.10431887 0.11383873 0.01627532 0.07373456 -0.10219619 -0.1381602
-0.12367552 -0.013301699 0.010085445 0.010897954 0.010695197 0.0048297285 -0.05643539 -0.016704042
0.0773148 0.30429548 0.101566605 0.02851553 0.0040203626 -0.0433064 0.11221035 0.06844803
0.1395099 0.0988514 -0.03937951 0.34284306 0.037996083 0.29613027 0.36337346 0.2111408
-0.22208872 -0.0054497155 -0.14098445 0.13122423 -0.21291836 0.03578081 -0.17331445 -0.027705148
0.13573804 -0.025169162 0.07706216 -0.13387646 0.086621985 0.012027922 0.037320957 0.049182
-0.07663499 0.25256374 -0.0960541 0.003795778 -0.0738198 -0.09495615 0.05705527 0.23870996
0.00018895746 -0.03440779 -0.018399587 -0.057954587 -0.20983656 -0.04098452 0.015402454 0.06698031
0.02914452 0.013367849 0.08035165 -0.10837155 -0.016139144 -0.054040283 0.08469015 -0.06258029
-0.14192098 -0.111684285 -0.06407364 -0.017728508 -0.1263655 0.21711558 0.014976602 0.0550396
0.018881306 0.047141176 0.078260325 0.00557716 -0.11917136 0.013035208 0.14779903 0.070816055
0.09971132 -0.013722345 -0.057675112 -0.00034047608 -0.045328695 -0.23279981 0.08281603 -0.0859937
-0.18334596 0.05538352 0.012775965 0.0202616 -0.037274394 -0.04387154 0.02540707 -0.053560942
-0.029244633 -0.08536884 0.121073015 0.035842665 0.042880848 -0.11501473 -0.0381381 0.17512308
0.021606931 -0.11595361 0.052794307 -0.02389936 -0.026289402 -0.019178124 0.22690454 0.010471071
-0.063868776 -0.13848375 0.0077237436 0.04072664 0.016159035 0.0026891371 -0.04241463 -0.03848831
-0.08281301 0.060993414 -0.021549245 0.10663052 0.07478877 -0.024006503 0.008523923 0.06928559
0.004065326 -0.28775498 -0.08851076 -0.025370138 -0.20830035 0.091503374 -0.049651 -0.008716823
-0.023707421 0.06352045 -0.049659252 -0.043982044 -0.09322914 -0.0033885546 0.002868824 0.055061504
0.0337033 -0.039068904 0.015877664 0.089325115 -0.0077073528 0.009202518 -0.03800523 -0.06843168
0.009315763 -0.045271467 -0.096941076 -0.042565994 0.11302338 -0.012177696 -0.04088875 0.023386143
0.0030078369 -0.0054673245 -0.031445608 0.18715972 -0.014174141 0.009135553 0.05949479 0.06478464
0.05840699 0.11204549 0.06971325 -0.055292163 -0.08341381 0.22845283 -0.09127277 0.21774845

bias f4 [150]
00000000: 0c45 7b3e fbca c63b 02bc b0be 7526 f73d
00000010: 7c19 053f 10c1 93bd 35f5 2fbe 2c8e 953e
00000020: 5ed0 8d3c 7c61 a53e 32f6 a63d e26f d73d
00000030: 652a 2fbe 356c 7dbd 2321 6abd 09f9 0b3f
00000040: 452a 993e 42d5 033d 330a 023f b899 f7be
00000050: c154 aebe 6f5f b9be 677d f3bb 6ce3 253e
00000060: 7297 eabd 0d95 453d b55d a7be c0fb 0f3e
00000070: 80fe d83d 20af 97be 0b52 dd3d 9a17 833e
00000080: 2209 5dbe 641f 873e aa14 3c3e 2a2d 9d3d
00000090: 31a6 cc3d 4d76 49bd 2359 903e cd14 06be
000000a0: 555f c9bd 00c3 b0be 9cf1 853e de91 26be
000000b0: f8f9 163f f7bd 663d 98c9 3dbe 203c 8cbe
000000c0: bbb6 7c3e 9fee b63d 560d e93e 1210 cc3e
000000d0: 9aed af39 5595 513e e1dd 643d d294 49be
000000e0: e56e 723e 4326 86be 0ca9 3a3e 2d0d 4bbe
000000f0: 4406 4d3d 591e d83e da5c b9be c7ad 803e
00000100: 5ed6 c73e 7558 a1bd 1900 73bd c770 febe
00000110: a4b9 a83e c4df 7bbe ebe2 31bd 2a83 1dbf
00000120: b914 973d e7fa 053f 41ca 6f3d b0a0 283e
00000130: 6d1c cfbe b54f 873e bbeb cbbe c140 563e
00000140: b5b8 813e 6fdd e93d aed5 f23d 56ab c0be
00000150: c7fc aa3d ce19 253f f88f db3d 01b7 a43c
00000160: 10d5 c0be f4ba 6f3e 969d 9dbe 023f ebbe
00000170: eb09 0c3e 6a9b aa3b 33f5 c63e 6aab 313e
00000180: bde2 b13d 53a5 be3e 1835 c93d 56c6 0a3f
00000190: b3d3 6bbe 3404 0dbf 33ca 353d 979e 323e
000001a0: eb0b 9bbe 9091 e13d 5481 5a3e fb49 693e
000001b0: b4c0 7bbc a075 72be a33d 48be 03ff 8b3e
000001c0: 9224 b6be 3f6e c0be 792b 47be cb60 30be
000001d0: 2a6a b3bd 7a58 563e 66c7 8f3e 8f07 45be
000001e0: c5ca f2be de77 8abe 4944 f5be 66e8 88be
000001f0: f8ff 51be ad41 cc3d e69e 903e a150 043e
00000200: 3d31 503e 7ebb 8a3d 6c29 99be bd69 803e
00000210: 51f1 c13e 0c7b 8cbe 85c5 243e 79a0 513c
00000220: 5458 93be dbb6 b8be dcfb 56bd 62cd 8abe
00000230: f7a3 fa3e d9d9 a93a ee51 cfbe 0b15 5f3e
00000240: 8d04 4b3e ed05 2e3e d6b1 c6bc b669 81bd
00000250: cffa b2be 9c0d e1bc
0.24538058 0.0060666776 -0.3451844 0.12067882 0.5199201 -0.07214558 -0.17183383 0.2921003
0.017311271 0.32300937 0.08152427 0.10519387 -0.17106016 -0.061870772 -0.057160508 0.5467687
0.29915062 0.0321858 0.5079681 -0.48359466 -0.34049037 -0.36205623 -0.0074307206 0.16200036
-0.11454667 0.04823785 -0.3268868 0.14060879 0.10595417 -0.29625797 0.10806664 0.25603944
-0.21585515 0.26391137 0.18367258 0.0767463 0.09992636 -0.049185086 0.28193006 -0.13093872
-0.09832636 -0.34523773 0.26160896 -0.16266581 0.5897517 0.05633351 -0.18533933 -0.27389622
0.24679081 0.08932232 0.45517987 0.3985601 0.00033555628 0.20467122 0.055875663 -0.19685677
0.23675115 -0.26201066 0.18228549 -0.19829245 0.050054803 0.42210653 -0.36203653 0.25132582
0.39030737 -0.078782 -0.059326265 -0.49695417 0.32954133 -0.24597079 -0.043429296 -0.61528265
0.073769994 0.5233597 0.058542494 0.16467547 -0.40451375 0.26428 -0.39828286 0.20923139
0.25336233 0.11419188 0.118571624 -0.3763072 0.08348995 0.644925 0.10720819 0.020106794
-0.37662554 0.2341116 -0.3078429 -0.4594651 0.13675658 0.005206515 0.38858947 0.17350546
0.08685825 0.37235507 0.0982458 0.54208887 -0.23029976 -0.5508454 0.044382285 0.1744331
-0.3028253 0.11014092 0.21338397 0.22782128 -0.015365768 -0.23677683 -0.19554763 0.27342996
-0.35574776 -0.3758411 -0.19450177 -0.17224424 -0.087604836 0.20932189 0.28081816 -0.19241165
-0.47420326 -0.27044576 -0.4790366 -0.26739806 -0.205078 0.09973464 0.2824623 0.12921382
0.20331283 0.067740425 -0.29914415 0.25080672 0.37879422 -0.27437627 0.16090973 0.012794607
-0.28778327 -0.36077008 -0.052486286 -0.2710982 0.4895322 0.00129586 -0.40492195 0.21785371
0.19825955 0.16994448 -0.02425472 -0.06318991 -0.34956977 -0.02747231
